models/SCAPE_5k/best_basis.pth (torch, 927122 bytes, 73 tensors)

bn1.weight f4 [64]
000000 b1 01 7f 3f 23 23 6f 3f 85 8e 82 3f cf 7c 69 3f
       0.99611956 0.9341299 1.0199744 0.9120607
000010 23 9c 79 3f aa 98 7e 3f 84 f8 82 3f 5f 1a 82 3f
       0.9750387 0.99451697 1.0232091 1.0164298
000020 ed cd 74 3f 66 36 7e 3f 32 e8 6c 3f d1 4e 87 3f
       0.9562672 0.99301755 0.925418 1.0570928
000030 41 66 7f 3f 70 48 67 3f 3e de 82 3f 31 6b 79 3f
       0.997654 0.90344906 1.0224073 0.97429186
000040 05 0d 84 3f 42 d2 75 3f 82 18 7e 3f 14 7c 5f 3f
       1.0316473 0.9602395 0.99256146 0.87298703
000050 b7 21 6e 3f 18 c9 7c 3f ad 91 83 3f 41 eb 7c 3f
       0.93020195 0.98744345 1.0278832 0.9879647
000060 8d 1a 7e 3f 18 5f 8d 3f c3 b6 83 3f 8e f6 8a 3f
       0.99259263 1.1044645 1.029015 1.0856493
000070 a0 5e 8a 3f 15 e2 7c 3f 3b aa 70 3f 7e d8 6c 3f
       1.0810127 0.98782474 0.9400975 0.9251784
000080 02 af 80 3f d2 54 7c 3f 64 0d 6d 3f 8f e4 7e 3f
       1.0053408 0.98566926 0.9259856 0.995675
000090 7a e8 72 3f db da 83 3f 06 52 7b 3f 84 87 84 3f
       0.9488598 1.0301164 0.9817203 1.0353856
0000a0 ab 85 82 3f 7b 00 81 3f 74 e1 80 3f c9 b4 84 3f
       1.0197042 1.0078272 1.0068803 1.0367671
0000b0 9d c6 7e 3f 4c 69 87 3f e9 ad 78 3f 85 6a 83 3f
       0.9952181 1.0579009 0.97140366 1.0266882
0000c0 53 f2 71 3f 42 ca 67 3f c4 eb 7f 3f f5 43 92 3f
       0.9451038 0.90542996 0.99969125 1.1426989
0000d0 09 fd 88 3f 55 3c 80 3f 47 f5 82 3f f0 29 74 3f
       1.070222 1.0018412 1.0231103 0.9537649
0000e0 3f c7 85 3f 00 34 71 3f 9b 7c 83 3f 54 64 80 3f
       1.045143 0.9421997 1.0272402 1.0030618
0000f0 f5 63 87 3f d2 66 87 3f e3 ce 81 3f af db 73 3f
       1.057738 1.0578253 1.0141262 0.95257086

bn1.bias f4 [64]
000000 f4 b2 e4 bc ee 44 3c 3c 5c 44 06 3d 57 83 b9 3d
       -0.027917363 0.0114910435 0.032780036 0.09058254
000010 01 be 9a 3c 34 c0 54 bd 61 ed 77 3d fa 23 f1 3d
       0.018889429 -0.05194111 0.060529117 0.1177444
000020 ff c6 9f bd 1d d1 fc 3d 79 52 da 3c 34 e2 2c be
       -0.07801627 0.12344573 0.026650654 -0.16883165
000030 f9 09 dd bd ef e9 bd 39 f5 d6 31 3e e8 5f 01 3e
       -0.10792918 0.00036223183 0.17367156 0.12634242
000040 db e4 d5 3d 0d 54 33 3e d2 6e 33 3d ae 80 65 bd
       0.10444041 0.17512532 0.04380686 -0.05603092
000050 7d b1 f1 bd b7 67 fb bd e1 90 ae 3d 28 bb 82 3d
       -0.11801431 -0.122756414 0.08523727 0.063833535
000060 77 04 6d 3d 0f 0f 96 bd 6e ff c7 bc 7c f8 9e bd
       0.057865586 -0.07327091 -0.02441379 -0.077622384
000070 67 94 0e bd db fe c0 3c 56 dc 1b bc ad 74 b3 bd
       -0.034809496 0.023559025 -0.009512981 -0.087624885
000080 fa 75 d3 3c b5 1d 2c bc b6 c5 72 bd 1f 7d da bc
       0.025813092 -0.01050513 -0.059270583 -0.02667099
000090 7a 17 36 3d 81 4d b0 bd bb 7c 0a 3d bc bb 3c 3c
       0.044455983 -0.08608533 0.03381036 0.011519369
0000a0 e9 65 e1 bd de 22 5d bd 83 88 0c 3d cf f8 28 3e
       -0.11005766 -0.05398833 0.034309875 0.16501163
0000b0 28 75 a5 3c ce 23 f3 bc 5c 92 a8 3c 63 d4 6a 3d
       0.020197466 -0.029680159 0.020577602 0.057331454
0000c0 3b 3c d2 bd 3e 8d 8c bd d7 a1 b6 3d 6c 64 46 bd
       -0.10265394 -0.06862877 0.08917587 -0.048435614
0000d0 ef f4 fb 3d 38 e6 39 3d bd 5f 85 3d 0d c3 01 be
       0.12302577 0.04538557 0.06512401 -0.12672062
0000e0 44 7f f3 bd b8 f7 4a bd 3d 37 9e 3d 21 19 23 3e
       -0.11889508 -0.04955265 0.077253796 0.15927555
0000f0 19 f8 00 3d 48 34 33 3b e4 89 c8 3d 68 80 09 3e
       0.031486604 0.0027344394 0.097919255 0.1342789

bn1.running_mean f4 [64]
000000 09 72 ac b9 eb 88 e5 b9 e3 4d f1 37 76 7e d1 39
       -0.0003289136 -0.00043780296 2.8765708e-05 0.00039957807
000010 ab 32 33 3a d8 d8 0a b9 c8 0e 7b b9 e2 cd 73 39
       0.0006835858 -0.00013241486 -0.00023942732 0.00023250983
000020 f0 a5 36 b8 f8 1c 0b 38 e4 83 c9 39 eb 1f 1f 39
       -4.3546723e-05 3.316716e-05 0.00038435974 0.00015175312
000030 af 22 8a b9 94 df ca b9 59 85 e8 39 35 e5 97 38
       -0.00026347252 -0.0003869502 0.0004434984 7.242934e-05
000040 48 6f d1 37 00 a0 04 3a 50 7e 04 b9 5b be 90 39
       2.496656e-05 0.0005059242 -0.00012635556 0.00027607646
000050 0f c3 78 39 ae d6 f0 b8 93 c8 4b b9 08 79 05 3a
       0.00023723788 -0.00011484079 -0.00019434308 0.00050915824
000060 e0 cd a2 b8 c8 ee 09 3a 69 10 bb 39 89 d9 9d b9
       -7.763109e-05 0.00052617164 0.00035679646 -0.0003010745
000070 c1 ca 47 ba 47 d9 2d ba de 0d fa 39 c2 66 ff 39
       -0.000762146 -0.0006631803 0.00047694048 0.0004871395
000080 29 d4 d6 38 a5 84 dc 39 70 f7 88 b7 e9 d4 16 3a
       0.00010243833 0.00042060498 -1.6327685e-05 0.0005753772
000090 d1 04 ad 37 bc c6 39 39 51 14 e1 37 7f 64 83 b8
       2.062545e-05 0.00017717009 2.683155e-05 -6.2652856e-05
0000a0 b4 07 9e 39 27 a3 0d b9 83 30 dd 38 e6 2a 0b ba
       0.00030141848 -0.00013507587 0.00010547137 -0.00053088216
0000b0 18 c0 9b 39 94 47 f0 b9 48 94 23 39 9d 6a 31 39
       0.00029707025 -0.00045829697 0.0001560013 0.00016919752
0000c0 12 a8 28 38 7a 99 92 b9 40 53 18 37 db eb fa 38
       4.021085e-05 -0.0002796164 9.079289e-06 0.000119648605
0000d0 8b 18 84 b8 fe 53 2b b9 e8 e1 2d ba ff 18 e2 b9
       -6.298822e-05 -0.0001633912 -0.0006633089 -0.00043124703
0000e0 95 5e 9d b8 3e 5c 0e b9 fb b4 45 39 ec 60 ea b7
       -7.503961e-05 -0.00013576538 0.00018854805 -2.7940107e-05
0000f0 35 41 e5 39 08 d1 a4 b9 85 2f ee b8 ca bf 6f 39
       0.00043726867 -0.00031436258 -0.000113575756 0.00022864263

bn1.running_var f4 [64]
000000 03 1d 4a 3b 7b 65 49 3c 62 c9 97 3c a7 35 5b 3b
       0.0030840046 0.012292261 0.018528644 0.0033448727
000010 32 3a 69 3c 27 74 7b 3b 50 b7 05 3b 93 e5 d7 3b
       0.014235066 0.0038368793 0.0020403452 0.0065886467
000020 90 ad 68 3c 5a 30 c2 3c f1 8b e3 3c 84 8b 72 3b
       0.014201537 0.023704696 0.02777669 0.0037009427
000030 74 e8 4f 3c bb 0e a1 3c 83 8a 06 3c 27 b2 74 3b
       0.0126896985 0.019660344 0.008211735 0.0037337632
000040 f4 b1 9e 3c 56 41 d9 3b d6 df 00 3c 0e d9 af 3c
       0.019371964 0.006630103 0.007865867 0.021465804
000050 18 27 92 3c 3c 16 0a 3c 19 57 c8 3b 4b 91 56 3b
       0.017840907 0.008428153 0.0061138985 0.003274041
000060 2d 9f 24 3c cb 14 4d 3c af e1 88 3c 59 a3 42 3b
       0.010047716 0.012517164 0.016709177 0.0029699414
000070 c2 fc 45 3c 4d 2f 62 3c 66 8a 39 3b 5c a2 a9 3c
       0.012084188 0.013805223 0.0028311252 0.020707302
000080 06 ff bc 3c c4 f7 4f 3c ee b0 f6 3c 3d 32 7b 3c
       0.023070823 0.012693349 0.030113664 0.015331802
000090 02 3e 9d 3c 2b 83 e9 3b 91 4e 82 3c 46 2d 4f 3c
       0.019194607 0.007126232 0.015906604 0.012645071
0000a0 93 ac 95 3c b7 b6 a0 3c 7d 01 10 3c f3 c6 23 3c
       0.018270766 0.019618375 0.008789417 0.009996164
0000b0 9f 40 c4 3c 9f 0a c8 3b 17 a0 d4 3b e1 04 96 3b
       0.023956595 0.0061047818 0.0064888108 0.0045782183
0000c0 28 3b 0f 3c 51 19 68 3b bc ce 66 3b 54 39 ce 3b
       0.008742131 0.003541548 0.0035218438 0.006293455
0000d0 2c 30 30 3c f4 d3 b8 3b 1a 96 b8 3c ef ea e7 3b
       0.010753673 0.005640501 0.022532512 0.007077567
0000e0 1e 8b d4 3b ba 65 9e 3c 63 f3 b6 3b ec 23 74 3c
       0.0064863106 0.019335616 0.005583213 0.014901143
0000f0 38 d4 e4 3c 9b c0 5f 3b bc 57 06 3c 4c b2 15 3c
       0.027933225 0.0034141901 0.008199628 0.009136748

bn2.weight f4 [64]
000000 97 a3 89 3f 2f 24 88 3f 50 c1 71 3f 12 77 76 3f
       1.0753049 1.0636042 0.94435596 0.96275437
000010 1d 0d 83 3f d5 b6 8a 3f 6d 38 86 3f b8 96 85 3f
       1.0238377 1.0837046 1.048597 1.0436621
000020 d1 f1 86 3f 88 53 8a 3f ca b4 94 3f 95 78 75 3f
       1.0542547 1.0806742 1.1617672 0.9588712
000030 8d 81 8b 3f 9d 40 89 3f 67 1b 87 3f bd f2 88 3f
       1.0898911 1.0722843 1.0555238 1.0699078
000040 ea 90 91 3f 1b 36 8d 3f cb 72 7e 3f ae ee 87 3f
       1.1372349 1.1032137 0.9939391 1.0619714
000050 f7 17 7c 3f 25 f3 83 3f d1 ed 87 3f dc 2d 90 3f
       0.9847407 1.0308577 1.0619451 1.1263995
000060 37 c2 80 3f 49 75 69 3f d2 af 7d 3f 72 9b 93 3f
       1.005927 0.9119459 0.99096406 1.1531813
000070 67 30 87 3f ec b3 8c 3f 2c d4 86 3f e8 63 99 3f
       1.0561646 1.0992408 1.05335 1.1983614
000080 97 1d 7b 3f 87 b3 84 3f 18 81 85 3f d1 19 8b 3f
       0.98092026 1.0367287 1.0430021 1.0867254
000090 06 d3 86 3f 44 5b 83 3f 8e 38 88 3f 1f 90 89 3f
       1.0533149 1.0262227 1.0642259 1.0747107
0000a0 15 e5 83 3f 21 3c 8c 3f 40 e7 7b 3f cb 5d 82 3f
       1.0304285 1.095585 0.98399734 1.0184873
0000b0 2e 2d 8c 3f 93 43 82 3f b9 aa 8a 3f dd 66 8b 3f
       1.0951288 1.0176872 1.083335 1.0890766
0000c0 41 32 7e 3f c0 a7 89 3f 95 9e 86 3f 0e 3b 73 3f
       0.9929543 1.0754318 1.0517145 0.95011985
0000d0 ec 25 86 3f 15 4c 83 3f f7 33 83 3f d7 c1 86 3f
       1.0480323 1.0257593 1.0250233 1.0527905
0000e0 3a 2e 8a 3f 26 4f 8e 3f 6a 2d 92 3f 42 bd 85 3f
       1.0795357 1.1117904 1.1420109 1.0448382
0000f0 9a 41 89 3f 59 36 84 3f 83 b9 8a 3f d2 7d 8e 3f
       1.0723145 1.0329086 1.0837864 1.1132147

bn2.bias f4 [64]
000000 72 d8 0d 3c 81 36 92 3b 24 37 8a 3e 65 75 bf bd
       0.008657562 0.004462064 0.26995194 -0.09348563
000010 31 ab f6 3d dd 6a 29 3d 84 ec e0 3d 14 40 a2 bb
       0.12044371 0.04136168 0.10982612 -0.0049514864
000020 3b 4b 6b 3d 5f 6d 31 3d b7 42 1c 3d 35 51 01 3d
       0.057444792 0.043317195 0.03814956 0.031571586
000030 ed a5 e7 3d ab 93 8e 3c 55 a9 73 3c 2f 14 cb bd
       0.11310945 0.017404398 0.014871915 -0.09915959
000040 93 ac a3 bd fa c1 b0 bc ee 7a fe bd 66 5a 26 bc
       -0.079919 -0.02157687 -0.12425791 -0.010153389
000050 39 fc f4 bd 16 4f f3 3b 41 ac d2 bd 47 39 be bc
       -0.1196217 0.0074251993 -0.10286761 -0.023220671
000060 1f e6 1c 3c d6 eb 3b be 49 81 95 bd d8 1d 2c be
       0.0095763495 -0.18351683 -0.0730005 -0.1680826
000070 d1 8a 0a 3e 01 d0 1c bd 17 f3 32 3d 7a 51 66 3d
       0.13529517 -0.038284305 0.04368886 0.056230046
000080 22 9a a4 3d ba e3 ce 3d 54 50 68 3d 50 81 03 3d
       0.08037211 0.10102029 0.056717232 0.032105744
000090 20 d9 df 3c 27 d0 d4 3d 96 9f 73 3c 78 c0 27 3e
       0.027325213 0.103912644 0.014869591 0.16382015
0000a0 1a 87 2b bd ce 3a c9 3d 96 3f 67 bd 68 cd 81 3d
       -0.04187689 0.09825669 -0.056457125 0.06338006
0000b0 96 6b 81 bd 0d 2e a8 3b 4d 1e 35 3d 38 26 e2 3b
       -0.063193485 0.005132443 0.04421835 0.0069015287
0000c0 ae 94 e3 bd a0 c4 21 be 72 2f 91 bd e4 d0 b4 bd
       -0.11112343 -0.15797663 -0.070891276 -0.08828905
0000d0 77 66 d1 3c fd 90 db bc 09 9b 27 3e 7a e2 a8 bd
       0.025561554 -0.026802534 0.16367735 -0.08246322
0000e0 db b9 6f bd ab f4 a5 3e 60 67 ff 3d 03 e3 49 bd
       -0.058526855 0.3241323 0.12470889 -0.04928876
0000f0 04 ef 79 3c 3e d3 88 bd 9b 3f 5c be 5e e4 9f bd
       0.01525474 -0.06680916 -0.21508639 -0.078072295

bn2.running_mean f4 [64]
000000 ed 7f cd be 77 dc 25 3e 49 e8 2a bf 6a 4e 2f 3f
       -0.40136662 0.16197382 -0.6676069 0.68479025
000010 5e ae 33 3e f6 93 a7 bc 28 50 0e bf 16 78 7e bd
       0.17546985 -0.020456295 -0.5559106 -0.06212624
000020 d7 cc e2 bd 51 fe ac bd 8f 64 55 bf fa e8 24 bd
       -0.11074226 -0.084469445 -0.83356565 -0.040261246
000030 d3 6a fc be 6a e5 b2 be 73 cc a2 be 2f 83 09 3f
       -0.4930025 -0.34940654 -0.31796607 0.53715795
000040 e5 7b 0b bf 87 f6 5e bf 26 e1 a4 3d ff 30 13 3f
       -0.54485923 -0.8709492 0.08050756 0.5749664
000050 ab 57 27 3f 10 eb 3b be 2d 7f 11 3f 80 2b 22 bf
       0.65368146 -0.18351388 0.5683468 -0.63347626
000060 c9 bc c3 bd 62 40 0d 3f 26 29 a4 3f 7d 56 2e 3f
       -0.09557492 0.55176365 1.2825058 0.6810072
000070 1d b9 09 3f a5 32 8f 3b 46 57 f6 be ef a5 91 be
       0.53798085 0.004370051 -0.4811346 -0.2844691
000080 b8 cd 80 3e 54 43 e5 be 0d f7 9b be 8d 13 09 bf
       0.2515695 -0.4477793 -0.30461922 -0.5354546
000090 02 20 35 be ba fc e2 be 35 37 3d 3e 8c 08 f7 be
       -0.17687991 -0.4433344 0.18478091 -0.48248708
0000a0 43 9c 04 bf ff 3d 77 3e 54 e3 25 be 44 45 0d be
       -0.51800936 0.24144743 -0.162 -0.13795954
0000b0 0d df 1d bd ba f9 17 be 1f db 19 3f f7 80 71 be
       -0.038542796 -0.14841357 0.6009998 -0.23584352
0000c0 88 bc a5 3e 29 68 20 3f a5 8b 72 3f 60 ce 04 3f
       0.323704 0.62658936 0.9474433 0.51877403
0000d0 16 8c a7 3e fe a9 55 3f af f7 33 bf bf 9c 43 3f
       0.32724065 0.8346251 -0.7029981 0.7641105
0000e0 db 21 f4 3d ce 23 b7 3d 41 f8 a5 bc 43 3d 0e 3f
       0.1192052 0.08942376 -0.020259978 0.5556223
0000f0 61 22 1c bd 8a 97 71 be 81 57 01 bf ce f2 01 bd
       -0.038118724 -0.23592964 -0.50524145 -0.031725697

bn2.running_var f4 [64]
000000 23 3b 3a 3f 93 51 6b 3f 2d fe 63 3e 3d 98 c6 3e
       0.72746485 0.9192135 0.22264929 0.38788024
000010 ab e2 09 3f 7b de e8 3f 7e db 0b 3f 8a f3 12 3f
       0.5386149 1.8192896 0.54631793 0.5740286
000020 2a 23 e3 3e e9 29 80 3f f5 41 43 3f 4b 90 11 3f
       0.44362766 1.001279 0.7627252 0.568608
000030 83 11 1e 3f 64 30 db 3e e5 c2 70 3f 59 28 00 3f
       0.6174547 0.42810357 0.94047385 0.50061566
000040 80 d8 c1 3e 4f 53 f6 3e 5c 3e c3 3e c3 14 ae 3f
       0.3786049 0.48110434 0.38133514 1.3600086
000050 dd 13 d1 3e df 73 0d 3f 96 50 d9 3e d3 c9 14 3f
       0.40835467 0.5525493 0.42444295 0.5812046
000060 44 cd ab 3e 62 02 bf 3e e0 50 cf 3e 7c 54 4f 3e
       0.33555043 0.37306505 0.4049139 0.20247072
000070 6f d3 59 3e b3 16 87 3f 03 55 98 3e 4f 63 9a 3f
       0.21272062 1.0553802 0.2975236 1.2061557
000080 ea a6 50 3f 94 3b 29 3e e5 d0 a5 3f 4c bb 8b 3e
       0.8150469 0.16526634 1.2954375 0.27291334
000090 53 55 fb 3f 71 8f 28 3e ff 79 8e 3f 6a 43 c0 3e
       1.9635414 0.16460969 1.113098 0.37551433
0000a0 df 1e b5 3e 9e eb 54 3f fb b1 f7 3e 97 b5 d2 3f
       0.35375115 0.83172023 0.48377976 1.6461667
0000b0 c1 22 5c 3f f6 04 8a 3f 64 ab d1 3f 4e 60 5c 3f
       0.8599053 1.0782764 1.6380429 0.8608445
0000c0 5b 2f db 3e 6c f1 c8 3e d5 d1 57 3f 9b a3 62 3e
       0.42809567 0.3924669 0.84304553 0.22132723
0000d0 fa e3 9d 3f 57 99 b3 3e b9 ab 5e 3f 7d 1d 2f 3f
       1.2335198 0.35077927 0.8698078 0.6840437
0000e0 4a 91 97 3e bf 1d 93 3e 31 00 d1 3f a5 5b af 3f
       0.29603034 0.28733632 1.6328183 1.3699843
0000f0 6a 7f 79 3f b3 05 ad 3e 11 15 ba 3e ed 1c 32 3f
       0.97460043 0.3379341 0.36344197 0.6957539

bn3.weight f4 [64]
000000 93 0a 82 3f 7d 4a 80 3f 4b f0 7d 3f 4e a9 77 3f
       1.0159477 1.0022732 0.9919478 0.96742713
000010 c6 f2 7f 3f fb 4c 72 3f 01 a1 71 3f 04 23 86 3f
       0.9997982 0.9464871 0.943863 1.0479436
000020 82 82 8a 3f c6 58 72 3f ab c9 76 3f e3 08 7e 3f
       1.0821078 0.9466671 0.9640147 0.9923231
000030 64 b7 8e 3f 33 8c 85 3f c6 e3 79 3f 27 f5 86 3f
       1.1149716 1.043341 0.9761318 1.0543565
000040 dc 45 84 3f 2d 2b 81 3f a3 34 7e 3f 38 3c 77 3f
       1.0333819 1.0091301 0.9929907 0.9657626
000050 01 32 6d 3f 81 ac 8c 3f d1 78 72 3f d4 76 69 3f
       0.92654425 1.0990144 0.947156 0.9119694
000060 a3 6d 83 3f 55 fe 89 3f c8 02 83 3f 0a 6f 78 3f
       1.0267833 1.0780741 1.0235224 0.9704443
000070 fe 22 7b 3f 0e 35 82 3f d1 48 75 3f 9c 60 7d 3f
       0.9810027 1.0172441 0.95814234 0.9897554
000080 ad 9f 81 3f 0c 5c 83 3f ad 25 6f 3f 71 82 78 3f
       1.0126854 1.0262465 0.93416864 0.9707404
000090 d8 83 75 3f 00 67 6b 3f a2 33 7b 3f b8 24 84 3f
       0.959043 0.9195404 0.9812566 1.0323706
0000a0 99 d9 89 3f e2 4b 70 3f 37 72 7a 3f 1e 9d 82 3f
       1.076953 0.9386579 0.9783053 1.0204198
0000b0 64 4b 78 3f bf 96 7e 3f 42 3d 75 3f b1 0d 81 3f
       0.96990037 0.9944877 0.95796597 1.0082303
0000c0 a4 13 68 3f e4 18 61 3f 67 9e 84 3f 3f db 7e 3f
       0.9065497 0.87928605 1.036084 0.99553293
0000d0 8c 1c 70 3f 86 33 80 3f ec 92 81 3f 77 d2 a0 3f
       0.9379356 1.0015724 1.0122962 1.2564229
0000e0 fc 0a 76 3f a1 a4 73 3f 8f a9 73 3f 1a 08 81 3f
       0.9611051 0.9517308 0.951806 1.0080597
0000f0 59 32 86 3f 9f 1d 77 3f bf 51 8b 3f 93 29 83 3f
       1.0484115 0.96529573 1.0884322 1.0247062

bn3.bias f4 [64]
000000 6d 07 1a 3e e7 be 01 be 9e 33 08 be ed 35 02 be
       0.15041895 -0.1267048 -0.1330094 -0.12715884
000010 8f a1 96 bc 6b 49 13 be 98 2c 0e be df 9d 63 bd
       -0.018387584 -0.14383475 -0.13884199 -0.05557048
000020 ec b4 c0 bd 6c 36 7d 3d 2b 9e c3 bc 6e 8e 72 bd
       -0.09409508 0.06181948 -0.023879131 -0.059217863
000030 b9 04 4b be 06 72 0b be 66 2a 6e bd eb a3 85 bd
       -0.1982602 -0.13617715 -0.058145903 -0.065254055
000040 fd 05 ae bd 2b 45 8a 3d 60 94 e3 3d fc d6 ab bd
       -0.08497236 0.06751474 0.11112285 -0.083906144
000050 1e 91 c5 bd 1e a7 c6 3d d7 d2 b4 bd 54 af 4c 3c
       -0.096468195 0.09699844 -0.08829277 0.012492973
000060 ec ec b0 3d 4d 06 d8 3c b5 e2 96 3c 1b c2 eb 3d
       0.08638939 0.026370192 0.01841865 0.11511632
000070 32 b5 4a bd a6 fa 9d bd 8b 7e 95 bc 3d 3e 38 bd
       -0.049489208 -0.07713823 -0.018248817 -0.04498123
000080 04 d5 e1 bc 32 b6 22 3d 7e c8 4e be 69 c3 9d bd
       -0.027567394 0.039724536 -0.20193669 -0.07703287
000090 4d 5e 3a be 06 d4 5b be 09 bf ee bd 18 73 d9 bc
       -0.18200035 -0.214676 -0.11657531 -0.026544139
0000a0 dd 56 08 be 3c e4 34 be 0b 86 f2 bc 84 6f 78 3e
       -0.13314386 -0.1766519 -0.029604932 0.2426129
0000b0 c6 e8 5d be 44 ea a2 3c 5b 8e 02 be 91 1d 14 bd
       -0.21670827 0.019887097 -0.12749617 -0.03616101
0000c0 da 31 18 be 1f bb ef bd 80 ce 42 be 02 8a 39 bd
       -0.14862767 -0.117056124 -0.19024086 -0.04529763
0000d0 d4 cf 0a be e1 62 2d 3e 48 83 e4 bd 7e 7a 31 3e
       -0.13555843 0.1693225 -0.111578524 0.17331883
0000e0 26 75 dc bd 17 95 7c 3d c6 de 9b bd a8 54 2c 3d
       -0.10764532 0.06166562 -0.0761085 0.042072922
0000f0 66 38 6e 3d 94 74 bb bd 39 1e ca 3b ee 50 cd bc
       0.058159254 -0.09153095 0.0061681536 -0.025063004

bn3.running_mean f4 [64]
000000 3c 4b dc be e0 6e 9a 3f 06 a0 c1 be 2a 07 f8 3d
       -0.4302615 1.2065086 -0.378174 0.121107414
000010 64 bc f2 be 57 b2 1d bf c1 b9 8a 3e 77 f9 6a be
       -0.47409356 -0.6160025 0.27094844 -0.22946726
000020 bc 04 bb 3d 19 57 40 bf ae 73 a8 be aa 1a da 3d
       0.091317624 -0.751329 -0.32900757 0.10649617
000030 15 69 a8 bf 4a d4 25 bf d1 ee c5 3d 11 3f cf 3e
       -1.3157068 -0.6477705 0.09664691 0.40477803
000040 5b d0 97 be 4c c1 57 bf 2d 05 eb be 7c c1 05 bf
       -0.2965115 -0.8427932 -0.45902386 -0.5224836
000050 0f 66 43 3e f1 a0 27 bf 47 24 45 bf cd 03 09 be
       0.19081901 -0.6547995 -0.7700848 -0.13380356
000060 95 42 85 3d ab f6 7a bf 68 31 aa bf a2 dd 9d 3e
       0.0650684 -0.98032635 -1.3296328 0.30833155
000070 53 3f 58 bf 20 10 86 bf c6 fe ec be 80 d5 45 3f
       -0.84471625 -1.0473671 -0.46288127 0.772789
000080 80 ea 50 3e 9c db 14 bf 56 a7 48 bf e3 bb 9a be
       0.20401955 -0.581476 -0.78380334 -0.3022147
000090 5d 04 50 3e 6c 53 14 bd 17 b3 12 3d 08 94 45 3e
       0.20314164 -0.03621237 0.035815325 0.1929475
0000a0 76 cb 31 bf 5d 2c 32 be d9 61 90 be 23 65 ad be
       -0.6945108 -0.17399736 -0.28199652 -0.33866224
0000b0 c3 40 eb bc e4 ba 1a bf a1 2f 2f bf e7 06 e8 3e
       -0.028717404 -0.6044142 -0.6843205 0.45317766
0000c0 21 d3 82 3e 63 8d 95 be ff 7e 22 bf 23 cf a4 be
       0.25551704 -0.29209432 -0.6347503 -0.32189283
0000d0 8a 58 95 bf 02 68 9c bf 6e 2d 76 be df 70 98 bf
       -1.1667645 -1.2219241 -0.24040768 -1.1909446
0000e0 a0 44 41 bf 4d b0 c4 be 93 db 42 be 71 1a 9c 3a
       -0.7549534 -0.38415757 -0.19029073 0.0011909736
0000f0 ce ca 10 3f ef 98 b5 be 07 03 be be 8e 1f ea be
       0.56559455 -0.35468242 -0.37111685 -0.457272

bn3.running_var f4 [64]
000000 d5 a5 a1 3e 64 29 3f 3f 87 19 a9 3e 69 e6 b4 3e
       0.31571832 0.7467253 0.33027288 0.3533204
000010 51 05 ac 3e a2 95 e0 3e e8 fb a3 3e 46 a1 40 3f
       0.33597806 0.4386416 0.32028127 0.75246084
000020 a1 0c 85 3f d5 1e ac 3e 7a 5e 19 3f 5b f1 0c 3f
       1.0394479 0.33617273 0.59909785 0.5505578
000030 cf dc ca 3e 67 4c f5 3e d0 c1 28 3f 3f ca cc 3e
       0.3962159 0.47909853 0.65920734 0.39998052
000040 f1 a3 bb 3e 3f 1f eb 3e 1d d6 ad 3e 3d 1b 07 3f
       0.36648515 0.45922276 0.33952418 0.5277594
000050 ab 0c a7 3f 0d 3d df 3e 2b 1f 08 3f 04 47 ac 3e
       1.3050741 0.43601266 0.5317256 0.3364793
000060 b6 94 3f 3f c0 e8 17 3f 73 55 97 3e 73 30 8a 3e
       0.7483629 0.59339523 0.2955738 0.2699009
000070 fd c9 e3 3e 5f 7f 12 3f 6c 55 6e 3f 99 76 e2 3f
       0.44490042 0.572256 0.93099093 1.7692443
000080 46 64 d4 3e b0 5d 1c 3f 0a f1 9f 3e 61 fc d6 3e
       0.41482753 0.61080456 0.31238586 0.41989425
000090 eb c2 da 3e 43 63 51 3f c8 a7 ae 3e 7d e4 f9 3e
       0.42726836 0.81792086 0.34112382 0.48807135
0000a0 f8 83 ef 3e e2 11 1a 3f 7f c1 ad 3e d4 3c c9 3e
       0.46780372 0.60183537 0.33936688 0.3930422
0000b0 ce 82 4f 3e 11 69 20 3f 64 21 d0 3e 52 fa ab 3e
       0.20264742 0.6266032 0.40650475 0.33589417
0000c0 42 af ce 3e 35 64 3c 3f 09 9c d9 3e ea c3 d4 3e
       0.40368086 0.73590404 0.42501858 0.4155572
0000d0 2f c9 1c 3f cf 0a 24 3f bd ba 0d 3f 73 72 b8 3e
       0.6124448 0.6407899 0.55363065 0.36024818
0000e0 cf 8b d7 3e e3 29 f8 3e 43 71 61 3e 0e c9 15 3f
       0.42098853 0.48469457 0.22015862 0.5850991
0000f0 8d 60 cf 3e fd 5c f6 3e 98 c2 be 3e 91 e6 cc 3e
       0.4050335 0.4811782 0.37257838 0.40019658

bn4.weight f4 [64]
000000 af aa 81 3f 3f 6a 7e 3f 84 fc 6b 3f 99 03 6b 3f
       1.0130213 0.9938087 0.92182183 0.91802365
000010 27 16 80 3f ba 42 74 3f 0f 7d 65 3f 0f 0c 70 3f
       1.000676 0.95414317 0.8964395 0.937684
000020 3a bd 6c 3f c8 54 6e 3f 61 f7 6b 3f eb e3 6a 3f
       0.92476237 0.93098116 0.92174345 0.91754025
000030 32 f3 74 3f db f5 7e 3f 19 2d 80 3f d0 24 7e 3f
       0.95683587 0.99593896 1.0013763 0.9927492
000040 f1 f3 5a 3f 41 ba 76 3f 16 e7 70 3f ca e0 63 3f
       0.85528475 0.9637795 0.9410261 0.89014876
000050 f9 02 7d 3f 92 df 78 3f 11 0a 79 3f e9 6d 7d 3f
       0.9883266 0.9721614 0.97280985 0.98995835
000060 e2 c3 8f 3f 7a f0 7a 3f e3 0a 63 3f c3 f2 72 3f
       1.1231654 0.9802319 0.88688487 0.94901675
000070 72 24 83 3f f3 36 78 3f 56 36 5a 3f b8 5c 69 3f
       1.0245497 0.96958846 0.8523916 0.911571
000080 1f b9 82 3f 6e 39 75 3f 30 c4 66 3f 28 37 70 3f
       1.0212744 0.95790756 0.9014311 0.9383416
000090 4c 49 6f 3f 7b f5 61 3f 95 2d 62 3f 0b e2 7e 3f
       0.9347122 0.882652 0.883508 0.99563664
0000a0 90 66 8e 3f 54 0e 6a 3f 7a b7 7f 3f 18 be 7c 3f
       1.112505 0.91428113 0.9988934 0.9872756
0000b0 39 52 61 3f c3 fd 78 3f 55 8f 77 3f 5f 68 81 3f
       0.88016087 0.9726221 0.9670308 1.0109977
0000c0 21 a6 84 3f d5 97 6d 3f d0 9b 6b 3f 80 f8 6e 3f
       1.0363199 0.928098 0.92034626 0.9334793
0000d0 44 7d 7c 3f e6 da 5e 3f 1c 0f 6c 3f 67 74 6f 3f
       0.9862864 0.8705276 0.92210555 0.9353699
0000e0 e9 58 6a 3f d1 96 88 3f b8 26 74 3f ee be 87 3f
       0.91541916 1.0671026 0.9537158 1.0605142
0000f0 f2 3b 6e 3f d8 e8 72 3f 0c 25 6c 3f 6b 79 63 3f
       0.9306022 0.9488654 0.9224403 0.88857144

bn4.bias f4 [64]
000000 85 6b 3a be 97 8e d0 bd 6e c6 07 be 34 dc 8d 3d
       -0.18205078 -0.10183447 -0.13259289 0.06926766
000010 ba 22 1d be 82 21 6e be 6e c2 2e be de 8a 74 be
       -0.15345278 -0.2325497 -0.17066357 -0.23881099
000020 89 94 1c be 73 55 3b be 4f db 62 be d5 ff cd bd
       -0.15291037 -0.18294315 -0.22153972 -0.10058562
000030 94 52 fb 3d 33 f7 83 bd 0e c7 ff bd 9a 7c d3 bd
       0.1227161 -0.06443634 -0.124891385 -0.103265
000040 89 50 e2 3c a7 a4 e7 bd 96 48 05 be 0b bc 05 be
       0.027626293 -0.11310702 -0.1301597 -0.13060014
000050 cf 96 32 be d3 15 04 bd 3b ae 9d bd e7 31 eb bd
       -0.17440341 -0.032247376 -0.076992474 -0.114841275
000060 11 36 f6 bc 1f 54 1f be a7 44 a2 bd 45 0c 9d 3c
       -0.030055078 -0.15559433 -0.07923251 0.01917089
000070 7e 14 75 bd f3 7d b8 bd dc 68 30 be 08 7e 24 be
       -0.059833996 -0.09008398 -0.172275 -0.16063702
000080 c8 c4 63 3c ef ea b2 bd 4f 2c 82 be 84 74 89 bd
       0.013901897 -0.08736216 -0.2542443 -0.06711677
000090 03 69 56 bd ae df cf bd e8 37 22 be f9 e0 49 bd
       -0.05234624 -0.101500854 -0.15841639 -0.049286816
0000a0 be 83 01 bc 07 50 f4 bd df b0 1b be 35 96 ba bd
       -0.007904945 -0.119293265 -0.1520419 -0.09110681
0000b0 27 fb 9b bd 71 c0 06 be 0a 74 16 be ae 23 f8 bd
       -0.07616263 -0.13159348 -0.14692703 -0.1211618
0000c0 73 66 50 be d4 cd 55 be f3 d5 8f bc 90 fd 84 bd
       -0.20351581 -0.20879298 -0.017558074 -0.06493676
0000d0 94 cb d6 bc c2 ef 0c be 48 f6 0a be dd bb 6f bd
       -0.02622012 -0.13763335 -0.13570511 -0.05852877
0000e0 16 bc cf bd 87 24 5b be 80 7f 9e bd 74 6e b6 be
       -0.101432964 -0.21400653 -0.077391624 -0.35631144
0000f0 68 ee ac bd 0c 6d 62 be c8 0e ae bd 8b de 30 bd
       -0.0844391 -0.2211191 -0.08498913 -0.043180984

bn4.running_mean f4 [64]
000000 35 d0 25 3f 8f 7e da bc 8c 09 ac 3e c7 62 81 be
       0.64770824 -0.026671676 0.33601034 -0.25270674
000010 08 57 c6 be 90 78 aa 3d 74 f2 14 3e c8 2d 09 3f
       -0.38738275 0.08323777 0.14545614 0.5358548
000020 03 d9 3f 3f 9d 9e d1 3e 55 2c b9 3e 68 70 4b be
       0.7494051 0.40941325 0.36166635 -0.19867098
000030 22 68 46 bf 98 3a a2 be 68 e7 a1 be 17 95 f9 be
       -0.77502644 -0.31685328 -0.3162186 -0.4874656
000040 d2 38 bd bd 5f 03 70 be a6 81 4a 3e bf fd 35 bd
       -0.09239353 -0.23438786 0.1977602 -0.044431444
000050 a7 29 e9 be 7c d2 b2 be 24 cd 3b bf 6c 10 6c be
       -0.4553959 -0.34926212 -0.73359895 -0.2305314
000060 ff de 08 bf e3 d8 03 bf 6a 62 d3 3e 11 8a 8e be
       -0.53465265 -0.5150282 0.4128602 -0.2783971
000070 b9 ee f2 be b3 b9 a9 3d 99 3e 91 3e b9 cb 9e be
       -0.47447756 0.082873724 0.2836807 -0.31014803
000080 c7 c7 9f be 21 f4 ac 3e 9d 5a 95 3e ad 64 95 be
       -0.31207106 0.33780006 0.29170695 -0.29178372
000090 48 3b 66 be a9 10 22 bf 49 16 28 be 90 50 b9 be
       -0.22483552 -0.6330667 -0.16414751 -0.36194277
0000a0 6a 01 46 bf 3d c2 2f bf b1 64 4a be 8f e4 6b 3d
       -0.7734591 -0.6865576 -0.19764973 0.057591017
0000b0 25 9e cc 3d fb 8c 16 3f 58 0c c6 be 39 87 eb be
       0.09991101 0.5880887 -0.38681293 -0.46001604
0000c0 8a ca c2 be 2c d7 c4 3d 6b 9c e0 be 07 56 8a bd
       -0.3804515 0.09611353 -0.43869337 -0.0675469
0000d0 22 e3 a8 3d 02 62 c1 be 8f 8e 91 bd ee 38 19 3e
       0.08246447 -0.37770087 -0.07107269 0.14963123
0000e0 0e 95 ff 3d ae 8a 9a be e4 8d 24 3f 25 1f 52 bf
       0.12479602 -0.3018393 0.6427901 -0.8207877
0000f0 12 14 78 bf 62 cd a2 be bf 24 a6 bd a3 c9 8b be
       -0.96905625 -0.3179732 -0.081124775 -0.27302274

bn4.running_var f4 [64]
000000 7c 80 5e 3f d2 71 87 3f 11 53 28 3f 7f fe f5 3e
       0.869148 1.058161 0.6575175 0.48045728
000010 39 ae 4f 3f 4b a0 b4 3e 00 30 15 3f ad c5 e1 3e
       0.8112522 0.35278544 0.5827637 0.44096127
000020 e4 a5 a8 3e 8b 28 08 3f 96 ea 45 3f 69 a3 2b 3f
       0.32939065 0.53186864 0.77311075 0.6704622
000030 cf dc 05 3f 94 3a 1c 3f 79 50 86 3e 6e fb da 3e
       0.5229005 0.61026883 0.2623327 0.4276995
000040 47 7c 2d 3f a8 f5 31 3f 9b 8e b7 3f db fe 1a 3f
       0.6776776 0.69515467 1.4340395 0.6054513
000050 c1 4e 56 3f 84 30 88 3e d3 30 c1 3e 41 0e b3 3e
       0.8371392 0.26599514 0.37732562 0.34971812
000060 e8 47 4f 3f ad 29 10 3f 29 7c 06 3f 5a ad 39 3f
       0.80969095 0.5631359 0.52533203 0.7253014
000070 12 bb 74 3f ef eb 60 3f 58 7b 02 3f a0 5d 15 3f
       0.95597947 0.87860006 0.5096946 0.58345985
000080 c4 c2 e9 3e 0e 22 46 3f a8 38 17 3f 51 ce 09 3f
       0.45656407 0.77395713 0.59070826 0.5383044
000090 13 0e 08 3f ae e3 67 3e b3 21 a9 3f 58 1a ef 3e
       0.53146476 0.22645447 1.3213409 0.46699786
0000a0 14 8d af 3e 19 2a 2a 3f d6 70 89 3e ac f7 2a 3f
       0.34287322 0.66470486 0.268439 0.6678417
0000b0 80 7d 9f 3f cd 32 1e 3f c7 1d a3 3e a6 19 c5 3e
       1.2460175 0.61796266 0.31858656 0.3849613
0000c0 23 ad 13 3f bd e3 24 3f 7f 2a aa 3e 52 5e fa 3e
       0.5768606 0.6441 0.33235547 0.48900086
0000d0 b3 1e 09 3f fa 14 0b 3f a4 49 98 3e b5 c8 d4 3e
       0.5356247 0.5432888 0.29743683 0.41559377
0000e0 0f b1 bb 3e 9b b7 de 3e 05 ed 94 3f 2e fc da 3e
       0.36658522 0.43499455 1.1634833 0.42770523
0000f0 c7 13 53 3f 87 cb 1c 3f bc 94 df 3e 46 00 0f 3f
       0.8245205 0.6124806 0.43668163 0.5585979

bn5.weight f4 [64]
000000 35 cc 7d 3f 5d 30 77 3f 92 82 72 3f 84 17 81 3f
       0.9913972 0.9655817 0.94730484 1.0085301
000010 bc 9e 73 3f ec 2b 67 3f 47 0e 75 3f 76 e7 6c 3f
       0.95164084 0.90301394 0.9572491 0.9254068
000020 7c db 75 3f 09 40 6c 3f 33 3e 87 3f 96 5b 9b 3f
       0.9603803 0.9228521 1.0565857 1.2137325
000030 64 12 a1 3f 03 17 64 3f 81 c5 6e 3f db a1 a2 3f
       1.2583737 0.89097613 0.9327012 1.2705644
000040 e1 32 70 3f c8 7a 78 3f cc 77 7a 3f c1 74 65 3f
       0.93827635 0.9706235 0.97839046 0.8963128
000050 3b 12 69 3f f1 4b 91 3f bd 89 80 3f 85 e5 60 3f
       0.9104344 1.13513 1.0042034 0.8785022
000060 20 21 86 3f 10 d8 71 3f 46 ae 90 3f 99 d1 78 3f
       1.0478859 0.9447031 1.1303184 0.9719482
000070 d1 ad 69 3f 97 6a 9f 3f 76 18 6e 3f 34 b6 92 3f
       0.9128085 1.2454404 0.93006074 1.1461854
000080 47 60 74 3f f3 1f 80 3f 45 bf 9d 3f ab 01 71 3f
       0.9545941 1.000975 1.2323996 0.9414317
000090 b7 69 79 3f 1e e0 79 3f ed 04 82 3f 9e 0f 84 3f
       0.97426933 0.976076 1.0157753 1.0317266
0000a0 30 c4 a2 3f 29 c9 85 3f c9 40 7c 3f 93 f7 7c 3f
       1.2716122 1.0452014 0.98536354 0.9881527
0000b0 64 8b 6f 3f 7c ea 80 3f 0c 3d 62 3f c5 50 8b 3f
       0.9357207 1.0071559 0.883744 1.0884024
0000c0 76 3b 74 3f a6 67 77 3f 2b 78 78 3f bb a5 98 3f
       0.9540323 0.9664253 0.9705836 1.1925577
0000d0 c7 2a 83 3f 1e 1a 5d 3f 55 79 7b 3f 32 30 70 3f
       1.024743 0.86367977 0.98232013 0.9382354
0000e0 8f 42 6b 3f 16 16 88 3f 5d d6 83 3f ff 4a 7d 3f
       0.91898435 1.063174 1.0299793 0.9894256
0000f0 5b f4 84 3f 8c 9a 6c 3f fa b8 a6 3f 12 07 84 3f
       1.0387071 0.9242332 1.30252 1.0314658

bn5.bias f4 [64]
000000 b8 5a 8f bd a9 ba 6c be fa 8b 1a be da 78 df bd
       -0.06999725 -0.2311808 -0.1509246 -0.109117225
000010 32 89 0b be 33 83 20 be 22 da 2e be 0e e5 f5 bd
       -0.13626555 -0.15675049 -0.17075399 -0.12006579
000020 53 a4 b3 bd 2c ba dc bd be 59 0d be 5e bf a4 be
       -0.08771577 -0.10777697 -0.13803765 -0.32177252
000030 f0 0b f0 be cd dd 4f be 9a ac ec bc 2b 54 0c bf
       -0.46884108 -0.20299454 -0.028890897 -0.5481593
000040 d4 07 a1 bd 4e f3 08 be dc 86 6a be eb 19 c8 3a
       -0.07862821 -0.13374063 -0.22903007 0.0015266513
000050 3f b9 e4 bd 8a 3b 13 bf 17 ff 2e 3d a6 8a b0 bd
       -0.111681454 -0.57512724 0.04272374 -0.08620195
000060 bc c8 04 3d e7 b7 8f bd a7 8d 48 3d 9b db 82 be
       0.032417998 -0.070174985 0.048963215 -0.2555817
000070 b9 15 72 be a6 df 34 3a 7c b1 24 be 32 8b fc be
       -0.23641099 0.00068997813 -0.1608333 -0.49324948
000080 58 61 c4 bd 2f 27 32 be 7d b4 56 be 61 40 5a be
       -0.09588879 -0.1739776 -0.20967288 -0.21313621
000090 b9 d3 af bd c8 7d 29 3e b0 33 4d be c0 1a 04 be
       -0.08585305 0.16551888 -0.20039248 -0.1290083
0000a0 7b da aa be bc ac 5f be 80 be 5e 3d 4a de b5 bd
       -0.33369812 -0.21843237 0.054380894 -0.08880289
0000b0 f2 3f 17 bd 30 84 62 3d 44 23 b5 3d 38 e6 91 be
       -0.036926217 0.055301845 0.08844617 -0.28495955
0000c0 11 09 22 be 6a 9b cc bc 9b 96 43 3d e8 1e 79 be
       -0.15823771 -0.024976451 0.04775105 -0.24328196
0000d0 b0 17 c9 bd 27 39 4c 3e b0 0e 1f be e1 2c 9b 3d
       -0.09818971 0.19943677 -0.15532947 0.07576919
0000e0 62 0b 0c be 92 a7 80 be 9a dd fa bd 5b 74 5b be
       -0.13676217 -0.25127846 -0.122492984 -0.21431105
0000f0 ca 6d 27 be f9 5f 99 be da 8a ec be df e5 a4 be
       -0.16350475 -0.29956034 -0.46199685 -0.32206628

bn5.running_mean f4 [64]
000000 f5 4c 24 3f 9e 9b d5 be 78 ee b3 3e a0 0e a8 3e
       0.6417993 -0.4172029 0.35142875 0.32823658
000010 c3 11 33 3f 80 a1 aa be 7d d4 96 3e 5f ab ad be
       0.6994898 -0.3332634 0.2945899 -0.33919808
000020 75 5e 52 be e0 6a cf 3e 68 be de bd 4a 48 c3 bf
       -0.20543845 0.40511227 -0.10876161 -1.5256436
000030 9d c4 9a bf 1c b9 9c bc 6e 98 04 bf 87 68 8c bf
       -1.2091252 -0.019131236 -0.5179509 -1.0969399
000040 d8 dc 8f bf d2 24 8a 3e 0f eb 7d be 35 93 13 be
       -1.1239271 0.26981217 -0.24796699 -0.14411624
000050 4f 33 f3 be 85 16 3a bf e9 76 6f bd 4e 55 1c be
       -0.47500083 -0.7269061 -0.05846301 -0.15266916
000060 f9 a4 8a 3e d9 b4 12 3e 66 df 69 3f a3 94 1b be
       0.2707899 0.143268 0.91356504 -0.15193419
000070 c4 9e 2d bf c2 bc b5 bf b8 b1 b4 be 53 c4 aa bf
       -0.6782038 -1.4198229 -0.3529184 -1.3341163
000080 6c cf 08 be 47 d9 02 bf c7 67 a6 bf 1b 32 8e 3e
       -0.13360375 -0.5111279 -1.300042 0.27772602
000090 84 3a 45 3f 7d 44 50 3f 08 e0 51 bf 16 dd 61 be
       0.7704241 0.81354505 -0.8198247 -0.22056994
0000a0 68 99 b6 bf 61 b2 d1 be a5 c8 d0 be 3f a3 75 3f
       -1.4265566 -0.40956405 -0.4077808 0.9595222
0000b0 cc cb fa bd 15 6e 97 3e 4f 5e fe bc ef 28 2b 3e
       -0.122459024 0.29576173 -0.03105083 0.16714834
0000c0 55 62 b1 3f 6c e1 d2 be 0a b9 5a be c3 4b ca 3c
       1.3858134 -0.41187608 -0.2135965 0.02469433
0000d0 3f 28 1e bf 7c ed 02 3f b5 de 65 be 5b a8 c6 3e
       -0.6178016 0.5114362 -0.22448237 0.3880032
0000e0 a0 bb 39 3e 03 ab e3 bd d3 b2 dd 3e da d8 2f bf
       0.1813798 -0.11116602 0.43300495 -0.68690264
0000f0 05 7e 63 be 3b 12 d5 3d eb 34 e0 bf 7b 15 7b bf
       -0.22216041 0.10403868 -1.7516149 -0.9807965

bn5.running_var f4 [64]
000000 32 f9 bd 3e ce 8d 5c 3e 29 59 9c 3e 3f ad f2 3e
       0.37104183 0.21538469 0.30536774 0.473978
000010 6b 2d c7 3e cd eb ce 3e 88 8d dd 3e 46 12 44 3e
       0.3890184 0.40414277 0.43272042 0.19147596
000020 09 03 03 3f 07 29 ad 3e e8 58 93 3e 2e 91 28 3e
       0.51176506 0.33820364 0.28778768 0.16461632
000030 08 34 85 3e 8b a0 8a 3e 2a 21 6f 3e af 6f a0 3e
       0.2601626 0.2707561 0.23352495 0.31335208
000040 bb 25 ae 3e 78 b5 ca 3e 11 11 fb 3e 6b 68 e2 3e
       0.3401316 0.39591575 0.49036458 0.4422029
000050 44 4f 5b 3e bd 11 7d 3e 1f ee 36 3e 49 80 9d 3e
       0.21416956 0.24713798 0.17864273 0.30761936
000060 2a 1b f3 3e 5a b7 8b 3e 7c 77 93 3e ba 52 c7 3e
       0.47481662 0.27288324 0.28802097 0.38930303
000070 2c 44 8e 3e ec 31 14 3f a9 d6 8a 3e 4d 60 50 3e
       0.27786386 0.57888675 0.27116898 0.20349236
000080 6e 88 c1 3e 2a cd 81 3e 08 19 57 3e e1 bf 98 3e
       0.377994 0.2535184 0.21005642 0.29833892
000090 c8 73 83 3e b3 a8 13 3f 53 cb 65 3e c4 27 9b 3e
       0.25674272 0.5767929 0.22440843 0.30303776
0000a0 02 2d 88 3e ab 85 36 3f bb b3 34 3e de 2f d4 3e
       0.26596838 0.7129771 0.17646687 0.4144277
0000b0 ba a0 a7 3e 81 ab b9 3e 12 4b 94 3e 53 89 c5 3e
       0.32739812 0.3626366 0.28963524 0.38581333
0000c0 f2 fd be 3e 40 67 bd 3e 3e 97 97 3e 88 18 8f 3e
       0.3730312 0.36992836 0.29607576 0.27948403
0000d0 c2 67 2e 3e ab 6b 97 3e ca 98 0c 3f 27 06 64 3e
       0.17031768 0.29574332 0.5492064 0.22267972
0000e0 3d fc a6 3e f6 8d e8 3e 74 8e ce 3e 48 bf 73 3e
       0.32614318 0.45420808 0.40343058 0.23803437
0000f0 f0 f9 2e 3f fa 6a 77 3e 6c 27 9f 3e e7 ca 9d 3e
       0.68350124 0.24161902 0.31084764 0.30818865

bn6.weight f4 [512]
000000 5e 80 69 3f 6d 51 6d 3f a8 45 57 3f de 4a 7f 3f
       0.912115 0.9270237 0.8409066 0.99723613
000010 4a e0 6e 3f 38 e7 6f 3f 9e 2c 57 3f 44 2c 70 3f
       0.9331099 0.93712187 0.84052455 0.93817544
000020 91 8e 69 3f 00 6a 75 3f 60 c5 68 3f bd 8a 68 3f
       0.91233164 0.9586487 0.9092617 0.908367
000030 77 98 65 3f 70 a6 67 3f ec 65 6f 3f 77 66 5d 3f
       0.8968577 0.9048834 0.93514895 0.86484474
000040 19 b9 7f 3f f8 f2 5b 3f c4 00 6c 3f 6d 51 61 3f
       0.9989181 0.85917616 0.9218867 0.8801487
000050 aa 7a 6b 3f 1d 17 77 3f 5d ad 82 3f c1 0f 81 3f
       0.91984046 0.96519643 1.0209156 1.0082933
000060 bd 3a 6a 3f 52 e5 5d 3f f0 20 67 3f 6b 31 6e 3f
       0.9149588 0.8667804 0.90284634 0.93044156
000070 c2 e7 6b 3f 81 51 63 3f 6e 95 78 3f 72 58 64 3f
       0.9215051 0.8879624 0.9710301 0.89197457
000080 92 aa 6c 3f ec 45 6b 3f 7e e8 44 3f fc b9 61 3f
       0.9244777 0.9190357 0.76917255 0.88174415
000090 6d d0 6f 3f cc e3 6d 3f 1c 23 6c 3f 72 fa 6d 3f
       0.9367741 0.92925715 0.9224107 0.92960274
0000a0 e5 c9 68 3f 56 14 67 3f db 39 79 3f ed aa 5a 3f
       0.90933067 0.90265405 0.97353905 0.8541706
0000b0 2a 4b 67 3f 85 36 73 3f 7e 64 6d 3f 1a b3 7b 3f
       0.90349066 0.95005065 0.92731464 0.9832016
0000c0 90 27 74 3f 7a a4 70 3f 55 e2 5f 3f eb 0e 7a 3f
       0.9537287 0.9400097 0.8745473 0.97679013
0000d0 68 58 6b 3f 87 0b 8d 3f c1 09 75 3f da 6b 6a 3f
       0.9193177 1.1019143 0.9571801 0.9157082
0000e0 b6 55 5a 3f ad 20 67 3f 73 a1 6b 3f 29 3f 82 3f
       0.85287035 0.90284234 0.92043227 1.0175525
0000f0 98 b6 50 3f 09 d9 80 3f 92 04 64 3f 23 ba 73 3f
       0.81528616 1.0066234 0.89069474 0.952059
000100 c7 48 72 3f e0 99 5c 3f 16 ad 67 3f a9 da 66 3f
       0.946423 0.86172295 0.90498483 0.901774
000110 05 ce 66 3f ff 7b 5b 3f cc 34 61 3f 3a 71 5a 3f
       0.9015811 0.8573608 0.87971187 0.8532902
000120 d6 da 4e 3f c8 6f 56 3f 9d 44 68 3f e1 61 66 3f
       0.8080267 0.83764315 0.90729696 0.899931
000130 99 b3 76 3f 17 06 63 3f 52 f0 5e 3f f4 90 77 3f
       0.96367794 0.8868117 0.8708545 0.96705556
000140 a3 c0 7c 3f c5 21 60 3f aa 3f 7a 3f cd a4 65 3f
       0.9873144 0.8755153 0.97753394 0.8970459
000150 cb db 58 3f fa e2 6b 3f b8 8a 5e 3f 7c 15 78 3f
       0.8471038 0.92143214 0.8693042 0.9690778
000160 4f 3c 64 3f 28 64 7b 3f 64 5d 57 3f 5d bc 71 3f
       0.89154524 0.981997 0.8412688 0.94428045
000170 23 5c 77 3f cb 32 61 3f 51 d2 56 3f a1 7a 44 3f
       0.96624964 0.8796813 0.8391467 0.76749617
000180 9b 0c 6f 3f 95 01 76 3f 9c a7 6a 3f c1 2d 70 3f
       0.9337861 0.96096164 0.91662 0.93819815
000190 55 f2 67 3f 0f a7 66 3f 0f 52 74 3f ea 1f 4d 3f
       0.90604144 0.9009866 0.9543771 0.8012682
0001a0 c1 13 68 3f 97 e7 6b 3f d9 96 73 3f a7 98 7a 3f
       0.9065514 0.92150253 0.9515205 0.9788918
0001b0 92 48 5d 3f bd 72 61 3f 10 e6 71 3f 68 98 59 3f
       0.8643886 0.880657 0.9449167 0.8499818
0001c0 09 5d 66 3f d7 7e 5e 3f ea ea 7c 3f 0a ea 66 3f
       0.8998571 0.8691229 0.9879595 0.90200865
0001d0 75 90 72 3f 6f 8d 5f 3f 01 de 63 3f ac 9a 6a 3f
       0.94751674 0.87325186 0.89010626 0.9164226
0001e0 be a0 97 3f 1c 65 65 3f d1 47 74 3f a1 30 61 3f
       1.184593 0.89607406 0.95422083 0.87964827
0001f0 36 70 57 3f e7 67 54 3f 2c 8f 69 3f bf b8 75 3f
       0.84155595 0.8297104 0.9123409 0.95985025
000200 75 0e 5d 3f e4 55 6f 3f 56 10 81 3f d6 cf 64 3f
       0.86350185 0.93490434 1.008311 0.8937963
000210 c8 f5 54 3f f8 b8 32 3f 9c 4d 72 3f 87 a3 63 3f
       0.8318753 0.6981349 0.9464967 0.889214
000220 b7 c5 78 3f 37 cc 70 3f d4 5a 59 3f e1 a9 74 3f
       0.9717669 0.9406161 0.8490422 0.95571715
000230 a9 3b 60 3f 1d 92 80 3f fe 90 64 3f a8 17 85 3f
       0.87591034 1.004459 0.8928374 1.0397844
000240 5f f1 52 3f 50 a3 5d 3f ea 0f 7c 3f 30 fe 74 3f
       0.82399553 0.8657732 0.9846178 0.9570036
000250 68 ee 89 3f 3f ab 70 3f 76 11 7b 3f 54 d2 7f 3f
       1.0775881 0.940113 0.9807352 0.9993031
000260 5d 55 7d 3f 3e fa 5d 3f c8 d5 72 3f c3 59 66 3f
       0.9895838 0.86709964 0.94857454 0.89980716
000270 08 76 6f 3f db ce 6e 3f 44 63 87 3f ec 78 61 3f
       0.93539476 0.93284386 1.0577168 0.8807514
000280 1e 3a 76 3f 7b ed 63 3f 69 47 7e 3f 63 b8 5f 3f
       0.9618243 0.8903424 0.99327713 0.87390727
000290 07 7b 66 3f cd 68 64 3f 1b 71 61 3f 51 df 7c 3f
       0.90031475 0.89222413 0.8806321 0.98778254
0002a0 ff 8b 83 3f af 90 72 3f 84 19 5f 3f c8 ed 7b 3f
       1.0277098 0.9475202 0.8714831 0.984097
0002b0 4a 69 65 3f 0b 85 58 3f 33 39 63 3f 02 44 63 3f
       0.89613783 0.8457801 0.88759154 0.88775647
0002c0 80 e4 65 3f 62 a7 74 3f ea a9 3f 3f e5 72 6f 3f
       0.8980179 0.95567906 0.74868643 0.9353469
0002d0 44 c5 5a 3f 7a 38 6d 3f c3 d4 61 3f 55 c0 6a 3f
       0.85457253 0.926643 0.88215274 0.91699725
0002e0 96 10 6f 3f ba 72 55 3f 81 db 78 3f 7a 78 77 3f
       0.93384683 0.83378184 0.97209936 0.9666821
0002f0 aa 27 54 3f 0a 2f 66 3f bc 7a 5c 3f a2 5b 4b 3f
       0.8287302 0.89915526 0.8612478 0.79436696
000300 d1 b2 62 3f 84 4f 67 3f 69 46 5f 3f 83 a1 79 3f
       0.885541 0.90355706 0.8721681 0.9751207
000310 6b 0c 66 3f c8 72 38 3f 4e 53 59 3f 10 eb 7f 3f
       0.898627 0.7205014 0.8489274 0.9996805
000320 12 23 73 3f b9 79 5d 3f 71 4d 62 3f 5c 93 55 3f
       0.9497539 0.8651386 0.88399416 0.8342798
000330 b7 56 60 3f 4d 64 68 3f fd 7a 5e 3f 1a d7 73 3f
       0.87632316 0.90778047 0.86906415 0.95250094
000340 d5 ef 64 3f c8 03 61 3f 29 1c 5e 3f e5 a4 65 3f
       0.89428455 0.87896395 0.8676172 0.89704734
000350 79 03 6a 3f ed f8 6f 3f e6 59 59 3f e5 de 71 3f
       0.9141155 0.93739206 0.849028 0.94480735
000360 b7 ff 5e 3f 77 96 55 3f cf e6 62 3f d9 f3 58 3f
       0.8710894 0.83432716 0.88633436 0.8474708
000370 19 0a 81 3f 7a 8f 61 3f 13 bb 62 3f e4 8e 55 3f
       1.0081207 0.8810955 0.885667 0.8342116
000380 09 15 51 3f 7d 75 6d 3f 5f 85 7e 3f 49 5b 6e 3f
       0.8167272 0.927574 0.9942226 0.9310804
000390 97 01 60 3f ce de 52 3f e9 be 7b 3f fc 5b 4e 3f
       0.87502426 0.8237122 0.9833818 0.80609107
0003a0 54 0d 6d 3f 23 cd 66 3f bf bc 70 3f 1f f6 81 3f
       0.9259846 0.90156764 0.94038004 1.0153235
0003b0 d0 6b 6b 3f 3a 8c 6f 3f 26 d7 6f 3f ff 33 5b 3f
       0.91961384 0.93573344 0.93687665 0.85626215
0003c0 29 f7 6e 3f 8e 8b 5d 3f ea c6 5b 3f c4 06 66 3f
       0.93345886 0.8654107 0.85850394 0.89854074
0003d0 d1 0b 75 3f f6 bc 80 3f 1b eb 71 3f 17 0b 7e 3f
       0.95721155 1.0057666 0.9449937 0.9923567
0003e0 e5 eb 5f 3f 1a f6 61 3f c7 84 55 3f 8f dc 79 3f
       0.8746932 0.88266146 0.8340573 0.9760217
0003f0 e5 08 6d 3f 7e da 70 3f 28 8d 6b 3f 62 5e 69 3f
       0.92591697 0.9408339 0.9201226 0.9115964

bn6.bias f4 [512]
000000 a5 2d 9f bc 69 9d 60 bc 21 7a 66 3b db 93 68 bb
       -0.019430945 -0.0137094045 0.003516801 -0.003548852
000010 2b 91 9e bb 54 ff cf 3b c9 3c af 3b c6 97 57 bb
       -0.0048390827 0.006347576 0.0053478223 -0.003289686
000020 0b db bd 3b b9 4b a9 3c 2c 81 a4 bb 1b 57 80 bb
       0.005793934 0.02066599 -0.0050202813 -0.003916634
000030 9f 4a dc 3b 13 58 84 bb 09 c5 4f 3c 28 15 35 bc
       0.0067227627 -0.0040388196 0.012681254 -0.011052407
000040 49 18 90 ba 91 bb a3 bb af d9 50 3c 9a 50 ca 3a
       -0.0010993566 -0.004996725 0.012747212 0.0015435398
000050 54 6c a8 bb a3 f8 85 3b 2c 39 2f 3c c3 8b 86 3c
       -0.005139867 0.0040884777 0.010694783 0.016424065
000060 3c 85 50 3c 35 bd 33 3b 64 b1 a9 bb a3 e2 33 3c
       0.012727078 0.0027426009 -0.0051786173 0.010979327
000070 5b c3 e4 3b c2 e8 62 3b 00 8a d6 3c 54 a8 09 ba
       0.006981296 0.0034623598 0.02618885 -0.0005251218
000080 6e 2a 81 bc 84 30 b8 3b aa 2f 7d b9 13 f4 87 3c
       -0.015767302 0.005621018 -0.00024145716 0.016595876
000090 b6 a0 37 ba 56 d5 fe bb e8 74 7e 3b 34 22 20 bc
       -0.0007004844 -0.0077768965 0.0038827006 -0.00977378
0000a0 6c 57 dc bb 5d 4e 89 bc 64 83 47 3c 9b 54 66 3c
       -0.0067242887 -0.016761 0.012177322 0.014058257
0000b0 dd d5 81 bc 45 fb 87 3c 4d 11 62 ba ad fb 80 3c
       -0.015849048 0.016599307 -0.0008623794 0.015745008
0000c0 85 85 6a 3b e2 a7 e7 ba 97 49 ab 3a de c6 82 bb
       0.003578515 -0.0017673934 0.0013068196 -0.003990992
0000d0 b5 14 69 bb 1e 69 cf 3b 1d 65 11 3b be 6c 9f b9
       -0.003556532 0.0063296696 0.0022185512 -0.00030407863
0000e0 80 f5 16 3b 36 45 2f bc 48 f5 69 3b be a0 d4 bb
       0.0023034513 -0.0106976535 0.0035699178 -0.0064888885
0000f0 c1 16 8f 3c fa f8 a7 bb c1 e0 f4 3a 60 d5 36 3c
       0.017466905 -0.005126116 0.0018682705 0.011159271
000100 e7 5e 01 3a ef 0a 5d bc 12 23 11 3c b3 76 90 ba
       0.0004935101 -0.013491376 0.008858459 -0.0011021703
000110 97 8b 84 3a bf 4e 6e b8 ff 7b 3c 3b e1 e2 be 3b
       0.0010112402 -5.681696e-05 0.002876043 0.005825386
000120 e5 7c 05 3c 57 83 2a bc ff 76 4d bb f6 8e 60 bc
       0.008147453 -0.01040729 -0.0031351445 -0.01370596
000130 3a a0 04 3c 55 db c2 bb dd 24 ac 3c 20 23 6f bb
       0.008094842 -0.0059465566 0.021013672 -0.0036489442
000140 3a 6f df bb 8c d4 0c bb 55 8f 73 bc 34 d1 5a 3c
       -0.006818679 -0.0021488992 -0.014865716 0.013355542
000150 3f 79 98 3c 25 91 10 bc b0 02 ac 3b 91 2b 6f 3b
       0.018612502 -0.008823668 0.005249344 0.0036494473
000160 57 e0 d1 3b 4b 96 68 3b 12 c5 05 3a 22 c8 1b bb
       0.006404917 0.0035489972 0.0005102913 -0.0023770411
000170 19 62 45 bc 53 be 04 3c 4e 57 68 bc 86 ab b2 bb
       -0.012047314 0.008102017 -0.014180971 -0.005452576
000180 ab dd 5d 3c a1 d9 32 3c 98 d4 4d bc f7 14 d2 bb
       0.013541619 0.010916145 -0.012562893 -0.0064111906
000190 ea 3b 0c bc 0c 7a e2 bb 34 85 71 bc a4 f5 8d bc
       -0.0085592065 -0.006911522 -0.014741231 -0.017329045
0001a0 b1 16 0d 3c f2 2f 44 3c 78 19 81 bb 56 22 36 3b
       0.008611367 0.011974322 -0.0039398037 0.0027791462
0001b0 ba dd fb 3b a2 33 a3 bc f1 80 57 3c ad cb c5 bb
       0.007686344 -0.019922081 0.013153301 -0.006036243
0001c0 42 65 2c bc f4 4a 24 bb 91 d7 12 3c 1c 62 0c bc
       -0.010522189 -0.002506909 0.008962528 -0.008568313
0001d0 bf c0 2b bb 7b 68 1e bc a7 b2 24 bc d7 6a 66 3b
       -0.0026207415 -0.009668465 -0.01005236 0.0035158896
0001e0 52 73 0c 3c 44 90 80 bb d3 c5 97 bc fe 00 dc 3b
       0.008572416 -0.003923448 -0.018526947 0.0067139855
0001f0 db dd 03 3c d9 71 cb bc 2c fb a8 3b cb 9f 52 bc
       0.0080485 -0.02483456 0.005156895 -0.01285548
000200 68 70 5d 3c da 23 3b 3c 25 83 0e 3b 7e d7 1e ba
       0.013515569 0.011422122 0.0021745649 -0.00060593325
000210 d0 28 81 3b dd 21 c2 3b e9 25 ba 3c 2a 33 ef bb
       0.003941633 0.005924447 0.022723155 -0.0072998004
000220 c3 a5 06 3c d1 c4 62 bc 38 52 46 3c c8 53 aa 3c
       0.008218232 -0.01384087 0.012104563 0.020791903
000230 f5 e8 32 3b 5e 10 15 3a fd f4 21 bc 07 e6 8b 3c
       0.0027299498 0.0005686338 -0.00988507 0.017077459
000240 fa 6b da 3a fd e1 4e bc 61 89 c1 bb cc 0e ef ba
       0.001666426 -0.012627122 -0.0059062694 -0.0018238663
000250 b4 41 ca bb 57 94 58 bb 05 cb 45 ba 21 92 f4 b9
       -0.006172383 -0.0033047402 -0.0007545206 -0.0004664818
000260 44 60 ad bb 45 a5 38 3c 49 fd c2 ba a8 5b bb 3a
       -0.005291017 0.011269872 -0.001487651 0.0014294283
000270 95 0d 53 bb 28 40 8f bc 48 22 1f 3b 80 1f be bc
       -0.003220414 -0.017486647 0.0024281908 -0.02320838
000280 22 8d fb 3b 8a 53 c2 bc 57 6d 11 3c b4 3c 7a 3b
       0.0076767365 -0.023721475 0.008876166 0.0038183155
000290 fe a9 3d bb 8a 19 02 3a 02 3b 9e bc 37 b5 14 bc
       -0.0028940435 0.0004962912 -0.019315246 -0.009076408
0002a0 be fe ab 3a d5 73 e2 ba 5b 22 16 bb db 12 ed 3b
       0.0013122184 -0.0017276952 -0.002290866 0.0072349138
0002b0 cb 23 4d bb 3a 37 52 bc ba 0a 5c 3b 6c 3a c5 bb
       -0.0031301852 -0.01283055 0.003357573 -0.0060189273
0002c0 99 76 8c bb 3c 4f 26 bc e8 49 0c bc 4d 12 a2 3c
       -0.004286599 -0.010150727 -0.0085625425 0.019784117
0002d0 cc db 3f 3b e7 47 5d bc 54 33 be 39 96 2b 06 bc
       0.0029275296 -0.013505912 0.00036277866 -0.008189103
0002e0 ea 14 32 3c ac 7f a4 3b 2d 49 c8 3a 1c a4 04 3a
       0.010869244 0.0050201025 0.0015280597 0.00050598546
0002f0 04 db c7 bb 07 cd 0d bc 65 66 c4 ba 59 e9 c2 bb
       -0.0060991067 -0.008654839 -0.0014984129 -0.0059482274
000300 c9 88 77 bc 5d c1 a2 3b c7 da b9 bb 60 2c 66 bb
       -0.015108296 0.0049668984 -0.0056718322 -0.0035121664
000310 78 fa 65 3b a1 3c 28 3b 0a ac 9e 3b fb 0d a8 3c
       0.0035091918 0.0025670903 0.004842286 0.020514479
000320 35 eb 22 3c 5b ba c3 3b 50 96 91 bb ac 2b e5 3b
       0.009943773 0.005973143 -0.0044429675 0.0069937315
000330 94 4e b1 3b 4a 6d 8f 3a 32 eb d6 39 6f 8b 97 bc
       0.0054109786 0.0010942605 0.00040992495 -0.018499104
000340 7c 1f 87 3c 81 b5 0c bc 20 58 81 3c 66 39 82 3b
       0.016494505 -0.008588196 0.015789092 0.0039741276
000350 3c ac 14 3b dd 0e ec 3b 90 4b 88 3a b7 41 31 bc
       0.0022685667 0.0072039203 0.0010398496 -0.01081889
000360 30 fd f5 bb 73 9a e2 bb 47 b7 ea bb 84 f5 47 ba
       -0.007506989 -0.0069153844 -0.0071629616 -0.0007627832
000370 5a 09 2d bc b0 0a 2c 3b 56 a8 58 ba ab 93 79 bc
       -0.010561312 0.0026251487 -0.000826483 -0.015232961
000380 67 fe 7c 3b df 46 ce 3b 05 3f f3 3b c9 54 88 bc
       0.0038603784 0.0062950696 0.007423284 -0.016641991
000390 54 d7 94 3b e7 f2 eb bb 04 5e 9d 3b 47 16 18 bb
       0.0045422707 -0.007200587 0.0048024673 -0.0023206638
0003a0 49 06 28 bc 22 bb a8 bb 00 52 32 bc c9 79 53 3c
       -0.010255405 -0.005149261 -0.010883808 0.012907454
0003b0 54 22 49 b9 93 c8 9b ba 99 1f a0 bb 15 00 84 3c
       -0.00019181642 -0.0011885337 -0.0048865792 0.01611332
0003c0 bf bc 3a 3c c5 2d d4 3b 69 aa 6e 3c d5 82 c9 bb
       0.01139754 0.0064751827 0.014566996 -0.0061496296
0003d0 21 24 25 3c e0 e6 74 bc 52 b3 29 3c 39 a2 88 bc
       0.010079415 -0.014947623 0.010357695 -0.016678916
0003e0 9b aa 1c 3c a7 b8 ee ba f9 f8 6a bc ec 79 c1 bb
       0.00956216 -0.001821299 -0.014341586 -0.005904427
0003f0 75 22 89 bc 47 6c 81 bb d0 f5 de bb e9 df 9c bc
       -0.016740063 -0.0039496752 -0.0068042055 -0.019149737
