models/SCAPE_5k/best_desc.pth (torch, 932242 bytes, 73 tensors)

bn1.weight f4 [64]
0	0x3f845080	1.0337067
1	0x3f85424e	1.041086
2	0x3f7eb030	0.9948759
3	0x3f62e3d0	0.88628864
4	0x3f7a02ef	0.97660726
5	0x3f6dc189	0.92873436
6	0x3f9c4772	1.2209303
7	0x3f806b04	1.0032659
8	0x3f71d2e8	0.9446244
9	0x3f6630dc	0.89918303
10	0x3f80f733	1.0075439
11	0x3f6ae189	0.9175039
12	0x3f8c07d6	1.0939891
13	0x3f789956	0.9710897
14	0x3f800c04	1.0003667
15	0x3f967375	1.1753985
16	0x3f53ee24	0.8278525
17	0x3f95ac72	1.1693251
18	0x3f661092	0.89869034
19	0x3f6dd02a	0.9289576
20	0x3f781b41	0.96916586
21	0x3f6a34bb	0.9148671
22	0x3f9e77cf	1.2380313
23	0x3f760144	0.9609568
24	0x3f83dfd6	1.0302684
25	0x3f811281	1.0083772
26	0x3f61eb3e	0.88249576
27	0x3f8a2b9e	1.0794561
28	0x3f655066	0.89575803
29	0x3f8acfa1	1.0844613
30	0x3f810de2	1.0082362
31	0x3f5bdff2	0.8588859
32	0x3f7d695f	0.9898891
33	0x3f79ffa4	0.976557
34	0x3f7aab79	0.97917897
35	0x3f858695	1.0431696
36	0x3f84cdaa	1.0375264
37	0x3f77310d	0.9655922
38	0x3f6cee45	0.9255107
39	0x3f6f0dbb	0.93380326
40	0x3f890955	1.0705973
41	0x3f667df1	0.9003592
42	0x3f7f1567	0.9964203
43	0x3f890a7a	1.0706322
44	0x3f801215	1.0005518
45	0x3f8ac8da	1.0842545
46	0x3f754fc6	0.9582485
47	0x3f81e496	1.0147884
48	0x3f854048	1.0410242
49	0x3f769463	0.9632017
50	0x3f6357b1	0.8880568
51	0x3f620873	0.8829414
52	0x3f8091df	1.0044516
53	0x3f86b4ad	1.0523888
54	0x3f75492f	0.95814794
55	0x3f806393	1.0030388
56	0x3fa02ad1	1.2513067
57	0x3f6d4938	0.9268985
58	0x3f823998	1.0173826
59	0x3f667972	0.9002906
60	0x3f834297	1.0254697
61	0x3f780d6b	0.96895474
62	0x3f5fabec	0.87371707
63	0x3f660b98	0.8986144

bn1.bias f4 [64]
0	0xbd510477	-0.05102965
1	0xbde4ec7f	-0.111779206
2	0x3e5be34d	0.21473427
3	0x3dfca05b	0.12335273
4	0x3dd276fb	0.102766
5	0xbd7706cb	-0.060309213
6	0x3dd80a13	0.105487965
7	0x3e5e1da3	0.21690993
8	0x3df4e8c3	0.11958458
9	0x3d07d934	0.033166125
10	0x3dd69dfe	0.10479353
11	0xbcbb8746	-0.022891652
12	0x3dc8dbcd	0.09807549
13	0xbc2f0735	-0.010682871
14	0xbcb78dc3	-0.022406464
15	0x3dc63283	0.09677603
16	0xbda435ca	-0.08018072
17	0xbc9e6196	-0.019333642
18	0xbd839cb2	-0.06426372
19	0xbe10dde6	-0.14147148
20	0x3d036557	0.032079067
21	0xbd75998d	-0.05996089
22	0x3e4437b3	0.19161873
23	0xbd92853c	-0.07154319
24	0x3da48317	0.08032816
25	0x3b9a4b02	0.0047086487
26	0xbe073db4	-0.13207132
27	0x3e0e38aa	0.13888803
28	0xbc56b378	-0.013104312
29	0x3e839823	0.2570201
30	0x3ccc3694	0.024928369
31	0xbc89fcbc	-0.016844146
32	0xbd80242c	-0.06256899
33	0x3ddbff3e	0.10742043
34	0xbc421430	-0.011845633
35	0xbd141f2a	-0.036162533
36	0xbd489e79	-0.048979256
37	0xbccc904d	-0.024971152
38	0x3b0496e3	0.0020231537
39	0x3c908b1e	0.017644461
40	0x3dd54413	0.10413375
41	0x3c91c4b4	0.01779399
42	0x3d9d26e8	0.076734364
43	0xbd3623b6	-0.04446765
44	0x3d9728bb	0.073808156
45	0x3cadb209	0.021203058
46	0xbdba0029	-0.09082062
47	0x3e8a84b0	0.27054358
48	0x3df44f5d	0.119292
49	0xbc076869	-0.008264639
50	0x3e1380b6	0.14404568
51	0xbdb9b585	-0.09067825
52	0x3dafa494	0.08576313
53	0xbcbcc1e1	-0.023041667
54	0x3cbc0da5	0.022955725
55	0x3e7c6d49	0.24651064
56	0x3d9c8485	0.076424636
57	0x3d916686	0.07099633
58	0xbcb98f12	-0.022651229
59	0xbcb3f49c	-0.021967225
60	0x3d2f8340	0.04284978
61	0x3ddf42df	0.109014265
62	0xbc82fc86	-0.015989553
63	0xbd8b1cc1	-0.06792594

bn1.running_mean f4 [64]
0	0x38c7cb63	9.526943e-05
1	0x398ec095	0.00027227835
2	0xb9c89bd1	-0.00038263065
3	0xb90ac1e1	-0.00013232931
4	0x398dd0a7	0.00027049074
5	0xb94cdae1	-0.00019536495
6	0x38b20648	8.4888714e-05
7	0x39a167b9	0.00030785592
8	0x39308f81	0.00016838127
9	0xb98502b9	-0.00025369765
10	0x39ad456d	0.00033048858
11	0xb993e7ca	-0.0002821072
12	0x34b8dc50	3.443297e-07
13	0x39ce0de6	0.00039301737
14	0xb9f3fd69	-0.00046537377
15	0xba0bac12	-0.00053280697
16	0x370fc30e	8.568879e-06
17	0x39ef6239	0.00045658814
18	0x391c90c5	0.0001493125
19	0xb7965b52	-1.7923918e-05
20	0xb9f344c2	-0.000463998
21	0xba16fa44	-0.00057593384
22	0xb8c9a8aa	-9.615843e-05
23	0x3988808d	0.0002603572
24	0xb9f8025b	-0.00047304
25	0xb9a2b339	-0.0003103258
26	0xb8f61dce	-0.00011735746
27	0xb9c6b546	-0.00037900562
28	0x3900a41a	0.00012268164
29	0xb947dab1	-0.00019059588
30	0x3930ef52	0.00016873822
31	0xb9bfe1ca	-0.00036598585
32	0x3a1175ab	0.0005548845
33	0xb95f72ce	-0.00021309705
34	0xb8d55b28	-0.00010173611
35	0xb9cbb304	-0.00038852554
36	0xb91f395c	-0.0001518479
37	0xb8dadfa2	-0.00010436705
38	0x395d80e4	0.00021124218
39	0x392f57fd	0.00016722079
40	0x388aa2a8	6.61065e-05
41	0xb96a20c2	-0.00022328182
42	0x39e86131	0.00044322902
43	0x39f708ea	0.00047118153
44	0xb7d2e8d6	-2.5142373e-05
45	0x39e983b0	0.00044539338
46	0x39216216	0.00015390696
47	0xb9bc40af	-0.00035906347
48	0xba06e345	-0.000514556
49	0x3a03ccd1	0.00050277734
50	0x39f7a6c4	0.0004723576
51	0x39a0343a	0.0003055649
52	0x39054b1e	0.00012711852
53	0xb9009b51	-0.00012264891
54	0xb92d88c0	-0.00016549509
55	0x39702cee	0.00022904921
56	0x39f3fef0	0.00046538515
57	0xb9864af9	-0.0002561433
58	0xb9e12529	-0.0004294303
59	0xb9416b0d	-0.00018445794
60	0xb9cf69cf	-0.0003956095
61	0x380573a4	3.181737e-05
62	0xb9b9aa5a	-0.00035412872
63	0x39030fcf	0.00012499023

bn1.running_var f4 [64]
0	0x3c3b153a	0.011418635
1	0x3ba2a6b0	0.0049637184
2	0x3cb75123	0.022377556
3	0x3cc6f2d7	0.024285717
4	0x3bd57e52	0.0065153027
5	0x3cbdbac8	0.023160353
6	0x3b830f60	0.0039996356
7	0x3c720f60	0.0147741735
8	0x3c0dd9aa	0.008657852
9	0x3c927645	0.017878661
10	0x3b6cbf37	0.0036124715
11	0x3c5b6ce9	0.013392665
12	0x3c95a6e5	0.018268058
13	0x3bb91eff	0.005649447
14	0x3c10d33f	0.0088394275
15	0x3a3b3527	0.0007141404
16	0x3c54c7a7	0.012987054
17	0x3aea221c	0.0017862949
18	0x3c7ca9f4	0.015421379
19	0x3b914421	0.0044331704
20	0x3cc48574	0.023989417
21	0x3b874afb	0.0041288114
22	0x3ac165be	0.0014755053
23	0x3cb81227	0.022469593
24	0x3ab2436d	0.0013600417
25	0x3c5a7641	0.013333858
26	0x3c85b685	0.016322384
27	0x3cbda10e	0.023148086
28	0x3c4a338e	0.012341393
29	0x3a3d52df	0.00072221266
30	0x3c1797fe	0.009252546
31	0x3c5805e7	0.013185001
32	0x3c15505d	0.009113398
33	0x3c160e89	0.009158739
34	0x3cda634e	0.02665868
35	0x3a6fc4ba	0.0009146441
36	0x3c32ac93	0.010905403
37	0x3c612b79	0.013743275
38	0x3b75ff7e	0.0037536318
39	0x3cf2e09d	0.02964812
40	0x3b6cae67	0.0036114694
41	0x3c8c4c03	0.017126089
42	0x3b004ee9	0.0019578284
43	0x3ac9fc73	0.0015410319
44	0x3b2ab549	0.0026047996
45	0x3b825d9b	0.003978444
46	0x3cb0b497	0.021570487
47	0x3bc9b491	0.0061555584
48	0x3b0c6a00	0.0021425486
49	0x3c0ab34e	0.008465601
50	0x3b4271f2	0.0029669967
51	0x3cd61766	0.026134204
52	0x3c194e49	0.009357044
53	0x3c6becef	0.014399751
54	0x3c4494a1	0.0119983265
55	0x3b8cf98a	0.0043022083
56	0x3a39721c	0.00070741936
57	0x3c5906d5	0.013246258
58	0x3b258e01	0.0025261643
59	0x3b851098	0.004060816
60	0x3cc9d5fc	0.024638169
61	0x3b54cd96	0.0032471172
62	0x3c780e84	0.01514018
63	0x3ca08fb1	0.019599767

bn2.weight f4 [64]
0	0x3f75cd45	0.9601634
1	0x3f798e4d	0.9748276
2	0x3f7ee25c	0.99564147
3	0x3f8edfca	1.1162045
4	0x3f5db856	0.866094
5	0x3f682e16	0.9069532
6	0x3f884e8e	1.0648973
7	0x3f80b82a	1.0056202
8	0x3f8e89f6	1.1135852
9	0x3f659787	0.8968434
10	0x3f8ef770	1.1169262
11	0x3f951cd0	1.1649418
12	0x3f90da38	1.1316595
13	0x3fa09eca	1.2548459
14	0x3f748479	0.9551464
15	0x3f8140d8	1.0097914
16	0x3f80fd90	1.0077381
17	0x3f80b156	1.0054119
18	0x3f876dfe	1.0580442
19	0x3f7acfbb	0.9797322
20	0x3f7f6860	0.9976864
21	0x3f6e1f3e	0.9301642
22	0x3f84ee07	1.038514
23	0x3f65ca98	0.8976226
24	0x3f8182ef	1.0118083
25	0x3f7e1d00	0.99263
26	0x3f681a78	0.9066539
27	0x3f5aecd1	0.85517603
28	0x3f6d61c2	0.9272729
29	0x3f74e2e2	0.95658696
30	0x3f8b007e	1.0859525
31	0x3f802fc3	1.0014576
32	0x3f8408e2	1.0315211
33	0x3f856562	1.0421565
34	0x3f7f89ef	0.99819845
35	0x3f7c9b97	0.9867491
36	0x3f59db8e	0.8510064
37	0x3f6aed8e	0.9176873
38	0x3f6d8c2f	0.9279203
39	0x3f7fa92f	0.9986753
40	0x3f9b2e15	1.2123438
41	0x3f85fabe	1.0467145
42	0x3f7a2bd4	0.97723126
43	0x3f8a5c15	1.0809351
44	0x3f6a295a	0.9146935
45	0x3f74eee3	0.9567701
46	0x3f5b629c	0.8569734
47	0x3f5e9bf6	0.8695673
48	0x3f7cd457	0.98761505
49	0x3f6819ce	0.90664375
50	0x3f80d03a	1.0063546
51	0x3f7b13c0	0.9807701
52	0x3f86d064	1.0532346
53	0x3f4ea79a	0.8072449
54	0x3f82deb8	1.0224218
55	0x3f7e81fc	0.9941709
56	0x3f82cbea	1.021848
57	0x3f81b2e9	1.0132724
58	0x3f7ebc21	0.9950581
59	0x3f843d67	1.0331239
60	0x3f831708	1.0241404
61	0x3f992898	1.1965513
62	0x3f843e98	1.0331602
63	0x3f815ddd	1.010677

bn2.bias f4 [64]
0	0x3c1415d3	0.009038406
1	0xbc7754d5	-0.015095909
2	0xbd6d94c1	-0.05800319
3	0x3c10a57e	0.008828519
4	0x3c9b735c	0.018975906
5	0x3c8cbbf8	0.017179474
6	0x3e4a2950	0.19742322
7	0x3e4f3231	0.2023399
8	0xbc0a98a3	-0.008459243
9	0x3deb9cf8	0.11504549
10	0x3db65ad8	0.08904046
11	0xbca5a9c3	-0.02022255
12	0x3e84d2d1	0.2594209
13	0x3dd1ceec	0.10244545
14	0xbdb36509	-0.08759505
15	0x3d894598	0.06702727
16	0xbda89985	-0.082324065
17	0xbc6c5644	-0.014424864
18	0x3df09a50	0.11748183
19	0xbbd6fde1	-0.0065610264
20	0xbd97f2ba	-0.07419343
21	0x3c4290e6	0.011875367
22	0x3e00a01e	0.1256108
23	0x3e1910b4	0.14947778
24	0x3cc5bdea	0.02413841
25	0xbd674228	-0.056459576
26	0x3e24cb4a	0.16093174
27	0xbda0e8b7	-0.07856887
28	0xbc7cc345	-0.015427415
29	0xbd1272de	-0.035754077
30	0xbd4e24c4	-0.05032803
31	0x3cd4830d	0.025941396
32	0x3e0f6f8c	0.14007396
33	0xbdb68f49	-0.08914048
34	0xbbd16973	-0.0063907444
35	0x3d2fb6b8	0.042898864
36	0xbccf7e2a	-0.025328714
37	0xbdc619dc	-0.09672901
38	0xbe3fdac3	-0.18735795
39	0xbb30b374	-0.002696243
40	0x3e668870	0.22512984
41	0x3d4bbd7f	0.049741264
42	0x3ce05c18	0.027387664
43	0x3cbeaa84	0.023274668
44	0xbd45bde2	-0.04827679
45	0x3cfd68d1	0.03093377
46	0x3a5b3a84	0.00083629065
47	0x3dc077a0	0.09397817
48	0x3cf3c6dd	0.029757911
49	0xbdce1528	-0.10062629
50	0x3e215fd9	0.15759219
51	0xbdc732a4	-0.09726456
52	0x3d7429f9	0.05961034
53	0xbe093c42	-0.13401893
54	0xbe0b6423	-0.13612418
55	0x3d04a94b	0.032388013
56	0x3e1387c5	0.1440726
57	0x3bb94a43	0.0056546046
58	0xbda893ef	-0.08231341
59	0x3cbbf1c4	0.022942431
60	0xbcc498fc	-0.02399873
61	0x3c2aa1a7	0.0104145175
62	0x3dc3a47b	0.095528565
63	0x3d23b040	0.039963007

bn2.running_mean f4 [64]
0	0xbed7803f	-0.42090032
1	0xbf0cc797	-0.5499205
2	0xbdb0a042	-0.08624317
3	0xbf2c4556	-0.672933
4	0xbf1cd7d6	-0.6126684
5	0xbee094e5	-0.43863598
6	0xbf1aa61b	-0.60409707
7	0xbf315873	-0.6927559
8	0xbf00d865	-0.5033019
9	0xbf0c9972	-0.5492164
10	0xbe0ffa3f	-0.14060305
11	0xbf8de977	-1.1086873
12	0xbecef383	-0.4042016
13	0xbec8d4bc	-0.39224803
14	0x3f4855e8	0.7825608
15	0x3e86758e	0.26261562
16	0x3ec66d23	0.3875514
17	0x3f0f1ab9	0.5590015
18	0xbe99b039	-0.3001726
19	0xbf157c38	-0.5839267
20	0xbf208dde	-0.6271647
21	0xbf7530f5	-0.9577783
22	0x3f0b7cc1	0.54487234
23	0xbf894f78	-1.0727377
24	0xbf2cf49d	-0.6756075
25	0x3e41d6e6	0.18929633
26	0xbf9f67d2	-1.2453558
27	0x3e9dda4e	0.30830616
28	0xbeb94a7a	-0.36189634
29	0x3f343119	0.7038742
30	0xbf4a2e11	-0.7897654
31	0xbd0a8125	-0.033814568
32	0xbd8c17fc	-0.06840512
33	0xbf3e7b3e	-0.744068
34	0xbefe54a5	-0.49673954
35	0xbf9c88d6	-1.2229259
36	0xbdd4cb5e	-0.10390352
37	0xbe642abe	-0.2228193
38	0x3db01316	0.0859739
39	0xbe14d769	-0.14535297
40	0xbf3cfb78	-0.7382121
41	0xbf10642c	-0.5640285
42	0xbf479d7c	-0.7797468
43	0xbefc5858	-0.4928615
44	0x3c778c71	0.015109167
45	0xbe5e8ce6	-0.21733436
46	0xbf75f1e0	-0.96072197
47	0xbed30841	-0.41217235
48	0xbc9efa0f	-0.019406347
49	0xbe2b55c3	-0.16731934
50	0xbf45499b	-0.7706544
51	0x3f1dbd56	0.6161703
52	0xbf24fe85	-0.64450866
53	0x3ecf3754	0.404719
54	0xbb8604cc	-0.0040899273
55	0xbfa83981	-1.3142549
56	0xbf245924	-0.6419852
57	0xbe76e0f1	-0.24109246
58	0xbbb9f9d8	-0.0056755356
59	0xbf587870	-0.84558773
60	0x3ddcd013	0.107818745
61	0x3edb8791	0.42876866
62	0xbf962097	-1.1728696
63	0xbdb755d0	-0.08951914

bn2.running_var f4 [64]
0	0x404fea8c	3.2486906
1	0x3f89715b	1.0737718
2	0x4047ebb8	3.1237621
3	0x3e33ca9e	0.17557761
4	0x3f8587f4	1.0432115
5	0x3f72bef7	0.9482264
6	0x3f71cec5	0.9445613
7	0x3f8f5c91	1.1200124
8	0x3f2bbd05	0.67085296
9	0x400638e0	2.0972214
10	0x400c29da	2.1900544
11	0x3eea7a48	0.45796418
12	0x3fb9f2ae	1.4527185
13	0x3fa3a1dc	1.278377
14	0x3ff108cc	1.883081
15	0x3fc7aedd	1.5600239
16	0x3fcdbe19	1.6073638
17	0x40052bd0	2.080799
18	0x3f2b021c	0.66800094
19	0x3f78d86f	0.9720525
20	0x4044e719	3.076605
21	0x3f2cb21b	0.6745927
22	0x3f8d87b4	1.1057038
23	0x3fa0385f	1.2517203
24	0x401569c7	2.3345811
25	0x3f841b04	1.0320745
26	0x401b2842	2.4243321
27	0x3fd69c99	1.676654
28	0x3fb1ac97	1.3880795
29	0x3fd742e5	1.681729
30	0x3ea28eb8	0.3174951
31	0x3f30d3e1	0.690733
32	0x3e7c31a8	0.24628317
33	0x3e54b8e7	0.2077366
34	0x3fbb2622	1.4621012
35	0x3f99466c	1.1974616
36	0x3e73ee99	0.23821487
37	0x3fb823d6	1.4385936
38	0x403951d8	2.8956203
39	0x3fb8c5cc	1.4435363
40	0x3fd5961a	1.6686432
41	0x3e8b4ed4	0.2720858
42	0x3fadcd06	1.3578193
43	0x4003d48f	2.0598485
44	0x4004b533	2.0735595
45	0x3fa27faa	1.269521
46	0x4010b048	2.2607594
47	0x3f917111	1.136263
48	0x3f565d0d	0.83735734
49	0x402853cd	2.6301148
50	0x4027f017	2.624029
51	0x4095eff9	4.6855435
52	0x40082e4f	2.1278265
53	0x3fd9b05a	1.7006943
54	0x3f993091	1.1967946
55	0x3ed60351	0.41799405
56	0x3ef1cc89	0.4722636
57	0x3eab3975	0.33442274
58	0x3f0b441c	0.544008
59	0x404982d9	3.1486113
60	0x3fcdad61	1.6068536
61	0x3f1f0019	0.62109524
62	0x3f0f644c	0.56012416
63	0x3f58c898	0.8468108

bn3.weight f4 [64]
0	0x3f905688	1.1276407
1	0x3f85880c	1.0432143
2	0x3f690bb9	0.9103351
3	0x3f844213	1.0332664
4	0x3f7d2c58	0.9889579
5	0x3f70c797	0.9405455
6	0x3f6741fa	0.9033505
7	0x3f7a902e	0.9787625
8	0x3f89c078	1.0761862
9	0x3f8630d7	1.0483655
10	0x3f6c6678	0.92343855
11	0x3f7871b6	0.9704851
12	0x3f933427	1.1500291
13	0x3f76d8ab	0.9642436
14	0x3f79d9df	0.9759807
15	0x3f780529	0.96882874
16	0x3f686014	0.90771604
17	0x3f867cc2	1.0506823
18	0x3f7bfa64	0.9842894
19	0x3f658057	0.89648956
20	0x3f83230b	1.0245069
21	0x3f763efe	0.9618987
22	0x3f7b0223	0.98050135
23	0x3f7ddf24	0.9916861
24	0x3f7712cf	0.96513075
25	0x3f8b5cab	1.0887655
26	0x3f7ec0f8	0.99513197
27	0x3f738d4e	0.9513749
28	0x3f89111b	1.0708345
29	0x3f79005d	0.9726618
30	0x3f65498e	0.8956536
31	0x3f8fba2d	1.1228691
32	0x3f84e349	1.0381862
33	0x3f806efe	1.0033872
34	0x3f953a04	1.165833
35	0x3f894891	1.072527
36	0x3f5e63af	0.86870855
37	0x3f9645a7	1.1740006
38	0x3f636b67	0.8883576
39	0x3f826d37	1.018958
40	0x3f7e5ac8	0.9935727
41	0x3f70d620	0.9407673
42	0x3f7345e1	0.950285
43	0x3f683c80	0.90717316
44	0x3f897189	1.0737773
45	0x3f6511cf	0.894803
46	0x3f83c15f	1.0293387
47	0x3f7e11be	0.9924582
48	0x3f8ed3cf	1.1158389
49	0x3f654c8c	0.89569926
50	0x3f7565c3	0.958584
51	0x3f8ed1f9	1.1157829
52	0x3f928d99	1.1449462
53	0x3f83c4ae	1.0294397
54	0x3f6fea42	0.93716824
55	0x3f8a4146	1.080117
56	0x3f7ee2e3	0.9956495
57	0x3f997cc0	1.1991196
58	0x3f84a408	1.0362558
59	0x3f6670b9	0.9001575
60	0x3f788d81	0.9709092
61	0x3f3d8522	0.7403127
62	0x3f60730b	0.8767554
63	0x3f681c1d	0.906679

bn3.bias f4 [64]
0	0x3de505ca	0.11182745
1	0x3e472da2	0.19451001
2	0xbe05532d	-0.1302001
3	0x3d82de62	0.063900724
4	0x3d50e5fc	0.05100058
5	0xbd86c385	-0.06580261
6	0xbd63d92c	-0.055627033
7	0x3ddb9e90	0.10723603
8	0x3daba7c2	0.08381607
9	0xbcb7dcd6	-0.02244417
10	0x3cc8b9f6	0.024502736
11	0xbd85222b	-0.06500658
12	0x3d70add0	0.05875951
13	0xbbe1bf20	-0.006889239
14	0xbab3c7ab	-0.0013716122
15	0x3d5565e6	0.05209913
16	0xbd5477a5	-0.051871914
17	0xbd0fc87c	-0.035103306
18	0xba870815	-0.0010302091
19	0x3cbdaad4	0.023152746
20	0xbc900e52	-0.017584953
21	0xbd83454d	-0.064097025
22	0x3dc3c417	0.095588855
23	0xbde54b1b	-0.11195966
24	0x3dde841b	0.10865041
25	0x3d349fc3	0.044097673
26	0x3d989eb0	0.07452142
27	0xbd185845	-0.037193555
28	0x3c1e7f6d	0.009673935
29	0xbdbe1e68	-0.09283143
30	0xbc5aa1d5	-0.013344248
31	0xbd2d3009	-0.042282138
32	0xbde053c7	-0.10953479
33	0xbdbfe2f5	-0.093694605
34	0x3e5d903f	0.21637057
35	0xbcc4ac1a	-0.024007846
36	0xbda8880e	-0.08229075
37	0x3e4429b3	0.19156532
38	0xbde9b69a	-0.114117816
39	0xbda41b85	-0.080130614
40	0xbcaebd65	-0.021330545
41	0x3cd59d5c	0.026076011
42	0xbd4c2b73	-0.049846124
43	0xbcf1e8af	-0.029529897
44	0x3d64a6ad	0.055823017
45	0xbcb32e20	-0.02187258
46	0xbd3c2297	-0.045931425
47	0xbdaa81b2	-0.08325519
48	0x3cb9ded6	0.022689264
49	0xbdaa3f5a	-0.083128646
50	0xbd2b9002	-0.041885383
51	0x3b713d3e	0.0036810185
52	0x3deb9159	0.11502332
53	0xbd3f25a1	-0.046666745
54	0xbddcea54	-0.10786882
55	0x3d308a1e	0.04310047
56	0x3d33b0e4	0.043869868
57	0xbd411a5e	-0.047144286
58	0x3e3e667f	0.18593787
59	0xbc3692c6	-0.011143392
60	0xbd5c8036	-0.05383321
61	0xbe1bdfb8	-0.1522206
62	0xbdc6ae83	-0.09701254
63	0x3bfaccb8	0.007653799

bn3.running_mean f4 [64]
0	0x3fac87af	1.3478907
1	0xbf5c3f74	-0.8603432
2	0x3fac49cc	1.3460021
3	0x3dba5dad	0.090998985
4	0xbf910dfe	-1.1332395
5	0xbecaf8ce	-0.39642948
6	0xbd12c142	-0.035828836
7	0xbdf8d73b	-0.12150427
8	0x3e7e1c9b	0.248156
9	0xbf915622	-1.1354411
10	0xbda79f8c	-0.08184728
11	0xbf9d60c9	-1.2295161
12	0xbd91b0c2	-0.07113792
13	0xbfbfaa8a	-1.4973919
14	0xbf371701	-0.71519476
15	0xbeb1f9ff	-0.34761044
16	0xbf8e3aed	-1.1111733
17	0x3f3fe206	0.7495426
18	0x3f410517	0.7539839
19	0xbf00ca2c	-0.5030849
20	0x3f2daaa5	0.6783851
21	0x3f699a0d	0.9125069
22	0xbe7cdc3b	-0.24693386
23	0x3f01c1db	0.50686425
24	0xbef7cf36	-0.48400277
25	0xbf00e18d	-0.50344163
26	0xbf450dc1	-0.7697411
27	0xbf8d3cd9	-1.1034194
28	0xbf82f50b	-1.0231031
29	0xbbd038a4	-0.0063544083
30	0x3e3fdf67	0.18737565
31	0xbfb5a03a	-1.4189522
32	0xbefba08a	-0.4914592
33	0xc00b4af4	-2.1764498
34	0x3e5c9372	0.21540621
35	0x3c64f30f	0.013973965
36	0x3f2beba6	0.67156446
37	0x3e6ef2c4	0.23334795
38	0xbf9ba1e3	-1.2158779
39	0x3fae238a	1.3604596
40	0xbfd32291	-1.6494924
41	0xbfa69368	-1.3013735
42	0xbe6dbfef	-0.23217748
43	0x3e9989b6	0.29987878
44	0xbf12ebfc	-0.57391334
45	0x3e12231e	0.14271209
46	0x3f848974	1.0354447
47	0x3f37a0fc	0.7173002
48	0xbedcdf2e	-0.43139023
49	0x3ed82947	0.42218992
50	0xbfa01611	-1.2506734
51	0xbf119a61	-0.5687619
52	0xbe7a0173	-0.24414615
53	0xbd15035c	-0.036380157
54	0xbed13514	-0.40860808
55	0xbf81786a	-1.0114872
56	0x3f14eeb0	0.5817671
57	0xbfb1d0c7	-1.3891839
58	0xbfa28485	-1.2696692
59	0xbf856fd8	-1.0424757
60	0x3f13d9dd	0.5775431
61	0xbf17e073	-0.5932686
62	0xbf0a7aff	-0.5409393
63	0xbf0457c8	-0.51696444

bn3.running_var f4 [64]
0	0x3f7bba01	0.98330694
1	0x3e2b17bd	0.16708274
2	0x3fae25f6	1.3605335
3	0x3e7a7da7	0.24461995
4	0x3eb52a76	0.35383958
5	0x3edaa817	0.42706367
6	0x3f6ab780	0.9168625
7	0x3e224010	0.1584475
8	0x3ef7363d	0.48283568
9	0x3f283b69	0.6571565
10	0x3f393340	0.72343826
11	0x3f00f781	0.5037766
12	0x3f901f7f	1.1259612
13	0x3ecd2580	0.40067673
14	0x3f00be96	0.5029081
15	0x3f08aa3f	0.53384775
16	0x3fdcbf94	1.7245965
17	0x3f435c62	0.7631284
18	0x3f0ce32d	0.5503414
19	0x3f3979b6	0.7245134
20	0x3efef7d0	0.4979844
21	0x3ea36bee	0.3191828
22	0x3f0421bf	0.5161399
23	0x3eeb3c62	0.45944506
24	0x3f79535d	0.9739283
25	0x3e8aaa24	0.27082932
26	0x40119e19	2.2752745
27	0x3ec729b2	0.38898998
28	0x3f94cf50	1.1625767
29	0x3f39e5f4	0.72616506
30	0x3f5846d3	0.8448307
31	0x3e889b52	0.26681
32	0x3e05bd8f	0.13060592
33	0x3fdf5388	1.7447367
34	0x3f3686e2	0.71299565
35	0x3e276b5e	0.16349551
36	0x3fd957ea	1.6979954
37	0x40495a26	3.1461272
38	0x3fa28ed3	1.2699836
39	0x3e903b64	0.2817031
40	0x3fa49668	1.28584
41	0x3fcd0db2	1.6019804
42	0x3f4c3852	0.7977344
43	0x402254c7	2.5364244
44	0x3ec38726	0.38189048
45	0x3f11d07e	0.5695876
46	0x3e23cc70	0.15995955
47	0x3e856484	0.2605325
48	0x3e8c05c1	0.2734814
49	0x3f65b3de	0.8972758
50	0x3f8198de	1.0124776
51	0x3f56960b	0.838227
52	0x3f2be968	0.67153025
53	0x3e9e868d	0.3096203
54	0x3f1d67c3	0.6148645
55	0x3f1337d5	0.5750707
56	0x3e7a9235	0.24469836
57	0x3e150b88	0.1455518
58	0x3ffc51cc	1.9712462
59	0x3f08ab30	0.5338621
60	0x3db1a64e	0.08674298
61	0x3fe98767	1.8244447
62	0x3ea58eb4	0.32335436
63	0x3f61ad80	0.88155365

bn4.weight f4 [64]
0	0x3f720146	0.94533193
1	0x3f847124	1.0347028
2	0x3f80ca00	1.0061646
3	0x3f81b53c	1.0133433
4	0x3f910a46	1.133126
5	0x3f925de7	1.1434907
6	0x3f873dec	1.0565772
7	0x3f8ed124	1.1157575
8	0x3f91d391	1.139269
9	0x3f83df99	1.0302612
10	0x3f9c3b60	1.220562
11	0x3f84944e	1.0357759
12	0x3f8a1796	1.0788448
13	0x3f692d74	0.9108498
14	0x3f78852d	0.9707821
15	0x3f7ed4f5	0.99543697
16	0x3f6af67e	0.9178237
17	0x3f7796ff	0.96714777
18	0x3f8c95dd	1.0983235
19	0x3f8722b3	1.0557464
20	0x3f7ce403	0.9878542
21	0x3f7992fd	0.9748991
22	0x3f63fd82	0.890587
23	0x3f601bfe	0.8754271
24	0x3f90c8e9	1.1311313
25	0x3f466bca	0.77508223
26	0x3f80b356	1.0054729
27	0x3f947725	1.159886
28	0x3f8d4e33	1.103949
29	0x3f98fb8d	1.1951767
30	0x3f77d8be	0.968151
31	0x3f6a4ce3	0.9152357
32	0x3f5d7c8c	0.8651817
33	0x3f7e3a4f	0.9930772
34	0x3f93bdce	1.1542299
35	0x3f67d132	0.9055358
36	0x3f7d318f	0.98903745
37	0x3f87a9f1	1.0598737
38	0x3f81befc	1.0136409
39	0x3f80c8d5	1.0061289
40	0x3f926edf	1.1440085
41	0x3f783216	0.96951425
42	0x3f7e8b57	0.99431366
43	0x3f8ec181	1.1152803
44	0x3f662e66	0.8991455
45	0x3f876dc1	1.0580369
46	0x3f96d027	1.1782273
47	0x3f8642b5	1.0489107
48	0x3f6f8565	0.9356292
49	0x3f693d20	0.91108894
50	0x3f8f7602	1.1207888
51	0x3f7e1b25	0.9926017
52	0x3f9057be	1.1276777
53	0x3f8c64a8	1.0968218
54	0x3f812191	1.0088369
55	0x3f6b1fcc	0.91845393
56	0x3f95637e	1.1670988
57	0x3f7ceae8	0.9879594
58	0x3f9783df	1.1837119
59	0x3f877d71	1.0585157
60	0x3f9d0250	1.2266331
61	0x3f690b47	0.9103283
62	0x3f9244b1	1.1427213
63	0x3f640665	0.8907226

bn4.bias f4 [64]
0	0xbcdc807a	-0.026916731
1	0x3d8f71cd	0.07004128
2	0xbd5e4d20	-0.05427277
3	0xbd7660f3	-0.06015105
4	0x3e53e214	0.2069171
5	0x3d828de6	0.06374721
6	0x3e0f2613	0.13979368
7	0x3ca82769	0.020526605
8	0x3db45455	0.088051476
9	0xbd32fb26	-0.043696545
10	0x3e0f6af6	0.14005646
11	0x3c8df8fe	0.017330643
12	0x3d112e69	0.03544465
13	0xbdaedc2b	-0.085380875
14	0xbe42c25d	-0.19019456
15	0x3d36ab33	0.044596862
16	0xbd9657c0	-0.07340956
17	0x3c68815b	0.014190997
18	0x3d968c4e	0.0735098
19	0xbd4fe8fb	-0.050759297
20	0x3d8a3b0e	0.06749545
21	0x3d2f7d2f	0.042843994
22	0x3cf350a7	0.029701544
23	0xbe043965	-0.1291252
24	0x3d55a239	0.05215666
25	0xbcf3c473	-0.02975676
26	0xbdad59f8	-0.08464426
27	0x3deee22a	0.11664231
28	0x3d4ae13c	0.049531206
29	0x3cee912c	0.029121958
30	0x3d23a1e6	0.03994932
31	0x3d7f5834	0.062339976
32	0xbe5ca275	-0.21546347
33	0x3dfa78fc	0.12230107
34	0x3d0cf7d0	0.03441602
35	0x3c7efd73	0.015563357
36	0x3dc3e852	0.09565796
37	0x3df73a76	0.120716974
38	0x3d315669	0.043295298
39	0x3da7faa9	0.082021065
40	0x3d7aa64f	0.06119376
41	0xbc808bd0	-0.015691668
42	0x3cb8b4ea	0.022547204
43	0x3d9bef42	0.07613994
44	0xbdba00e2	-0.090822
45	0x3dbaa07e	0.09112643
46	0x3db39962	0.0876949
47	0x3d4cae29	0.04997078
48	0x3b7e6d9a	0.0038822652
49	0xbdbb76f1	-0.09153546
50	0xbc598a87	-0.013277656
51	0x3de27b3d	0.11058662
52	0x3e8cb276	0.27479905
53	0x3d75d32c	0.060015842
54	0xbda87df9	-0.082271524
55	0x3d3b1d0d	0.045682
56	0x3cfb3d30	0.030668825
57	0x3d62c1b2	0.055360503
58	0x3c163427	0.0091677075
59	0xbd85f64e	-0.065411195
60	0x3e88cd18	0.26718974
61	0x3e1246f9	0.14284886
62	0xbc701862	-0.014654251
63	0xbdd7c895	-0.10536305

bn4.running_mean f4 [64]
0	0x3e77f6e5	0.24215277
1	0x3d77c641	0.060491804
2	0xbdd365d5	-0.10322157
3	0xbe2f1184	-0.17096525
4	0xbdaf41f7	-0.08557504
5	0x3e83330c	0.25624883
6	0xbe3b4e72	-0.18291643
7	0xbe38f90b	-0.18063752
8	0xbdfab5f0	-0.12241733
9	0xbce2a458	-0.027666256
10	0x3e88d7db	0.26727185
11	0xbf93a1e0	-1.1533775
12	0xbea221bd	-0.31666365
13	0xbe4de8fc	-0.20108408
14	0xbf682ec7	-0.90696377
15	0x3da0e65a	0.07856436
16	0xbe0d2a48	-0.1378566
17	0xbf3f48be	-0.7472037
18	0xbec3b327	-0.3822262
19	0x3ecd21da	0.4006489
20	0x3d6dc50c	0.058049247
21	0xbe4ff097	-0.20306621
22	0x3cf0c79d	0.029392058
23	0xbef6d16f	-0.4820666
24	0x3e21fd3d	0.15819259
25	0xbe93893a	-0.28815633
26	0x3e6f4de7	0.23369561
27	0xbef3df20	-0.47631168
28	0xbf65a6a0	-0.89707375
29	0xbe86f66d	-0.26359883
30	0xbf0b72a1	-0.54471785
31	0xbf22ad3d	-0.6354559
32	0xbd105e3b	-0.035246115
33	0x3eb95900	0.36200714
34	0xbf50bd62	-0.81538975
35	0xbeb9654e	-0.36210102
36	0xbebfa8a1	-0.3743334
37	0x3e3f8a12	0.18705013
38	0xbe03a0be	-0.12854287
39	0x3edea2fe	0.43483728
40	0xbf28ea0d	-0.65982133
41	0x3eb8b521	0.3607569
42	0x3c5202d2	0.012818055
43	0xbf0c12ab	-0.54715985
44	0x3ef767fb	0.48321518
45	0xbf24a49a	-0.6431366
46	0x3e812ac9	0.25227955
47	0x3c8b9cf2	0.01704261
48	0x3e0a83ac	0.13526791
49	0x3dd3ec59	0.10347814
50	0x3f21a9bb	0.63149613
51	0xbf1fe5ae	-0.6245984
52	0xbe67403f	-0.22583102
53	0xbf5176b5	-0.8182176
54	0xbe4f9236	-0.20270619
55	0x3e21fc64	0.15818936
56	0x3ea619bf	0.32441518
57	0x3e5ec95f	0.21756504
58	0x3e657fe3	0.22412066
59	0xbda1494a	-0.07875307
60	0xbf0678d9	-0.5252815
61	0xbee13fac	-0.4399389
62	0xbe70437d	-0.23463245
63	0xbef8f7ff	-0.48626706

bn4.running_var f4 [64]
0	0x3ead6e6f	0.33873317
1	0x3f329a77	0.69766945
2	0x3ea0876c	0.3135332
3	0x40378a28	2.8678074
4	0x3f168b1c	0.58806014
5	0x3f9288e2	1.1448023
6	0x3faa6a70	1.3313732
7	0x3eb021b8	0.34400725
8	0x3fce3fee	1.611326
9	0x3febf413	1.843386
10	0x3e411ba9	0.18858208
11	0x3f700321	0.93754774
12	0x3e89db46	0.26925105
13	0x3f605bec	0.8764026
14	0x4053cc9e	3.3093638
15	0x3f925509	1.1432201
16	0x3e8d3930	0.27582693
17	0x401a81f8	2.4141827
18	0x3f05d743	0.5228159
19	0x3fcbca7b	1.5921167
20	0x40335ad2	2.8024182
21	0x3f9e3525	1.2359968
22	0x3f7ec2a8	0.9951577
23	0x40038732	2.0551267
24	0x3fe0ec07	1.757203
25	0x3fd38a97	1.6526669
26	0x3f1127e6	0.56701505
27	0x40168801	2.352051
28	0x3f356448	0.7085614
29	0x3f853d0d	1.0409256
30	0x3e68dbb0	0.22740054
31	0x3f0e352d	0.5554989
32	0x3f464559	0.77449566
33	0x3f9d6198	1.2295408
34	0x3f5bf40b	0.85919255
35	0x400fcdf8	2.2469463
36	0x3f23d65f	0.6399898
37	0x3f7ea65b	0.9947259
38	0x3e684e10	0.22686028
39	0x3e9af09e	0.302617
40	0x3e5299a7	0.20566426
41	0x3fb763a0	1.4327278
42	0x3f18fa53	0.59756964
43	0x3e639e3c	0.2222833
44	0x3f94440b	1.1583265
45	0x3ecf0dc9	0.40440205
46	0x3eaa837a	0.33303434
47	0x3f8c9f4a	1.0986111
48	0x401f4b25	2.4889615
49	0x3ffe4225	1.9863936
50	0x4017a2a7	2.3693025
51	0x3fbb5e6a	1.4638188
52	0x40009759	2.0092375
53	0x3f0e18c5	0.55506545
54	0x3ec77138	0.38953567
55	0x3fc682b8	1.5508642
56	0x3f4133e5	0.7546981
57	0x3f6ffb0f	0.9374246
58	0x3ea80d57	0.32822677
59	0x3e9206fe	0.2852096
60	0x3ede4251	0.4340997
61	0x3f54fd78	0.8319926
62	0x3f87dfa4	1.0615125
63	0x401812d5	2.3761494

bn5.weight f4 [64]
0	0x3f88bf8a	1.0683453
1	0x3f80d46f	1.006483
2	0x3f8afa72	1.085768
3	0x3f8a8bef	1.0823954
4	0x3f900c6a	1.1253788
5	0x3f9113e3	1.1334194
6	0x3f90564d	1.1276337
7	0x3f86ae3f	1.0521926
8	0x3f8bad0b	1.0912184
9	0x3f836278	1.0264425
10	0x3f74bcbb	0.9560048
11	0x3f9461ea	1.1592381
12	0x3f810a42	1.0081255
13	0x3f86b5c8	1.0524225
14	0x3f965a4d	1.1746308
15	0x3fa7cf52	1.3110144
16	0x3f85f800	1.0466309
17	0x3f8aa9f1	1.0833112
18	0x3f98d851	1.1941015
19	0x3f9353c6	1.1509941
20	0x3f96d7c8	1.1784601
21	0x3fadefe2	1.3588831
22	0x3f9c4155	1.2207438
23	0x3f7a5525	0.9778617
24	0x3f7f9cc9	0.9984861
25	0x3f82d017	1.0219754
26	0x3f9ee085	1.2412268
27	0x3f91174a	1.1335232
28	0x3f861d38	1.0477667
29	0x3f8270db	1.0190691
30	0x3f9113ce	1.1334169
31	0x3f7fd312	0.9993144
32	0x3f875551	1.0572912
33	0x3f8ad9bf	1.0847701
34	0x3f8d859d	1.10564
35	0x3f8cdd4d	1.1005036
36	0x3f9b5074	1.2133927
37	0x3f74ae33	0.95578307
38	0x3f9c862d	1.2228447
39	0x3f65056e	0.8946141
40	0x3f7c72af	0.98612493
41	0x3fb2bcf5	1.3963915
42	0x3f88f9d6	1.0701244
43	0x3f83b683	1.0290073
44	0x3f883429	1.0640918
45	0x3f8b0efc	1.0863948
46	0x3f768247	0.9629254
47	0x3f913d57	1.1346844
48	0x3f816b14	1.0110803
49	0x3f753431	0.9578276
50	0x3f7d8713	0.9903423
51	0x3f82ed3d	1.0228649
52	0x3f843f24	1.0331769
53	0x3fc0040a	1.5001233
54	0x3f9317ed	1.1491677
55	0x3f902cf5	1.126372
56	0x3f94197a	1.1570275
57	0x3f76f7df	0.9647197
58	0x3f7eb0b7	0.99488395
59	0x3f8c3a27	1.0955247
60	0x3f8f06ff	1.117401
61	0x3f841e94	1.0321832
62	0x3f8666ac	1.0500083
63	0x3f956f1d	1.1674534

bn5.bias f4 [64]
0	0x3d87ac53	0.06624665
1	0x3ca516ce	0.020152476
2	0xbc57ed71	-0.013179169
3	0xbd4b61e8	-0.049653918
4	0xbce35f38	-0.027755365
5	0x3d892e85	0.06698326
6	0xbdaadd6b	-0.083430134
7	0x3d35fc29	0.04442993
8	0x3d466dd7	0.048444595
9	0x3c6c045a	0.014405334
10	0xbe27fd83	-0.16405301
11	0x3d9eb106	0.07748608
12	0xbd9b1b7f	-0.07573604
13	0xbda7ee8a	-0.081997946
14	0x3d18c2d3	0.037295174
15	0xbd9d7262	-0.076878324
16	0x3d679e63	0.056547534
17	0x3e00c945	0.12576778
18	0xbcda2644	-0.026629575
19	0x3e3002cc	0.17188567
20	0x3d62b090	0.055344164
21	0x3e37c151	0.17944838
22	0x3e08e04f	0.13366817
23	0xbcfde458	-0.030992672
24	0xbdeb5a5d	-0.11491845
25	0x3c30718e	0.010769261
26	0x3d3dd686	0.046347164
27	0x3d066250	0.0328086
28	0x3dbabcda	0.09118052
29	0xbe07c7e9	-0.13259853
30	0x3db0e954	0.08638254
31	0x3d398de0	0.04530132
32	0x3e7dca2b	0.24784152
33	0x3c51768e	0.012784613
34	0x3d8e5cf1	0.06951321
35	0x3db17e2c	0.086666435
36	0xbd332184	-0.043733135
37	0xbe169a23	-0.14707236
38	0x3d271419	0.04079065
39	0xbb118e4b	-0.0022210057
40	0xbe28ebcc	-0.164962
41	0x3e536ef4	0.20647794
42	0x3d74fcfb	0.059811573
43	0x3cef3619	0.0292006
44	0x3d1f68dc	0.03891836
45	0x3d656a94	0.056009844
46	0x3d1b9713	0.037985872
47	0x3cf4be09	0.029875772
48	0xbd653f12	-0.05596835
49	0x3d5166ff	0.051123615
50	0xbd99ea5a	-0.07515402
51	0xbd04871e	-0.03235542
52	0x3c2069c9	0.009790846
53	0x3d1f75b2	0.038930602
54	0xbd816dbb	-0.063197576
55	0xbd9f9f4f	-0.077940576
56	0x3ced672a	0.028979857
57	0xbdd7d6fe	-0.105390534
58	0x3ceb050f	0.028688936
59	0xbd0e9ecf	-0.03481942
60	0x3e6878d4	0.22702342
61	0xbd0a3cad	-0.03374927
62	0xbd335095	-0.04377802
63	0x3e4fdfe9	0.20300259

bn5.running_mean f4 [64]
0	0xbf84c342	-1.0372088
1	0xbf4a277d	-0.78966504
2	0xbec97f0e	-0.39354748
3	0xbf6ce47b	-0.92536134
4	0xbec03449	-0.3753989
5	0x3f3a0b82	0.7267381
6	0x3e0b9ff5	0.13635238
7	0xbf2e6c66	-0.6813415
8	0x3f806b18	1.0032682
9	0xbf0cb7d8	-0.54968023
10	0xbe935637	-0.28776714
11	0xbe8ae380	-0.27126694
12	0x3db185f9	0.086681314
13	0xbe8db548	-0.2767737
14	0x3ed886f2	0.42290455
15	0xbf19dd90	-0.601037
16	0xbecdbab4	-0.40181506
17	0xbf264ac7	-0.6495785
18	0xbddfb537	-0.10923236
19	0xbe77649a	-0.2415947
20	0x3ec7b821	0.39007667
21	0xbe3974c2	-0.18110946
22	0xbf234c53	-0.63788337
23	0xbf5afe69	-0.8554445
24	0xbb09d489	-0.0021031222
25	0xbcfda5e1	-0.030962886
26	0xbf344703	-0.70420855
27	0xbf8d49a8	-1.1038103
28	0xbf84d5db	-1.0377764
29	0x3e81d0c4	0.25354588
30	0xbf227277	-0.6345591
31	0xbf9c774e	-1.2223909
32	0xbefcdf5c	-0.4938916
33	0xbccaa3de	-0.024736341
34	0xbd70a400	-0.058750153
35	0xbd998a11	-0.07497037
36	0xbe83f05e	-0.25769323
37	0xbeaecea1	-0.3414202
38	0x3e920a4d	0.28523484
39	0xbe0ae909	-0.13565458
40	0xbf8604d5	-1.0470225
41	0x3ebb860f	0.36625716
42	0xbf038341	-0.5137215
43	0xbee6ef46	-0.45104426
44	0xbfbd38f0	-1.4783001
45	0xbed74bae	-0.42049927
46	0xbd266f4a	-0.040633477
47	0x3e532610	0.20619988
48	0xbf2444fb	-0.64167756
49	0xbf0b2c6b	-0.5436465
50	0xbf8b45e6	-1.0880706
51	0x3f48a9c9	0.7838407
52	0xbf81db99	-1.0145141
53	0x3f9225d1	1.1417791
54	0x3f45e689	0.77304894
55	0x3f23a1db	0.63918847
56	0xbe95ec3e	-0.292818
57	0x3ed82084	0.42212307
58	0xbeefed77	-0.4686086
59	0xbe9ecf08	-0.31017327
60	0xbee1c533	-0.44095764
61	0x3ee9f066	0.45691222
62	0xbcf94ad1	-0.030431183
63	0x3f344cdc	0.7042978

bn5.running_var f4 [64]
0	0x3f20c7b7	0.6280474
1	0x3ffca47d	1.9737698
2	0x3fa97f4a	1.324197
3	0x3e716d26	0.23576793
4	0x3e81985a	0.25311548
5	0x3f888bc2	1.0667651
6	0x3e07c21c	0.1325764
7	0x3f0edabb	0.55802506
8	0x3ff93c7f	1.9471587
9	0x3f6982ed	0.912154
10	0x3f9dc167	1.2324647
11	0x3e40b562	0.18819192
12	0x3ee79f97	0.45238945
13	0x3f2558d3	0.6458866
14	0x3e57c0bb	0.21069615
15	0x3e055223	0.13019614
16	0x3f56fef2	0.83982766
17	0x3f0b1049	0.54321724
18	0x3edbe2e8	0.42946553
19	0x3e9c59eb	0.30537352
20	0x3e00ca05	0.12577064
21	0x3e002fa3	0.12518172
22	0x3dcaed2f	0.099085204
23	0x40111096	2.2666373
24	0x3db10089	0.0864268
25	0x3ec37ac4	0.381796
26	0x3e2d22d3	0.16907816
27	0x3ec6d149	0.38831547
28	0x3f890225	1.070378
29	0x3f35d8b0	0.71033764
30	0x3fb383c5	1.4024588
31	0x4031fcf1	2.7810633
32	0x3f266ec1	0.6501275
33	0x3f677dff	0.9042663
34	0x3f94868b	1.1603559
35	0x3fab0a04	1.3362432
36	0x3eb71ddd	0.3576497
37	0x3fb78503	1.4337467
38	0x3fd463f5	1.6593004
39	0x3f375769	0.7161775
40	0x3f5ad4c5	0.8548091
41	0x3e48b09d	0.19598623
42	0x3fdfdd0b	1.7489332
43	0x3fab81c7	1.339898
44	0x3fea019c	1.8281741
45	0x3fc6e484	1.5538487
46	0x3fb7c02b	1.435552
47	0x3da0982f	0.07841527
48	0x3f1a0cbf	0.601757
49	0x3ff2f50a	1.898103
50	0x400e000a	2.2187524
51	0x3fb297ff	1.3952636
52	0x3f0dba5f	0.55362505
53	0x3df76a9c	0.12080881
54	0x3f3bdb59	0.7338157
55	0x40275697	2.61466
56	0x3f0329d6	0.5123571
57	0x3fd83548	1.689126
58	0x40215758	2.520956
59	0x3fe7fa09	1.812318
60	0x3fbb5666	1.4635742
61	0x4013e4a9	2.3108313
62	0x3fa5265d	1.2902333
63	0x3fb4f492	1.4137137

bn6.weight f4 [512]
0	0x3f67d941	0.9056588
1	0x3f5a2751	0.8521624
2	0x3f4178bd	0.75574857
3	0x3f73ba96	0.9520658
4	0x3f6f423b	0.93460435
5	0x3f5a8b39	0.85368687
6	0x3f5d9b96	0.8656553
7	0x3f541b31	0.8285399
8	0x3f4e4dfd	0.8058775
9	0x3f54a558	0.83064795
10	0x3f870fba	1.0551674
11	0x3f758ad9	0.9591499
12	0x3f63bd57	0.88960785
13	0x3f6d04ad	0.9258526
14	0x3f66b2ea	0.9011675
15	0x3f5629e6	0.8365768
16	0x3f5c5dab	0.86080426
17	0x3f5473ef	0.829894
18	0x3f6c4cc8	0.9230466
19	0x3f53f3e3	0.82794017
20	0x3f565209	0.83718926
21	0x3f492e34	0.78586125
22	0x3f65c9fd	0.89761335
23	0x3f72f6fc	0.9490812
24	0x3f6304cb	0.8867919
25	0x3f5aa12a	0.85402167
26	0x3f80ccbf	1.0062484
27	0x3f71b557	0.9441733
28	0x3f7c22ad	0.9849041
29	0x3f5bda39	0.85879856
30	0x3f4e98f2	0.80702126
31	0x3f78ed4d	0.9723709
32	0x3f56d712	0.8392192
33	0x3f727c63	0.9472105
34	0x3f4d4785	0.80187255
35	0x3f66c72c	0.9014766
36	0x3f6913c7	0.910458
37	0x3f6d36d0	0.9266176
38	0x3f516996	0.81801736
39	0x3f6c3748	0.9227185
40	0x3f5766ed	0.8414143
41	0x3f6b7062	0.9196836
42	0x3f5ba935	0.85805064
43	0x3f58ae8a	0.84641325
44	0x3f56cdd6	0.8390783
45	0x3f851f68	1.040021
46	0x3f60e70f	0.8785257
47	0x3f67a6ce	0.904889
48	0x3f61ceef	0.8820638
49	0x3f74f497	0.95685714
50	0x3f659be7	0.89691013
51	0x3f66efb3	0.902095
52	0x3f4ad0a3	0.79224604
53	0x3f61e3f8	0.8823848
54	0x3f620012	0.8828136
55	0x3f690cba	0.91035044
56	0x3f5d354d	0.86409456
57	0x3f6ec8d9	0.9327522
58	0x3f6de5a0	0.92928505
59	0x3f76548c	0.9622276
60	0x3f7aad6a	0.9792086
61	0x3f761d51	0.96138483
62	0x3f5e6dd3	0.8688633
63	0x3f7530ef	0.9577779
64	0x3f4f2951	0.8092242
65	0x3f4fabf0	0.8112173
66	0x3f74feec	0.9570148
67	0x3f640f3e	0.8908576
68	0x3f789b43	0.9711191
69	0x3f4efc81	0.8085404
70	0x3f69fcba	0.91401255
71	0x3f7641e7	0.9619431
72	0x3f55ff39	0.83592564
73	0x3f67e9d5	0.90591174
74	0x3f6d4b62	0.9269315
75	0x3f5feef8	0.8747401
76	0x3f66707f	0.90015405
77	0x3f58bb78	0.84661055
78	0x3f5bbf1d	0.8583849
79	0x3f77d086	0.96802557
80	0x3f7a8dd2	0.9787265
81	0x3f63a012	0.8891612
82	0x3f4f79b7	0.810451
83	0x3f5f7ac3	0.87296695
84	0x3f5354fc	0.8255155
85	0x3f5a92e6	0.853804
86	0x3f7c21c7	0.9848904
87	0x3f846cc9	1.0345699
88	0x3f778cff	0.9669952
89	0x3f702ae1	0.9381543
90	0x3f4a6c03	0.7907106
91	0x3f6cfd61	0.92574126
92	0x3f701e42	0.9379617
93	0x3f78b9f0	0.9715872
94	0x3f57941c	0.8421037
95	0x3f6eb0e2	0.9323865
96	0x3f55364c	0.83285975
97	0x3f57433f	0.84086984
98	0x3f6a2829	0.9146753
99	0x3f4d6866	0.80237424
100	0x3f656890	0.89612675
101	0x3f67feb9	0.9062305
102	0x3f6899b0	0.9085951
103	0x3f602926	0.8756279
104	0x3f838556	1.0275066
105	0x3f753b1a	0.95793307
106	0x3f6d001b	0.92578286
107	0x3f6257a6	0.8841499
108	0x3f82c6ae	1.0216882
109	0x3f7e766f	0.99399465
110	0x3f6bf3ea	0.9216906
111	0x3f7a7c6e	0.97846115
112	0x3f4b6a7c	0.7945936
113	0x3f4987d2	0.7872287
114	0x3f790a60	0.97281456
115	0x3f631ecf	0.88718885
116	0x3f6edcba	0.9330555
117	0x3f722e3d	0.94601804
118	0x3f58ba2e	0.8465909
119	0x3f628183	0.8847887
120	0x3f5c9173	0.8615944
121	0x3f5344ef	0.8252706
122	0x3f5c879c	0.86144423
123	0x3f427b5f	0.759695
124	0x3f51ef06	0.82005346
125	0x3f50aabc	0.8151052
126	0x3f80ee79	1.0072776
127	0x3f6be793	0.9215023
128	0x3f73afb7	0.95189995
129	0x3f428e02	0.75997937
130	0x3f71eec9	0.9450498
131	0x3f721533	0.945636
132	0x3f79b148	0.97536135
133	0x3f77d317	0.9680647
134	0x3f598c8e	0.84980094
135	0x3f6d59fd	0.92715436
136	0x3f7b3c6f	0.9813909
137	0x3f424a17	0.758943
138	0x3f57e945	0.84340316
139	0x3f753b24	0.95793366
140	0x3f666441	0.89996725
141	0x3f5154b5	0.8176988
142	0x3f5fdfce	0.87450874
143	0x3f5a84f8	0.85359144
144	0x3f67302d	0.90307885
145	0x3f68ef91	0.9099055
146	0x3f501855	0.8128713
147	0x3f754d78	0.9582133
148	0x3f758942	0.95912564
149	0x3f54437d	0.8291548
150	0x3f5baad6	0.8580755
151	0x3f7d39e1	0.9891644
152	0x3f6d0910	0.92591953
153	0x3f650b50	0.89470387
154	0x3f60dfa7	0.87841266
155	0x3f59dc91	0.8510218
156	0x3f75bf5c	0.95995116
157	0x3f6c926e	0.92410934
158	0x3f6d86b0	0.9278364
159	0x3f47a059	0.77979046
160	0x3f63b951	0.88954645
161	0x3f7177cb	0.94323415
162	0x3f62f4a6	0.88654554
163	0x3f489a1e	0.78360164
164	0x3f682546	0.90681875
165	0x3f70f6c1	0.94126517
166	0x3f6eb9a9	0.93252045
167	0x3f6e4d07	0.93086284
168	0x3f6942e6	0.91117704
169	0x3f3ab3c6	0.7293056
170	0x3f726b94	0.946954
171	0x3f6f0c57	0.93378204
172	0x3f6afb50	0.9178972
173	0x3f5cdd44	0.86275125
174	0x3f6d6e0e	0.92746055
175	0x3f5b862d	0.8575161
176	0x3f6258a1	0.88416487
177	0x3f64944c	0.89288783
178	0x3f66deb0	0.90183544
179	0x3f674c7e	0.9035109
180	0x3f85554f	1.0416659
181	0x3f83c301	1.0293885
182	0x3f775e56	0.9662832
183	0x3f741af1	0.9535361
184	0x3f8521d3	1.0400947
185	0x3f77cc23	0.9679586
186	0x3f5fe6aa	0.8746134
187	0x3f6484cc	0.8926513
188	0x3f63090b	0.88685673
189	0x3f75ad27	0.95967335
190	0x3f6a4acb	0.91520375
191	0x3f69ec0a	0.9137579
192	0x3f64fbfc	0.89447
193	0x3f64b9a6	0.8934578
194	0x3f4fa123	0.8110525
195	0x3f6a39d4	0.9149449
196	0x3f5b2b15	0.8561261
197	0x3f6491c3	0.89284915
198	0x3f710417	0.94146866
199	0x3f6408ce	0.89075935
200	0x3f637614	0.8885205
201	0x3f6a37a8	0.91491175
202	0x3f65aec7	0.89719814
203	0x3f66c27a	0.901405
204	0x3f7beb3c	0.98405814
205	0x3f874f4a	1.0571072
206	0x3f786eb3	0.97043914
207	0x3f5b23f3	0.8560173
208	0x3f5e1ce6	0.86762846
209	0x3f602bc7	0.875668
210	0x3f505213	0.81375235
211	0x3f58d48c	0.8469932
212	0x3f6c8859	0.9239555
213	0x3f69abbd	0.91277677
214	0x3f6e55ed	0.9309986
215	0x3f5fd2c2	0.87430966
216	0x3f7d0d9c	0.9884889
217	0x3f624612	0.8838817
218	0x3f62012b	0.8828303
219	0x3f609a8d	0.87735826
220	0x3f7ae7c1	0.9800988
221	0x3f6d198e	0.9261712
222	0x3f73bb05	0.95207244
223	0x3f5b36d3	0.8563053
224	0x3f599212	0.8498851
225	0x3f6af7f3	0.9178459
226	0x3f6cc918	0.92494345
227	0x3f58b355	0.8464864
228	0x3f5b08fc	0.85560584
229	0x3f61a756	0.8814596
230	0x3f5c5a2a	0.8607508
231	0x3f67ccfd	0.9054716
232	0x3f64a3c1	0.8931237
233	0x3f5a4818	0.85266256
234	0x3f4fcbd7	0.8117041
235	0x3f6a8c1a	0.9162003
236	0x3f5dc32c	0.86625934
237	0x3f8303ed	1.0235573
238	0x3f76a3b3	0.96343535
239	0x3f55fa71	0.8358527
240	0x3f6475c8	0.8924222
241	0x3f6de17c	0.92922187
242	0x3f526c43	0.82196444
243	0x3f72cfda	0.94848406
244	0x3f5d5a32	0.8646575
245	0x3f7f7fb0	0.9980421
246	0x3f633edd	0.88767797
247	0x3f6305a3	0.88680476
248	0x3f6631ea	0.8991991
249	0x3f83bfe0	1.0292931
250	0x3f77c1b1	0.96779925
251	0x3f5e396d	0.86806375
252	0x3f5d4826	0.86438215
253	0x3f521b3c	0.82072806
254	0x3f6d0280	0.9258194
255	0x3f4e313d	0.8054388

bn6.bias f4 [512]
0	0xbb845ad8	-0.0040391497
1	0x3b0deeaf	0.002165716
2	0xbc376641	-0.011193813
3	0x3a284906	0.0006419573
4	0xba8ca8ad	-0.0010731422
5	0x3986c343	0.00025703953
6	0xbb3e88cf	-0.0029073243
7	0x3ba1eb92	0.0049414122
8	0xba3f8fac	-0.00073074806
9	0x3bd43656	0.006476204
10	0x3b921d84	0.004459085
11	0x3b554072	0.0032539633
12	0xbb5b100c	-0.0033426313
13	0x3bcb9df8	0.0062138997
14	0x3a64bd29	0.0008725697
15	0x3be6e46c	0.007046273
16	0x3b3ccedd	0.0028809824
17	0xba6de339	-0.00090746913
18	0xba52b9d1	-0.0008038553
19	0xbb06698f	-0.0020509695
20	0xbc17dc2b	-0.009268801
21	0x39d84d51	0.00041256336
22	0xbad8dc59	-0.0016545161
23	0x37d5c41d	2.5482901e-05
24	0xbb52476d	-0.003208603
25	0x3c0a7e25	0.008452927
26	0x39a390a2	0.00031197543
27	0x3be0d2e2	0.0068610767
28	0xbba7e102	-0.0051232586
29	0xbb0eb162	-0.002177321
30	0xb8d8b64b	-0.00010333637
31	0x3996b49f	0.00028744803
32	0xbb4e70e6	-0.0031500398
33	0x3b76ec0a	0.0037677311
34	0xbbe6c44a	-0.0070424424
35	0xbb4ce16e	-0.0031262296
36	0xbacb9b83	-0.0015534017
37	0x3b4a6814	0.003088479
38	0xb99c554a	-0.00029818184
39	0x3bd529e0	0.006505236
40	0x3a85b3c4	0.0010200669
41	0x3ad86991	0.0016510953
42	0xbac75561	-0.001520794
43	0xbbc5f0b5	-0.0060406574
44	0xbc579a2c	-0.013159316
45	0xbb3499c8	-0.002755748
46	0x3bbbc6af	0.005730472
47	0xbc17e738	-0.009271435
48	0x3c18ed9e	0.009333996
49	0x3b276be5	0.0025546488
50	0xbb572b9a	-0.0032832385
51	0x3b99ae58	0.004689973
52	0x398043d2	0.00024464593
53	0xbba8dd20	-0.0051533133
54	0xbb4dc209	-0.0031396172
55	0x3b2ea0c4	0.0026646117
56	0xbb507bf3	-0.003181216
57	0x3b06ee44	0.0020588795
58	0x39f40cd8	0.00046548876
59	0xbaf6b49f	-0.001882214
60	0xbbab5368	-0.0052284487
61	0x3bad995d	0.0052978233
62	0x3bbd17df	0.005770668
63	0xb95a7779	-0.00020834607
64	0xbbec7c68	-0.007216979
65	0xbb15da4e	-0.0022865715
66	0xbb991e2e	-0.004672787
67	0xbb38bd35	-0.0028188948
68	0xbbbe1821	-0.0058012162
69	0xbb8ea077	-0.004352625
70	0xbb71e056	-0.0036907396
71	0xbbb03687	-0.005377594
72	0xbc1d675d	-0.009607163
73	0xba311281	-0.00067547715
74	0xbb867c95	-0.004104207
75	0x3a9870c7	0.001163029
76	0x3b4edb07	0.0031563656
77	0x39089048	0.0001302372
78	0xbb38d4dc	-0.0028203046
79	0xba82a949	-0.0009968664
80	0x3af02d9f	0.0018324143
81	0x3bbcbb46	0.0057596294
82	0x3b0ec46c	0.0021784557
83	0xba3ef678	-0.00072846515
84	0xbc1fdd64	-0.0097573735
85	0xb8b2bc5c	-8.522786e-05
86	0x39ab92d3	0.00032725054
87	0x3c159a00	0.009130955
88	0x3b5300b3	0.0032196462
89	0xbb073c8d	-0.0020635456
90	0x3b500760	0.0031742677
91	0xbbf5403b	-0.0074844635
92	0xbb09a8d8	-0.002100518
93	0x3b35df0d	0.0027751357
94	0x3c19ea1c	0.009394195
95	0x3bd4c5a4	0.006493287
96	0x3c13963b	0.009007986
97	0xb9912717	-0.0002768568
98	0x3ac3c7cc	0.0014936863
99	0x3ba1d0d1	0.004938223
100	0x3adeb98a	0.0016992551
101	0xbaf9f6b7	-0.0019070719
102	0xbbf6833f	-0.00752297
103	0x3b87249f	0.0041242386
104	0x3be902f5	0.007110948
105	0xbb8f1abc	-0.0043672007
106	0xbb65aa83	-0.003504426
107	0x3b7782ec	0.0037767245
108	0xba575510	-0.00082142744
109	0x3bb686bc	0.005570261
110	0xbb828b2c	-0.0039838757
111	0xbb26ac62	-0.0025432338
112	0x3b84d7a5	0.004054027
113	0x3b879f1e	0.0041388413
114	0x3a85bef1	0.0010204
115	0x3bcb5916	0.006205688
116	0x3bc3b70e	0.0059727496
117	0x3c10b2ea	0.008831719
118	0x3b077048	0.002066629
119	0xbb8c4efd	-0.004281877
120	0xbaf41d67	-0.0018624485
121	0x3b8f7cc2	0.004378886
122	0x3bd83395	0.006597946
123	0xbc05917a	-0.00815236
124	0xbb5f5632	-0.0034078476
125	0x3a4e04b4	0.0007858977
126	0x3b9529e6	0.004552114
127	0xbbcd4bfe	-0.0062651625
128	0xbbe761f1	-0.007061236
129	0xbbae9ef4	-0.0053290073
130	0xb9967eaf	-0.00028704616
131	0xbb341660	-0.0027479157
132	0xbb71928c	-0.003686103
133	0xbb18d3ca	-0.0023319595
134	0xbb52fb96	-0.0032193414
135	0xbc110446	-0.0088511165
136	0xbb666bec	-0.0035159541
137	0xbaf48b44	-0.0018657227
138	0xbc155dd9	-0.009116613
139	0xbad54813	-0.001627209
140	0x3b593be0	0.003314726
141	0xbb05551b	-0.0020344916
142	0xbb8a2673	-0.0042160093
143	0xbb879780	-0.0041379333
144	0x3b93c4d0	0.004509546
145	0xbac83dc3	-0.0015277195
146	0x3c028d9e	0.0079683345
147	0xbb88687c	-0.004162846
148	0xbbab6766	-0.005230832
149	0xba9e3d50	-0.0012072716
150	0xbbc2b910	-0.0059424713
151	0xba1f1e7a	-0.000606991
152	0xbbc69729	-0.0060605
153	0xbbb1afd5	-0.005422572
154	0x3b5fafcf	0.003413189
155	0xbb16efdc	-0.002303115
156	0x3bc96459	0.0061459956
157	0x3ba4d0de	0.0050297817
158	0xbb83a10b	-0.0040170006
159	0xbbf53899	-0.0074835536
160	0x3b0b9dae	0.0021303701
161	0x3b1ee42c	0.0024244888
162	0x3a4f4ad7	0.00079075753
163	0xbbbd0c03	-0.005769254
164	0xbba6d714	-0.0050915573
165	0x3b81ab62	0.003957198
166	0x3b123b30	0.002231311
167	0x3bf8c37a	0.007591662
168	0xbb156198	-0.0022793766
169	0x3c0a56e9	0.008443573
170	0xbbd030c4	-0.0063534696
171	0xbbd64255	-0.006538669
172	0xbbae2f4c	-0.005315697
173	0x3ba55437	0.0050454396
174	0xbc00515b	-0.007831897
175	0x3a70495d	0.00091662054
176	0xbbd57383	-0.006514014
177	0x3a99f55a	0.0011746094
178	0xbb9e1bca	-0.00482509
179	0xbb5cecc2	-0.0033710455
180	0x3acad72e	0.0015475505
181	0x3b77267f	0.0037712154
182	0x3c32bce9	0.0109092975
183	0xba240b95	-0.00062578294
184	0x389d419c	7.498564e-05
185	0xbb2086cf	-0.0024494415
186	0x3b4de3c2	0.0031416272
187	0x3b7436ac	0.0037264032
188	0x3bfeac26	0.0077719865
189	0x3ab0ca44	0.0013488014
190	0xbbd4ad43	-0.006490381
191	0xbbfc1df6	-0.0076940013
192	0xbb039c7f	-0.0020082293
193	0xbbe0a637	-0.006855752
194	0xbb999c64	-0.0046878327
195	0x3ba586e9	0.005051483
196	0x3b5b8345	0.003349499
197	0xbae0ca52	-0.001715014
198	0xba11faf2	-0.0005568705
199	0x3b455b51	0.0030114243
200	0x3c1c834d	0.009552789
201	0x3b19e1a6	0.0023480444
202	0x3aa5e510	0.0012656767
203	0xba0c7c03	-0.00053590554
204	0x3c0b8e17	0.008517764
205	0xbbacf7ea	-0.005278577
206	0x3bf46aa8	0.0074590035
207	0xbb716ae8	-0.0036837403
208	0xb9b6be1c	-0.00034855388
209	0x3ac16698	0.0014755307
210	0xbb5f5131	-0.0034075493
211	0x3afc0c57	0.0019229752
212	0x3bafca37	0.005364682
213	0x3b89e305	0.004207971
214	0xbae910be	-0.0017781479
215	0xba18072a	-0.00057994074
216	0x3a3227eb	0.00067961094
217	0x3ba55746	0.005045804
218	0xbb4b3e97	-0.0031012648
219	0x3abe3909	0.0014512847
220	0x3c06c2d4	0.008225162
221	0x3b1d5585	0.0024007272
222	0x3b7291d5	0.0037013192
223	0x3b4f1524	0.0031598294
224	0x3b9c4e99	0.0047701118
225	0x3b76281e	0.0037560533
226	0x3ba7a650	0.0051162615
227	0x3c1c52af	0.009541198
228	0xbbda0751	-0.006653704
229	0x3be61b13	0.0070222705
230	0x3b7006c2	0.0036625122
231	0xba26b254	-0.00063589704
232	0xbacc339e	-0.0015579348
233	0x3afad56f	0.0019137094
234	0xbb808dba	-0.003923145
235	0x3b1005f3	0.0021976202
236	0x3b0fc049	0.002193468
237	0xbad08904	-0.0015909974
238	0xbaba1025	-0.0014195485
239	0xba09d768	-0.0005258233
240	0x3aa7aef8	0.0012793234
241	0x3c05121a	0.0081219915
242	0x3c06c37a	0.008225316
243	0x3b8caaf7	0.0042928415
244	0xbc0288c6	-0.00796718
245	0xbb875559	-0.0041300473
246	0xbb59d726	-0.003323981
247	0xbb1513c2	-0.0022747372
248	0x3ba02b99	0.0048880097
249	0xbb97d0d0	-0.0046330467
250	0x3b027bba	0.0019910173
251	0xbbb99866	-0.0056639193
252	0xbbd7cc9f	-0.006585672
253	0x3b94ca85	0.004540744
254	0x3b034556	0.002003034
255	0x3b09dcb8	0.00210361
