models/FAUST_5k/best_desc.pth (torch, 932242 bytes, 73 tensors)

bn1.weight f4 [64]
00000000: d21c 663f b276 823f eeda 863f ac22 673f
00000010: 06aa 7f3f 0616 6b3f 8280 8c3f 0504 703f
00000020: c12d 833f 1808 723f fddc 763f 6065 753f
00000030: 955b 813f 86c7 8e3f 5586 6f3f abab 9d3f
00000040: 1210 4c3f c371 843f f705 6b3f c843 713f
00000050: 5f71 6c3f a797 753f 503c 963f d41a 6c3f
00000060: 6209 723f b7fe 763f bf1a 753f 3cc8 7c3f
00000070: de83 803f 37e2 8f3f 35b0 8a3f fead 653f
00000080: c62b 7d3f 2dd6 753f 44d5 643f 76a2 883f
00000090: e53f 833f 109b 723f c631 8a3f fabb 6e3f
000000a0: 963c 8a3f bbc3 5b3f 0411 933f ea76 813f
000000b0: d0ba 703f 064d 783f fc0b 753f 8a76 613f
000000c0: 26aa 7c3f 66fe 713f 017a 653f 45bd 6e3f
000000d0: 83c7 873f 7308 783f a7f9 543f 7e04 7c3f
000000e0: 41f9 8d3f 73b9 7f3f 7288 883f 9283 743f
000000f0: b17a 713f d879 923f 3c4b 743f 6ed7 7c3f
0.89887726 1.0192473 1.0535562 0.9028728 0.9986881 0.9183048 1.0976717 0.93756133
1.0248338 0.945436 0.9643095 0.9585781 1.0106074 1.115464 0.9356435 1.2318014
0.7971202 1.0347217 0.91805977 0.9424405 0.9236049 0.9593453 1.1737156 0.92228436
0.9454557 0.96482414 0.95743936 0.98743033 1.0040243 1.124091 1.0835024 0.89718616
0.9889492 0.9602993 0.8938792 1.0674579 1.0253874 0.94767857 1.079644 0.9325558
1.0799739 0.85845536 1.1489568 1.0114415 0.94035053 0.9699253 0.9572141 0.880715
0.98697126 0.94528806 0.8963929 0.9325755 1.0607761 0.9688789 0.8319344 0.98444355
1.1091691 0.9989235 1.066664 0.9551326 0.9432784 1.1443434 0.954273 0.9876622

bn1.bias f4 [64]
00000000: 2625 abbb 6edf 3ebd 37c5 30bd 0919 1cbe
00000010: fc6a edbc 253b cdbd e53c b43d bf8d 25be
00000020: 3cdd 4dbe fa4f 983d 5712 353d 7463 5ebd
00000030: 209c c7bd 1195 c0bd 8718 483a 1da7 3b3e
00000040: ac9e e9bd c3cc 59bd 51bf c6bd 34d9 25bd
00000050: 9596 eabd 87fd 95bd 9287 873e 8e69 20be
00000060: b892 18bd 138e d8bd ef95 3d3c 6adc 263d
00000070: 8658 5abd 1378 0d3e 7895 babc 66d0 80bd
00000080: b896 02be 324b ceba e394 0bbe 2ee5 b43b
00000090: 7f55 9ebd d8a6 edbd 3b07 f3bc 803c 383d
000000a0: 9932 1e3d 8a69 a6bb 4463 01bd 6904 0dbd
000000b0: 382c 90bd 74cd b4bc 30af c1bd 2f54 8c3c
000000c0: cfae 48be 899c e13c 8893 383c 5f5c 173e
000000d0: b53b 5cbe 26e9 89bd 3b99 1cbe edc7 8ebe
000000e0: 9100 513e 9395 78bd 6263 0e3d 8a8e 0dbe
000000f0: dfcf cdbd 9910 34bd 8908 b7bd ada4 56be
-0.0052229343 -0.046599798 -0.04315683 -0.15243925 -0.028981678 -0.100210465 0.08800677 -0.16167353
-0.20103925 0.07437129 0.044206943 -0.054294065 -0.09746575 -0.09403432 0.00076330494 0.18325467
-0.114072174 -0.05317379 -0.097044595 -0.040490344 -0.114545025 -0.07323747 0.2647062 -0.15665266
-0.037249297 -0.105739735 0.0115713915 0.040737547 -0.05330708 0.13815336 -0.02277635 -0.06289749
-0.12752807 -0.0015738963 -0.13631015 0.0055204844 -0.07731151 -0.116040885 -0.029666534 0.044979572
0.038622472 -0.005078499 -0.031588808 -0.034428034 -0.07039684 -0.022070624 -0.094572425 0.017129986
-0.19597934 0.027540462 0.011265643 0.1478133 -0.21507151 -0.06733923 -0.15292828 -0.27886906
0.20410372 -0.06068952 0.034762748 -0.13823906 -0.10049414 -0.04396114 -0.08937175 -0.20961256

bn1.running_mean f4 [64]
00000000: c7dd 0e3a be22 8838 6ac7 05b9 01df 25b9
00000010: 4f0e a438 cacd 00b7 112b 9a38 b678 b838
00000020: 7314 ac39 95e6 8fb9 4073 7c39 e116 9639
00000030: b92d c039 f720 cb39 9fcc 29ba 16af feb9
00000040: 6e7a 86b9 282e 673a 19df 79b9 4b3b 9b39
00000050: f89c 53ba f24d e0b9 0eb8 8839 8185 163a
00000060: 6e98 81b9 3e3b b8b8 9047 d6b9 644a c8b8
00000070: 853a 9d39 4518 1e39 f1e7 8b36 e523 2bb7
00000080: 5240 463a 2818 bbb9 ffc4 adb9 c7d1 26ba
00000090: 8dbd 5838 d1e4 133a 88e1 5fb9 b652 5eb9
000000a0: e517 33b9 3346 16b9 637f 2c3a 94e7 333a
000000b0: cace bd39 f5f4 84b9 d42e 4c39 da19 68b5
000000c0: bd3f 47ba dda2 473a 232a de39 3eec 353a
000000d0: 3517 0f3a 969f 86b9 aab3 7039 ada3 1fb9
000000e0: bf38 8639 527c 4139 e4a9 2538 453b dcb9
000000f0: b0cf 8ab9 7790 13ba 1f7e 16ba ffee ecb9
0.00054499175 6.4914566e-05 -0.00012758156 -0.00015818702 7.8227946e-05 -7.6773085e-06 7.351314e-05 8.796288e-05
0.00032821632 -0.00027446882 0.00024075527 0.00028627276 0.0003665516 0.00038743738 -0.00064773293 -0.00048577104
-0.0002564969 0.00088188285 -0.00023829601 0.0002960808 -0.00080724014 -0.00042782683 0.00026077073 0.00057419395
-0.00024718366 -8.7848384e-05 -0.0004087058 -9.5505995e-05 0.00029988974 0.00015077095 4.1695243e-06 -1.0200752e-05
0.0007562685 -0.00035685417 -0.00033143905 -0.0006363657 5.1674946e-05 0.0005641701 -0.00021350954 -0.00021202382
-0.00017079672 -0.00014331266 0.00065802614 0.0006862816 0.0003620296 -0.0002535951 0.00019472401 -8.6464354e-07
-0.00076007453 0.0007615516 0.00042374534 0.0006939805 0.0005458475 -0.00025677372 0.00022955114 -0.00015224396
0.0002560075 0.00018452227 3.949729e-05 -0.0004200583 -0.0002647615 -0.0005629132 -0.00057408394 -0.00045191494

bn1.running_var f4 [64]
00000000: 8a30 893c 8492 0d3c 79f6 143c df3c 1a3d
00000010: 1786 8b3b fb37 013d 8260 743b f7c5 463c
00000020: 0b41 b63b f61b 163c 2833 773b f064 353c
00000030: 9d3e 773c 2651 b53b f081 533c 44f4 903a
00000040: 267c e93b d3e8 653b 7971 a03c a0fc d43b
00000050: 8b50 e73c ac7b 173c 3184 153b 2ce0 673c
00000060: 1283 183c 05fc a23c 0de9 3e3c 92b7 ac3c
00000070: f016 183c bf60 8b3a 9196 243c 8995 783c
00000080: 74a4 643c 864d 8b3b d0cb f43c 7ca6 c13a
00000090: 7c71 a83b 2951 3e3c e5ab 443b d4b5 623c
000000a0: db63 453b 8430 bc3c a03e 123b a21e 5b3a
000000b0: 2ac3 343c 96e0 fd3b a72d 623c 1cea 393c
000000c0: be4a 8f3b 6f72 023c 9464 d63a 7ca2 303c
000000d0: e631 a03b 2fd4 7f3c 7bf8 7c3c 0a25 6a3b
000000e0: 848b 893a 6ba3 af3b 1e9b 823a fb48 9c3b
000000f0: a792 bf3c ea2a cd3a 4f7e 9c3c 3156 043c
0.016746778 0.008640889 0.009091967 0.037655707 0.004257928 0.031547528 0.0037288968 0.012132159
0.005561953 0.00916194 0.00377197 0.011071429 0.015090612 0.0055333553 0.0129093975 0.0011059125
0.0071253954 0.00350814 0.019585358 0.006499842 0.028236648 0.009245794 0.0022814388 0.014152568
0.009308593 0.019895563 0.011652243 0.021083627 0.0092828125 0.0010633691 0.010045663 0.015172371
0.013955224 0.004251185 0.029882342 0.0014774348 0.0051404815 0.01161603 0.0030009684 0.0138372965
0.0030119333 0.022972353 0.002231516 0.00083587517 0.011032859 0.00774772 0.01380483 0.01134732
0.0043729236 0.007961853 0.0016356879 0.010780927 0.004888761 0.015614553 0.015440102 0.0035727643
0.0010493849 0.005360057 0.0009964441 0.004769442 0.023385359 0.0015653048 0.019103197 0.00807719

bn2.weight f4 [64]
00000000: ca88 5b3f 87c4 583f 335c 6b3f dc7b 783f
00000010: 155a 833f 7826 5a3f 38c5 603f 2606 613f
00000020: eed9 7d3f e443 7a3f b64c 853f 7ba2 813f
00000030: d625 8a3f 7224 763f 6304 8a3f 4477 663f
00000040: 751d 713f 589e 633f 2057 813f 9caa 723f
00000050: 14a1 8e3f ec32 7a3f 14e4 923f d51f 6e3f
00000060: 54ad 823f ffaa 6b3f b79a 6d3f fb5e 5b3f
00000070: 6558 553f dc2d 6d3f 23d2 8e3f 4f2b 843f
00000080: b86c 883f fc6c 783f af71 553f 3732 583f
00000090: 1a38 823f 4cdb 663f 2023 6d3f 2592 613f
000000a0: 9678 6f3f e286 793f d8c8 663f e876 893f
000000b0: 9c50 8f3f 4efb 713f 4b5a 773f 5765 7c3f
000000c0: 2bdd 6c3f 125e 603f 89f4 853f 5e54 713f
000000d0: 0c2a 8f3f 51d4 703f 8a10 803f a9e1 673f
000000e0: 8e75 893f 63b7 6d3f e84b 643f 2985 8a3f
000000f0: 93b3 7b3f fbd8 873f a230 733f 71bf 733f
0.857556 0.84674877 0.9193756 0.97063994 1.0261866 0.8521495 0.8780093 0.87900007
0.9916066 0.9775984 1.0414035 1.012771 1.0792797 0.9614936 1.0782589 0.90025735
0.9418557 0.8891349 1.0104713 0.9479158 1.1142907 0.9773395 1.1475854 0.9301732
1.0209146 0.92057794 0.928142 0.85691804 0.83338004 0.926481 1.1157879 1.0325717
1.0658178 0.97041297 0.8337659 0.8445162 1.0173371 0.9017837 0.9263172 0.88113624
0.93543375 0.9747144 0.90150213 1.0739412 1.1196475 0.94524086 0.9662215 0.9859213
0.92524976 0.8764354 1.0465251 0.9426936 1.1184707 0.9407397 1.0005047 0.90578705
1.0739 0.9285795 0.89178324 1.0821887 0.98320884 1.0613092 0.9499608 0.9521399

bn2.bias f4 [64]
00000000: 3023 b2bd 17b2 f33d 317f 33bd 2b42 113e
00000010: 589e 0e3e ea30 2e3d 36f5 4ebe 9316 1fbe
00000020: adb3 83bd a007 bfbd 91cd 5d3d 0b0f 2cbe
00000030: 800c d3bd d913 87be 0ce5 8dbe c5b4 b0bd
00000040: c225 a83c 76ce cdbd 0a67 3fbd 346c 0dbe
00000050: a8cd 8c3d 9333 c3bd 1d5e 8e3c c5f7 e0bd
00000060: 6d4d c5bc c465 f3bd 8ed2 c2bc 204b 4e3d
00000070: b035 16be 72e8 9f3c d784 d4bd 4157 97bc
00000080: fdbf e1bd 73e2 a5be 3004 593d 7933 2fbe
00000090: c4bd 87bd 80f0 aebd 6837 0bbe fa04 55be
000000a0: bdf3 04be 0bc0 a7bd 6832 f1bd ddc7 fbba
000000b0: 778a 973e c7d7 833d 6fda 1cbd 52af 30bc
000000c0: 9a98 54be 2c55 8cbc 0bc0 1abd a79c a3bd
000000d0: 5146 56be 5a22 e93b cdab 303d 7248 d6bd
000000e0: f5fb ab3d 7954 3abd 44c7 a6bd 5ff3 a93d
000000f0: a8ad 06be 8730 0dbd 2673 8dbd f940 c9bd
-0.08698118 0.11899202 -0.04382247 0.14185397 0.13927591 0.042527117 -0.20210728 -0.15535955
-0.06430755 -0.09327626 0.05415112 -0.16802613 -0.103051186 -0.2638233 -0.2771381 -0.08628229
0.020525817 -0.10049145 -0.046729125 -0.13810807 0.06875163 -0.095313214 0.017378861 -0.10984758
-0.024084771 -0.11884645 -0.02378204 0.050364614 -0.14668918 0.019520018 -0.103769 -0.018474223
-0.11022947 -0.3239933 0.05298251 -0.17109479 -0.06627992 -0.085419655 -0.13595355 -0.2080268
-0.12983604 -0.08190926 -0.11777192 -0.0019209344 0.29597828 0.06437641 -0.038294252 -0.010783987
-0.20761338 -0.017130457 -0.037780803 -0.079888634 -0.20925261 0.0071146907 0.043132592 -0.104630366
0.08397666 -0.045490716 -0.08143476 0.082983725 -0.13152182 -0.034470107 -0.069067284 -0.09826846

bn2.running_mean f4 [64]
00000000: 7ce0 9d3e 5f36 b6be 2872 05bf f939 5abe
00000010: c35c 93be ec57 693e 5163 4cbf 668b 13bd
00000020: 7504 35bf aeb4 05bf 0633 d0be c5e1 1cbf
00000030: a6c3 cfbe 2962 e9be ea55 9e3f 22f5 893e
00000040: 9ff8 103f bf2b 9a3d cc02 b4be ea5c 23bf
00000050: b502 8ebf ec7a 10bf 97b3 2b3f c82b 57bf
00000060: faca 9a3e 5f59 9cbe 57fb 92bf 00ab de3e
00000070: f9a8 0ebe 2e41 9e3e f3d3 43bf 68d6 96be
00000080: 2952 c63c df43 b4be 8938 41bf 885b b3be
00000090: 2155 743f e909 613e 87bc 19bf 962c e0bd
000000a0: 5be3 86be 54b9 a8be 03c1 3fbf 1452 5dbc
000000b0: b012 99bd e9bf 9ebe a7ea 90be 891f 16bf
000000c0: df87 a13e bbbe 1cbf 18a2 193f b18e 403f
000000d0: ed7f 30be af03 673f 2660 50be 1762 c7be
000000e0: 7a7b 4fbe 79cd 9f3d 7eff edbd 11e5 6dbf
000000f0: efb3 293f ba6a 513f 85e2 693e b380 bd3e
0.3083533 -0.35588357 -0.52127314 -0.21311177 -0.2878171 0.22787446 -0.79839045 -0.036021613
-0.70709926 -0.5222882 -0.40663928 -0.61281997 -0.40578955 -0.45582703 1.2369969 0.26944834
0.56629366 0.07527875 -0.35158384 -0.6381365 -1.1094576 -0.56437564 0.6707091 -0.8405118
0.30232984 -0.30536935 -1.1482953 0.43489838 -0.13931645 0.30909103 -0.76495284 -0.29460454
0.024209099 -0.35208032 -0.7547689 -0.3503077 0.95442396 0.21976437 -0.60053295 -0.10946004
-0.26345333 -0.32953894 -0.7490389 -0.0135083385 -0.074742675 -0.3100579 -0.28304026 -0.5864187
0.31548974 -0.6122853 0.6001296 0.7521773 -0.172363 0.90239996 -0.20349178 -0.38942024
-0.20261946 0.07802863 -0.11620997 -0.9292765 0.6629018 0.81803477 0.22840317 0.37012252

bn2.running_var f4 [64]
00000000: 2705 8f40 6b06 cc3e 5fb4 0040 cfa6 ad3e
00000010: 2ccc ff3e 0ed3 283e 0c07 373f ead4 0240
00000020: a3c6 f73f 476a 693f 9e44 0e3f 8121 1d3f
00000030: 6fb7 c43e 8604 563e e82b 693f cada 893f
00000040: 6fbd 5c40 d713 8a3f 8435 103f 9f62 123f
00000050: eeb0 173f 50b7 9f3e 81ac ec3e 6c31 ad3f
00000060: 71f3 083f b756 c63e 0e72 d33f d147 c03e
00000070: 2b52 3e3f 5afa df3e 5f39 dc3e ba21 b33e
00000080: c826 683e 5d8d 7f3e 35fd 2f3f d33e 913f
00000090: ab05 bb3e cfcf 073f ab2e 483f b27e 6f3f
000000a0: 93e1 a53f 608e 0340 89ee c13f 4b8b f23e
000000b0: acab d03e 032c 283e 5819 6f3f eb9e 0b3f
000000c0: 2144 123f e2c4 0a40 a2a8 8040 9359 653f
000000d0: 1f8e fa3e b281 e03e 9bd6 353f b6d4 ca3f
000000e0: 938b 7c3f 5d78 ee3e 1012 3f3f 5b87 e33f
000000f0: 6f7d 1c3f ca91 fc3f ca64 c33f 11a9 b03f
4.469379 0.39848647 2.011009 0.33916327 0.49960458 0.16486761 0.7149513 2.0442452
1.9357494 0.9117779 0.5557345 0.6137925 0.384212 0.20900163 0.9108262 1.0769894
3.449062 1.0787305 0.5633166 0.57181734 0.5925435 0.31194544 0.4622536 1.3530707
0.5349646 0.38738033 1.6519182 0.37554792 0.7434413 0.4374569 0.4301252 0.3498667
0.22671044 0.2495627 0.6874574 1.1347297 0.36527762 0.53051466 0.7819621 0.93552697
1.2959465 2.0555649 1.515092 0.47371897 0.40755975 0.16423039 0.93398046 0.54539365
0.57135206 2.1682668 4.020585 0.89589804 0.48936555 0.4384895 0.71030587 1.5846164
0.98650473 0.46576205 0.74636936 1.7775682 0.61128896 1.9731991 1.5265133 1.3801595

bn3.weight f4 [64]
00000000: 3b74 903f 6f88 6f3f 9b85 8a3f 9a6e 603f
00000010: 9e46 673f 3f13 723f 000b 803f d003 793f
00000020: d912 723f 6247 863f 0a54 913f b250 813f
00000030: d02d 723f d811 713f 7f38 733f dbf9 743f
00000040: 1874 873f 97ad 693f 85e6 893f 6adf 833f
00000050: ff75 713f 1741 783f 6734 633f 0925 533f
00000060: 12c6 743f 3026 8a3f 1dc4 6a3f e5af 853f
00000070: 7388 6c3f 5b3f 743f cfb9 823f 0da8 863f
00000080: 67cf 903f 1394 8d3f 6bbc 6b3f 7594 6d3f
00000090: fb86 713f 12b5 7f3f bfb8 5d3f e726 713f
000000a0: d677 783f 1abc 7f3f 718b 833f 9c3e 663f
000000b0: 52dc 873f 9e2b 803f 8564 693f 1603 703f
000000c0: e0c9 903f 9146 803f 9381 7e3f 616a 8d3f
000000d0: b80d 773f c82a 8d3f 233c 813f 32b0 843f
000000e0: f2c9 553f 6f01 7d3f 6884 653f c683 8b3f
000000f0: 7f43 783f 4a50 813f f486 6a3f 379c 853f
1.1285471 0.93567556 1.0822023 0.87668765 0.9034213 0.9456062 1.0003357 0.9727144
0.9456001 1.0490534 1.1353772 1.0102751 0.94601154 0.9416785 0.9500808 0.9569375
1.0582304 0.912805 1.0773474 1.0302556 0.9432067 0.9697432 0.88751835 0.82478386
0.9561473 1.0792904 0.91705495 1.0444304 0.92395705 0.9540917 1.0212954 1.0520035
1.1313294 1.1060814 0.9208438 0.9280465 0.9434659 0.99885666 0.86610025 0.94199985
0.97057855 0.99896395 1.0276929 0.89939284 1.0614111 1.0013311 0.91169006 0.9375471
1.1311607 1.0021535 0.99416465 1.1048089 0.9650531 1.1028681 1.0096477 1.036627
0.8351127 0.9883031 0.8965516 1.0899589 0.9697799 1.0102627 0.9161217 1.0438298

bn3.bias f4 [64]
00000000: 6eb9 073e 9e4b 19be 149a b83a 61f6 3abc
00000010: 91fb eebd 5c99 70ba 376e 67be 9f17 26be
00000020: 8811 e5bc e8d4 3b3d b016 42be 9a48 cdbd
00000030: 7ca9 45be 6189 00bc 2a43 1cbe 2d48 48bd
00000040: e8a0 54bd 0231 4cbd ee2b 393d 069e 9ebd
00000050: b2ea 3dbd 110e 973d 4375 51bd fb63 39be
00000060: 1b29 c43a 9bf4 7f3d 546b 62bd 0d48 1f3d
00000070: 42a0 01be 4e69 71bd 6ec4 9abd ed1c e03d
00000080: 51d2 f0ba ca44 28be 96cb 1fbe d420 c7bd
00000090: d0fd 80bd cf23 bbbd ab16 acbd 96ac ed3b
000000a0: 0a67 4ebe e7ae 38bd 18fb 69bd 4273 30be
000000b0: e0cd 17bd 94c3 92bd 137a d7bd b020 abbd
000000c0: 6e9c 22be 0413 d03d 0116 51bd 585a a7bc
000000d0: af5e e8bd f2c2 01bd e942 0fbe dc62 b8bd
000000e0: 5335 56be 5cad 5a3c 8b07 9dbd e2f4 19be
000000f0: 3192 cabc cd08 09be 87ed 09be 4d1e 01be
0.1325433 -0.14970252 0.0014084005 -0.01141128 -0.11669076 -0.0009178126 -0.22600637 -0.16219948
-0.027962461 0.04585734 -0.18953967 -0.10023613 -0.19302934 -0.007845254 -0.15259996 -0.048896957
-0.051911265 -0.049851425 0.04520791 -0.07744984 -0.0463664 0.0737573 -0.05113722 -0.18104546
0.0014965864 0.062489133 -0.055278137 0.038887072 -0.1265879 -0.058938317 -0.07556997 0.10943017
-0.0018373226 -0.16432491 -0.15605006 -0.09723058 -0.06298411 -0.09137689 -0.08402761 0.00725324
-0.20156494 -0.045088675 -0.057124227 -0.17231467 -0.037061572 -0.0716621 -0.10521331 -0.08355844
-0.15879986 0.10159877 -0.051046375 -0.020428821 -0.113461845 -0.031680055 -0.13990368 -0.09003231
-0.20918779 0.013346996 -0.07667454 -0.15034822 -0.024727913 -0.13382263 -0.13469516 -0.12609215

bn3.running_mean f4 [64]
00000000: 7b2f 203e c199 a2bf aad0 a3bd 06d4 103e
00000010: 3bff 6abf db94 74bf e9a3 9bbe ca7a 91bf
00000020: e7f7 94be 8f3b 613f 4642 49bc 45ae 823f
00000030: e42e 8ebf 2224 55bf bb8f afbf b83f d33e
00000040: 3322 17bf 3297 acbe 0652 80bf 4de7 37bf
00000050: 364a 71be 0de5 1e3e 8fa6 2b3f 97a4 b1bd
00000060: 976a f23e 7c24 9abf 7021 29bf a79c 81bf
00000070: 2e4b 14bf 0755 adbf f19c 8abf d485 04c0
00000080: 9446 0bc0 69aa 21bf 3071 6bbf 571e 4fbe
00000090: d686 abbe 4402 89be 5649 943d 49ee 5a3f
000000a0: 64da be3d d463 35bf edbb 45bf 4d95 d9be
000000b0: ae33 50be faf9 573f c3ec 6abf 9b21 7dbe
000000c0: c7a9 fbbf 08a1 aabf 8639 31bf 25ae 13c0
000000d0: d192 893e 0fa5 1d3f ec7e 58bf 93c4 1cc0
000000e0: f1fc 2abe fe76 a1bf 5fa9 e7bb b17e b9bf
000000f0: 63ba 87bf 07a2 4cbe 828e cbbe 9dda 8c3f
0.15643112 -1.2703172 -0.07998784 0.1414338 -0.917957 -0.95539635 -0.3039849 -1.1365597
-0.29095384 0.87981504 -0.012283867 1.0209433 -1.110806 -0.8325826 -1.3715738 0.4125955
-0.5903656 -0.33709103 -1.0025032 -0.7183731 -0.23563465 0.15517063 0.67051023 -0.08673971
0.47346947 -1.2042384 -0.66066647 -1.0125932 -0.57927215 -1.3541573 -1.0829145 -2.0706682
-2.1761827 -0.6315065 -0.91969585 -0.20226417 -0.3350131 -0.2675954 0.0724055 0.85519844
0.093189985 -0.7085545 -0.77239877 -0.4249672 -0.20332214 0.8436581 -0.9176752 -0.2471985
-1.9661187 -1.3330393 -0.692284 -2.307504 0.26869825 0.61579984 -0.8456867 -2.449498
-0.16698052 -1.2614439 -0.007069751 -1.4491788 -1.0603756 -0.19983684 -0.39757162 1.1004215

bn3.running_var f4 [64]
00000000: fade e13e 8e61 033f a7f5 0d3f 8fe0 e33e
00000010: 2284 783f 48cf ae3e 236d cb3e be85 0f3f
00000020: 0c3d a33e fb33 6d3f 21d4 303f 02cf c63e
00000030: 2743 033f 84bf 3b3f 13de 043f a37a a53e
00000040: a1b5 f13e 3a01 fb3e 4967 ec3e 0e3b ac3e
00000050: 74b5 e93e 078c 8b3f 1f01 2a3f 238c 653e
00000060: 1297 ba3e 227e 703f 9f3b b73e eef7 dd3e
00000070: cf46 7e3e f8ce 523f f8c1 2a3f 575a 5b3e
00000080: ded8 a33f 9b5d fd3e f13b a13e 4744 a33e
00000090: cf61 8b3f e633 7d3f 2572 5c3f 60b7 643f
000000a0: 1dbf bd3e 2ef9 043f 2a84 893f c23a 153f
000000b0: df8e f43e 8e35 f93e 966e 983e 565a 1c3f
000000c0: c5d8 043f 569b a93e 2137 0b3f 508b 553f
000000d0: 3103 0d3f cb2b cb3e 4322 353f 330e dd3e
000000e0: a8ca 103f 5968 dc3e 6c59 ed3e 18b2 033f
000000f0: 9ff3 a43e 7288 193f 6566 893e 4077 3c3f
0.4411543 0.5132073 0.5545296 0.44507262 0.9707662 0.34142518 0.39731702 0.5606345
0.31882513 0.9265744 0.69073683 0.3882981 0.5127434 0.73339105 0.5190136 0.32320127
0.47208884 0.49024373 0.4617255 0.33638805 0.4564625 1.0902108 0.6640796 0.22416739
0.36443383 0.93942463 0.35787675 0.43353218 0.24831699 0.8234706 0.6670222 0.2142118
1.2800558 0.49485478 0.31491044 0.3188803 1.0889224 0.98907316 0.8611167 0.8934231
0.3705987 0.5194272 1.0743458 0.5829278 0.47765252 0.4867367 0.2977187 0.6107534
0.51893264 0.33126324 0.54380995 0.834157 0.55082995 0.3968185 0.70755404 0.43174896
0.5655923 0.4304836 0.46357286 0.51443624 0.32217118 0.59973824 0.26835933 0.7361946

bn4.weight f4 [64]
00000000: ff01 7f3f 5092 5f3f 7736 863f a774 9e3f
00000010: a421 833f 9bc8 893f 8cd4 853f 79f5 6f3f
00000020: ec2d 663f 5786 843f fe11 653f cded 913f
00000030: 35bd 883f 511b 743f 5681 8b3f 2112 773f
00000040: d45b 763f f304 7c3f 8fd1 873f 9e1b 803f
00000050: e3e3 7d3f 69d9 5e3f 0466 7d3f 1aee 983f
00000060: fe37 7a3f 1961 633f c306 773f d2c8 6c3f
00000070: e373 8b3f b656 713f 3404 823f f555 883f
00000080: 6fea 703f 030d 843f 8620 903f 88ff 853f
00000090: 4479 883f 9bd6 923f 0821 523f 8937 803f
000000a0: d013 713f d1fe 813f b866 5a3f 251d 953f
000000b0: 693e 913f 07b0 823f 1865 5a3f 2ffe 803f
000000c0: 140c 7e3f e39b 713f 2c7f 5a3f 8f6f 6b3f
000000d0: 6a47 7d3f eaa2 973f a616 5c3f 8d5b 823f
000000e0: 1742 843f c7c0 633f 7b83 7a3f a478 923f
000000f0: 9cf8 6c3f 87aa 8e3f 23a5 8b3f 45af 6c3f
0.9961242 0.8733263 1.0485371 1.237935 1.0244641 1.0764345 1.0455489 0.93733937
0.8991382 1.0353497 0.8948058 1.1400696 1.0682741 0.9535418 1.0898845 0.9651204
0.9623387 0.9844505 1.0610827 1.0008428 0.9917585 0.8705049 0.9898379 1.1947663
0.9774169 0.88820034 0.9649469 0.9249393 1.0894741 0.94272935 1.0157533 1.0651232
0.9410772 1.0316471 1.1259925 1.0468607 1.0662007 1.1471742 0.8208165 1.0016948
0.94170856 1.0155889 0.85312986 1.1649519 1.1347171 1.0209969 0.85310507 1.0077571
0.9923718 0.9437849 0.853503 0.919671 0.98937094 1.1846592 0.8597206 1.0184189
1.0332669 0.8896603 0.97856873 1.1443067 0.9256685 1.1145791 1.0909771 0.9245494

bn4.bias f4 [64]
00000000: e297 01be 6544 27bd 1d02 cd3d 0357 41bd
00000010: 9722 353d 1d26 9d3d 361c bdbd f044 ff3c
00000020: b123 1cbe aa48 adbd ddee 31be 4af9 53be
00000030: d94e 073d 285b 09bc 06e2 3dbe 5a49 e1bd
00000040: 3695 35be 7669 e8bd d0d5 55be a1c2 ab3c
00000050: 98cd c6bd 0804 ebbd 0678 61bd 3e2c e5bc
00000060: 7350 06be 5bae 90bd a95e 1ebe 7a79 08be
00000070: aeaf 57bd 4b80 87be f5dc 21be 7543 d53b
00000080: 4bd7 19be 02ae e9bd ab5e 88bd d67e 84bd
00000090: 239e 8dbd 2e84 e5bc b611 61bd f4bc 4bbe
000000a0: 1a05 16bd 0138 f9bd 8ecb 26be 313d 83bd
000000b0: eb73 28bd 0576 08be d4a6 febd bd0a 2bbe
000000c0: 2995 f4bd 469a e0bc af87 80be ea31 b8bd
000000d0: 7f51 b8bd b1e7 1ebd 2689 5fbe 7277 18be
000000e0: 0b52 8dbd 6197 3dbd d4f9 92bd 37e2 b33d
000000f0: 4c43 af3d 47a5 49bd a2eb 8bbc 70ec eebd
-0.12655595 -0.04083671 0.10010169 -0.04720212 0.04422244 0.07673285 -0.092338964 0.031160802
-0.1524799 -0.08461125 -0.17376275 -0.20700565 0.03303418 -0.00838355 -0.18543252 -0.11000319
-0.177327 -0.1134824 -0.20882344 0.02096683 -0.09707183 -0.11475378 -0.055046104 -0.027975198
-0.13116626 -0.07064506 -0.15465797 -0.1332759 -0.052657776 -0.26465067 -0.15806945 0.0065082856
-0.15023534 -0.114101425 -0.066586815 -0.064695045 -0.06914928 -0.02801713 -0.05494853 -0.19896299
-0.03662596 -0.12168885 -0.16288587 -0.06408156 -0.041126173 -0.13326271 -0.12434164 -0.16703315
-0.119425125 -0.027417313 -0.25103518 -0.08993895 -0.08999919 -0.038795177 -0.21829662 -0.14889315
-0.06900414 -0.046286944 -0.07176557 0.087833814 0.08557758 -0.049229886 -0.017080132 -0.116661906

bn4.running_mean f4 [64]
00000000: 5390 ae3e f8ca 87be d571 24bf 0a13 f2bd
00000010: 1351 3dbf 89cc dc3e 6d51 8f3e afdb 41bd
00000020: 0c78 13be dfa8 e4be a418 a6bd bfe2 26bf
00000030: 1468 46bf 4888 4fbe 5aae 953e f3a6 81be
00000040: 8518 103e 4ba7 293d 62e8 c0be 0bc5 a7bd
00000050: e3c1 1ebf 3226 44be 6817 7f3e 3cae d23d
00000060: 2fca 5dbb e2c9 353e 80b2 40be 310f fd3d
00000070: e849 c4be 8fcc fcbe ab21 d9be 651d 55bf
00000080: 9356 c4be 14f2 723c 2070 efbe e259 02bf
00000090: 66c1 97be 707b 70be 3bc4 e6be 832f 453e
000000a0: 52c7 0ebf aa6a 36be e3d2 dbbd e078 ffbe
000000b0: 03a1 753e 6afd 7fbe 4afa 25bc 51f2 d13e
000000c0: 8a7e fe3d ef4d 3a3e c1ea 7fbd 273d 313e
000000d0: e112 3fbe 3f71 bbbe a88b 2c3e f233 aabd
000000e0: 1a37 56be d14e 2abd fb11 67be 561b 9abe
000000f0: 852d b8bd a58a 92ba 0a28 a5be 554e 4bbe
0.34094486 -0.2652204 -0.64236194 -0.11820038 -0.73951834 0.43124798 0.2799181 -0.047328647
-0.14401263 -0.44660088 -0.081101686 -0.6518974 -0.7750256 -0.20266831 0.29234582 -0.25322685
0.14071853 0.04141931 -0.37677294 -0.0819188 -0.620146 -0.19155195 0.24911273 0.10287139
-0.0033842435 0.17752793 -0.18818092 0.12356413 -0.38337636 -0.49374816 -0.424085 -0.8324798
-0.383473 0.014828224 -0.46765232 -0.509184 -0.2963974 -0.23484588 -0.45071587 0.19256406
-0.5577289 -0.17814127 -0.10733583 -0.49896908 0.23987202 -0.24999014 -0.010130474 0.41005185
0.12426479 0.18193792 -0.06247974 0.17308484 -0.18659545 -0.36609837 0.1685015 -0.08310689
-0.20919457 -0.04157907 -0.22565453 -0.3009898 -0.08993057 -0.0011180235 -0.3225711 -0.198541

bn4.running_var f4 [64]
00000000: 38b4 503f 117b 153f c75d e43e b174 0f3f
00000010: b722 753f f382 593f 2f8c fe3e 9ebe 383f
00000020: a2ab 183f 13ad e03e 235f 413f d5e0 ea3e
00000030: 830a dd3e bbe1 b93f a1d8 903f 2a99 0a3f
00000040: 301a 203f 2982 be3e 71ba ac3e 15f4 fb3e
00000050: 086a d93e a728 8b3e d95e 203f 2ad3 913f
00000060: 9a26 f03e fe0a 033f 6f45 8d3f 78eb 923e
00000070: 0ce6 c43e 48d5 e13e 7e16 e33e 667e f93e
00000080: 2e9e c53e 716f 2b3f cefb 2e3f d8c4 613f
00000090: 64c3 5b3f 0627 053f 6b86 cc3e a4ff 203f
000000a0: 75f5 2c3f 4d9f c13e 1ef8 0f3f 9bb1 b23e
000000b0: d798 693f 550c f73e 54bc 153f 7af2 873f
000000c0: 9114 983f 1646 3a3f be87 143f 573a 133f
000000d0: 28d9 2f3f ef08 043f 917c 153f 59b4 0a3f
000000e0: 60cf 823e 0dab 543f 4396 113f c060 8c3f
000000f0: 7894 3e3f d13a aa3f a412 183f 1118 cd3e
0.8152499 0.5839091 0.44602796 0.5603743 0.95756096 0.8496544 0.49716327 0.7216586
0.5963689 0.43882045 0.7553579 0.45874658 0.43172082 1.4522012 1.131611 0.5413996
0.6253996 0.3720868 0.33735994 0.49209657 0.42463708 0.27179453 0.62644726 1.1392567
0.4690445 0.5118865 1.1036814 0.28695273 0.38456762 0.44108033 0.44353098 0.48729247
0.38597244 0.6696692 0.68352973 0.88190985 0.8584502 0.5201267 0.39946303 0.62890077
0.6756204 0.3781685 0.5623797 0.34901127 0.9124884 0.48251596 0.5849049 1.0620873
1.1881276 0.7276319 0.58019626 0.57510895 0.6869073 0.5157613 0.583932 0.5418144
0.2554884 0.830735 0.56869906 1.0967026 0.74445295 1.3299199 0.59403443 0.40057424

bn5.weight f4 [64]
00000000: 64ba 8d3f efff 8c3f f0ab 983f 9c74 9d3f
00000010: 9ca7 a23f 75f5 9c3f ff71 743f 06bb 7a3f
00000020: cbf1 833f 9ddf a23f 4448 963f ca0e 8d3f
00000030: f72a b83f c079 973f d231 9b3f 8c75 9a3f
00000040: 0bf5 7a3f 52aa 973f 480b a33f 1d8a 843f
00000050: 4057 893f 9f77 8a3f 1ad6 9b3f ca46 863f
00000060: bbf1 893f 8c7a 8e3f b94d 953f a60a 9c3f
00000070: e07d 883f 8ed5 9e3f ce0b a13f b995 ca3f
00000080: 67cd a83f b4d4 983f e4d5 8d3f a764 8a3f
00000090: 27ed 883f 70cb 7c3f 9122 9c3f 85ed 903f
000000a0: e3fa 883f a62b 943f b6d8 993f 28f6 9d3f
000000b0: cd46 a13f e50e 8e3f 2875 a83f a84c 9f3f
000000c0: c343 8f3f 7a22 a23f 1362 9f3f 13c9 873f
000000d0: 2491 873f b8b8 8d3f 0c17 993f ccf6 9b3f
000000e0: dd64 b33f 1e99 973f 9563 893f 1140 8d3f
000000f0: 52b7 7a3f af25 863f a660 943f c818 a33f
1.1072507 1.1015605 1.1927471 1.2301211 1.27074 1.2262408 0.95486444 0.97941625
1.0308164 1.2724491 1.1740804 1.1020138 1.4388112 1.183403 1.2124579 1.2067122
0.98030156 1.1848853 1.2737818 1.0354649 1.0729752 1.0817755 1.2174714 1.0490353
1.0776895 1.1131148 1.1664344 1.219075 1.0663414 1.2408922 1.2581728 1.5826942
1.3187684 1.1939912 1.1080899 1.0811967 1.0697373 0.9874792 1.2198049 1.1322485
1.0701565 1.157582 1.201926 1.2340746 1.2599732 1.1098295 1.3160753 1.2445269
1.1192554 1.2666771 1.2451805 1.0608238 1.0591168 1.1071997 1.1960158 1.2184691
1.4015156 1.1843603 1.0733515 1.1035177 0.97935975 1.048025 1.1591995 1.2741938

bn5.bias f4 [64]
00000000: cc6e 1bbe b338 b6bd 9218 08be 32d3 0bbe
00000010: 400f 653d 9060 363e 04c2 fcbd 4835 50bd
00000020: a234 1cbe 04e7 c6bd 2b56 46be cf30 bd3c
00000030: c3d8 c7bc 14bd 80be 36f0 48be 0501 89bd
00000040: 1339 b5bd 8812 aebd 8048 0a3d fb33 c0bd
00000050: 8fda 213d 7ce2 10bc 87e5 4fbe 8e88 2bbe
00000060: 7a00 c5bd 208d 1bbe ed61 d23c de4d fbbc
00000070: 39a4 18be 3a09 88bd 579a 03be 5d98 1abe
00000080: 6419 0fbd 1aa7 3a3d c309 66bd 983b 8b3d
00000090: ad58 80bd 13e5 483d 4e1d 60be 8a42 1ebe
000000a0: a3fa 213d 4081 093e 9352 3bbe 4a5e e4bd
000000b0: 3e30 3a3d 1eba a9bd dabc f43c 3e88 25bd
000000c0: f9f6 ad3c fe64 5abd f771 55be b3d7 69be
000000d0: 5f58 5c3c ff6a 4cbd 1749 3cbd 96e6 c2bd
000000e0: b55c 96bd 79d7 33be 5d61 3ebb 4c8d 6b3d
000000f0: 1feb 923c 51b1 9b3d 8199 05be 20b2 53bd
-0.15178984 -0.08897533 -0.13290623 -0.13654783 0.055922747 0.17810273 -0.12341693 -0.050832063
-0.15254453 -0.097120315 -0.19368808 0.023094563 -0.024395352 -0.25144255 -0.19622883 -0.066896476
-0.08848777 -0.08499628 0.033760548 -0.093849145 0.039515074 -0.008843061 -0.20302401 -0.1675131
-0.096192315 -0.15190554 0.02568146 -0.030676778 -0.14906396 -0.06642385 -0.12851845 -0.15097184
-0.034936324 0.045569517 -0.056161653 0.06798476 -0.062669136 0.049046587 -0.21886179 -0.1545507
0.039545666 0.13428211 -0.18293218 -0.11150797 0.045456164 -0.08287452 0.029875208 -0.040413134
0.02123593 -0.05331897 -0.20844255 -0.22836189 0.013448804 -0.049906727 -0.04596814 -0.09516637
-0.07341901 -0.17562665 -0.0029049732 0.057507798 0.01793438 0.0760218 -0.13046838 -0.051683545

bn5.running_mean f4 [64]
00000000: 8c84 6bbf 01b5 ce3c 0b48 41bf 0057 8d3e
00000010: 4088 c0be a738 23be 5795 37be c674 dcbe
00000020: 7fb5 f03e 9412 8bbf e948 d1be 30ba 523e
00000030: ba3a 43bf 7367 a6bf ee6d a4bf c5ef 79be
00000040: c6c5 21bf 2c2b 053f a271 10bf 8351 04be
00000050: 4c5d 91bf 1383 86bd 9286 80bf 0544 5b3f
00000060: 212f 6fbe c9d5 9d3e 2bbe 9dbf bc54 16bf
00000070: a1f2 5bbf b2c4 3cbe c27d 31bf eb6c f5be
00000080: 1704 503d 92eb 43bf 587a 81be eb9b 55be
00000090: ae34 1ebf 8801 46bf 5296 68bf 62ee f43e
000000a0: 4baf 0abe 8019 913d 8af0 343e fbff a6bf
000000b0: 18c5 80bf 9ec9 eabe 12d8 073f 0f63 093e
000000c0: ff47 91bf 781f db3c 7365 2ebf 0227 af3e
000000d0: b664 84be 8631 cbbe f224 8e3e e353 bd3e
000000e0: e95e 92bf 11db 7cbd 7eb7 68bf 3484 91be
000000f0: ebc6 d7bd 2a39 3c3f 8581 6cbf 3c3f 5abe
-0.91999125 0.025232794 -0.75500554 0.27605438 -0.3760395 -0.1593958 -0.17928062 -0.4305784
0.4701347 -1.0865045 -0.4087594 0.20578837 -0.76261485 -1.300032 -1.2846048 -0.24407871
-0.63192403 0.52019 -0.5642339 -0.12921719 -1.1356597 -0.06567969 -1.0041068 0.85650665
-0.23357822 0.30827168 -1.232366 -0.58723044 -0.859171 -0.18434408 -0.69332516 -0.4793466
0.05078515 -0.76531327 -0.25288653 -0.20860259 -0.6179913 -0.77346087 -0.9085437 0.47838122
-0.13543431 0.07084942 0.17669883 -1.3046869 -1.0060148 -0.45856947 0.5306407 0.13416694
-1.1350096 0.026748404 -0.6812355 0.34209448 -0.25858086 -0.3968622 0.27762562 0.36978063
-1.1435214 -0.061732356 -0.90904987 -0.28421175 -0.105359875 0.73524725 -0.9238513 -0.21313184

bn5.running_var f4 [64]
00000000: a69a 513f 135f 2d3f 6bfa 3a3f d0e6 c23e
00000010: cf53 b43e 44a8 143f 9959 043f 5a50 8a3f
00000020: ba97 a93e 50b3 a43f 8453 eb3e cddf da3e
00000030: c866 e73e b37d 913f 7ad3 123f 9ac3 5a3f
00000040: 5ae9 253f 1bcc 063f bff7 d93e d2d8 113f
00000050: aa44 ed3e aaf4 ac3e e0ce 723f 9a04 f63e
00000060: bc6f 1e3f e64f 893f fa65 003f 7590 033f
00000070: f9d5 133f dc13 093f f424 223f 5db4 363f
00000080: 760e 1f3f 84f5 253f 0737 593f cebf 263f
00000090: f300 f73e f27f 633f 4fba 3e3f 40bb 1c3f
000000a0: 4939 0a3f c027 823f 0ac2 183f 9b9c 0e3f
000000b0: d1ec 123f 92a2 823f b7a1 4b3f 3d37 c13e
000000c0: e77e 363f 97d5 c83e 16a2 813f 221f 403f
000000d0: 6435 0c3f 1990 393f f310 2c3f 5f2e 273f
000000e0: 4edb 0d3f f155 0c3f 20fe 6e3f 43b3 d33e
000000f0: b9ca 673f 4ba1 2f3f 3517 0e3f 8462 e73e
0.818766 0.67723197 0.7303836 0.3806672 0.3522019 0.5806925 0.51699215 1.0805771
0.3312357 1.2867222 0.45962155 0.4274887 0.45195603 1.1366485 0.5735394 0.85454714
0.6480919 0.5265519 0.42571828 0.56971467 0.4634145 0.33780414 0.94846916 0.48050386
0.61889243 1.0727508 0.50155604 0.513923 0.5774837 0.5354593 0.63337636 0.7136896
0.6213144 0.6482775 0.8484959 0.6513642 0.48242912 0.88867104 0.74503034 0.6122322
0.5399366 1.0168381 0.5967108 0.5570771 0.57392603 1.0205863 0.7954363 0.37737456
0.7128739 0.39225456 1.012759 0.75047505 0.5476897 0.724855 0.6721336 0.6530513
0.5541276 0.54818636 0.93356514 0.41347703 0.90543705 0.6860549 0.5550416 0.4519235

bn6.weight f4 [512]
00000000: fc4e 7a3f b549 7f3f 1603 703f 1d43 603f
00000010: 005e 5b3f 8b44 563f c897 6c3f 5413 663f
00000020: 03f4 2c3f 6ad6 3e3f de52 553f 0cb4 783f
00000030: d627 6a3f b6b1 523f 4e66 673f 9dc0 663f
00000040: 80d2 583f 8fe7 683f 241f 513f c589 473f
00000050: 13ef 5b3f d69d 513f a609 613f b003 433f
00000060: 69d0 323f 8026 3a3f b7d9 4d3f 07ee 683f
00000070: b95f 633f 2b8b 323f ef7b 673f 787d 4c3f
00000080: 45ff 6a3f be9e 833f a05f 713f 2cbe 603f
00000090: 74d8 523f 97cb 693f 59c9 613f 7145 643f
000000a0: 559e 523f d9c9 533f bec6 6e3f 2752 623f
000000b0: 701d 363f 41d5 2b3f 5893 5a3f b08b 633f
000000c0: da89 503f f2d7 6b3f 4ac4 493f eeb5 4e3f
000000d0: 8fd6 5f3f 459d 5b3f 025d 3e3f b34e 5f3f
000000e0: 78b1 503f bcfa 613f c819 533f b3f6 683f
000000f0: e2af 823f 166f 5a3f c056 683f dd7f 543f
00000100: 5eb5 683f aab8 6d3f adbb 613f 0272 523f
00000110: 4d44 783f 6718 593f 43d8 4c3f 3e32 613f
00000120: ea48 5e3f 3974 793f 1730 7a3f 44e1 583f
00000130: fca6 673f 38ae 763f 45b0 5b3f 9f93 4d3f
00000140: 3c98 5a3f a8b2 713f f284 6a3f 01a2 5a3f
00000150: 39d7 4d3f f8b7 5c3f 2329 683f f591 503f
00000160: b300 4b3f bb5a 653f 225d 683f e323 593f
00000170: 5d47 3b3f bb63 843f 4721 423f 79c8 533f
00000180: a28f 573f 2dec 493f 920c 523f 9461 5a3f
00000190: 100c 4d3f 2729 4e3f adc8 713f f230 603f
000001a0: d11c 5d3f 1a64 473f 74a1 473f 1aa9 733f
000001b0: 7b1b 6d3f 0092 5c3f eed6 673f 03f4 703f
000001c0: dcb4 683f 7cd4 743f 1a5e 573f 6e36 4f3f
000001d0: 33d0 503f b88f 693f 6db6 663f 12ce 863f
000001e0: 1937 383f 2dcf 6a3f bc60 743f 7f4f 513f
000001f0: 79a3 633f a865 543f b82a 603f 73b9 6c3f
00000200: 15e5 583f 6416 633f 69fa 723f 2755 453f
00000210: da10 573f b9e3 683f df39 403f 3e40 3b3f
00000220: 2229 653f 03ae 433f 0b60 593f 01f3 593f
00000230: 5da2 663f f3c5 343f 071c 3a3f 9cf5 803f
00000240: 72d3 563f 7939 693f fa4e 4e3f 1c16 683f
00000250: ba8e 4c3f 12f5 7b3f 7a4e 5d3f c69a 523f
00000260: e3a4 783f cc74 293f 9a50 693f cd15 2f3f
00000270: 17cf 633f 575e 5b3f 662b 623f 2538 5e3f
00000280: 32ac 593f 1096 6b3f 74f7 6e3f fdd0 6b3f
00000290: c54b 703f 4afb 233f c4f5 483f c93e 773f
000002a0: 4f3d 473f cd1f 633f 68f0 433f 790f 553f
000002b0: eb5f 543f 7ac8 773f 6839 683f 16c5 653f
000002c0: a94e 513f aadf 6b3f 7ddd 543f fd67 713f
000002d0: 8bd9 653f 464c 5e3f a478 4d3f 372a 633f
000002e0: 6be4 633f 39e5 5a3f 4971 813f 24a5 5c3f
000002f0: 235d 4c3f c431 5c3f 3e8c 6d3f 1b49 833f
00000300: ca82 5a3f 671b 5f3f fd02 493f c4ae 513f
00000310: 8403 473f 1fbe 6e3f 86f1 563f c300 443f
00000320: 6864 543f 33a6 573f 2f42 703f ac89 623f
00000330: 2945 5e3f 0029 4a3f 93f3 6c3f dba1 483f
00000340: 753f 6d3f 58a9 603f b52b 5c3f b9b5 453f
00000350: 084f 6a3f e4e6 3b3f bdcc 513f 306b 603f
00000360: 83b3 493f 1cee 523f fcdd 6d3f e888 483f
00000370: 5391 803f 7f30 633f d0a4 5c3f 2260 723f
00000380: 64df 603f 451f 713f de5d 743f c197 573f
00000390: 1ffb 5e3f 3c64 4d3f 42d4 373f 57e8 5b3f
000003a0: f25d 593f 4938 493f 8701 603f 91bd 903f
000003b0: 6c45 5b3f 08a9 643f 3d10 4a3f d795 543f
000003c0: bbec 743f 98fb 3a3f e8fc 5a3f 29cd 683f
000003d0: 308f 553f 46fb 5f3f 4406 593f d4a0 6a3f
000003e0: c413 563f 13c3 493f d9af 173f 4954 353f
000003f0: b620 603f 1a98 693f df4b 473f e0da 133f
0.9777677 0.99721843 0.9375471 0.87602407 0.8569031 0.8369834 0.924191 0.8987324
0.6755983 0.7454592 0.8332957 0.9714973 0.91467035 0.82302415 0.9039048 0.90137655
0.846962 0.9097833 0.8168814 0.77944595 0.85911673 0.81881464 0.8790535 0.761775
0.6984926 0.72714996 0.8041033 0.909882 0.88817936 0.69743603 0.9042348 0.7987895
0.9179576 1.0282819 0.9428654 0.8779018 0.8236153 0.9132628 0.8819786 0.8916846
0.82272846 0.8272987 0.93272007 0.88406605 0.7113867 0.67122275 0.8538108 0.8888502
0.81460345 0.9212638 0.7881514 0.8074635 0.87436765 0.8578685 0.7436067 0.8722946
0.81520796 0.88273215 0.82461214 0.91001433 1.0209925 0.85325754 0.9075737 0.83007604
0.90901744 0.928599 0.88176996 0.8220521 0.9697922 0.8480286 0.8001749 0.8796729
0.8683001 0.97442967 0.9772963 0.8471873 0.9048917 0.96359587 0.8581584 0.80303377
0.8538854 0.9441323 0.9160911 0.8540345 0.8040653 0.86218214 0.9068777 0.8147271
0.7929794 0.8959157 0.9076711 0.84820384 0.73155767 1.0342935 0.7583203 0.8272777
0.8420354 0.78876 0.8205043 0.8530514 0.8009653 0.80531543 0.9444683 0.87574685
0.86372095 0.7788712 0.7798073 0.95179904 0.92620057 0.8616028 0.9056233 0.9412233
0.9090097 0.95636725 0.8412796 0.8094243 0.81567687 0.9123492 0.9012211 1.0531638
0.7195907 0.91722375 0.95460105 0.81761926 0.88921314 0.82967615 0.87565184 0.92470473
0.8472455 0.8870604 0.94913346 0.7708306 0.8401009 0.9097248 0.75088304 0.731449
0.8951589 0.76437396 0.84912175 0.8513642 0.90091497 0.70614547 0.72699016 1.0074954
0.8391639 0.9110332 0.8058926 0.90658736 0.79905283 0.9842082 0.8644787 0.82267416
0.971266 0.6619384 0.91138613 0.6839264 0.8898787 0.85690826 0.8834747 0.8680442
0.85028374 0.9202585 0.93346334 0.92115766 0.93865615 0.6405531 0.7850001 0.9658018
0.77827924 0.887204 0.76538706 0.83226734 0.8295886 0.9679028 0.90712595 0.89753854
0.8176065 0.9213816 0.83150464 0.942993 0.8978507 0.86835134 0.8026221 0.8873629
0.89020413 0.85506016 1.0112697 0.86189485 0.79829615 0.86013436 0.9279212 1.0256685
0.8535582 0.8715119 0.78520185 0.81907296 0.7773974 0.9325885 0.83962286 0.7656366
0.8296571 0.84237975 0.9385099 0.8849132 0.8682428 0.7896881 0.92559165 0.7837197
0.9267495 0.877584 0.8600419 0.7723041 0.9152684 0.73399186 0.8195303 0.87663555
0.7878954 0.82394576 0.92916846 0.783339 1.004435 0.88745874 0.86188984 0.9467794
0.8784087 0.9418834 0.9545573 0.84215933 0.8710193 0.8023107 0.71808255 0.859014
0.84908974 0.7860151 0.8750233 1.1307851 0.85652804 0.8932042 0.7893103 0.8304114
0.9567372 0.7304015 0.85542154 0.9093805 0.8342161 0.8749279 0.84775186 0.91651654
0.8362391 0.78813285 0.592527 0.70831734 0.8754991 0.91247714 0.77850145 0.5775585

bn6.bias f4 [512]
00000000: 7be8 70ba aafd 0e3b 7ac4 99ba 466b e6ba
00000010: 83d8 d8ba 2f8d 8b3a b723 50bb 9fc2 8d39
00000020: a213 b13b 6125 46bb 3f00 003b d824 153b
00000030: 6aa0 7fbb aa20 d8bb ea65 9e3b 8916 0a3b
00000040: 657c 3e3b 4a5c 88bb 609a e4ba 2404 993b
00000050: 0489 283b a44a 873a 6910 1a3b 47e7 6238
00000060: 01d2 a0bb 0619 8c3b 5d13 28bb ea59 d23b
00000070: fc94 d93a a6a0 9b3b e293 ed3a b017 b1bb
00000080: 9934 2cbb 121f 32b9 91c1 473b 59c1 473b
00000090: 485b 8c3b 2ce1 f639 533e 153b c4c1 57b8
000000a0: eb98 4ebb e583 333b d28f 8dbb 2cd4 603b
000000b0: b342 683b f306 67bb b359 723a 26e8 a7ba
000000c0: b84a c13a 73a2 0d3a fff3 943b 88d5 28ba
000000d0: 5d89 443a 589d 613b 824a 2438 6a07 d7ba
000000e0: 1d19 a5b9 aa05 0fb9 2682 25bb f750 06bb
000000f0: eb3a 3e3a 9631 573b 71da ceba 9ddf 2f3b
00000100: 1cfe 873b eb5a 3bba 83f4 843b 81a1 77bb
00000110: 7d0c 4b3a c8ab 55bb ba8e 683b fe31 b63b
00000120: cc1f 733a 37e4 073b 15a0 d738 d8e5 1d3b
00000130: bc09 16b9 7532 4ebb bbfe 21bb 7574 b0ba
00000140: 0341 cd3b 3ba0 58ba 7aef 6aba 28b9 09bb
00000150: 3465 3ebb 1a77 aeba ee11 023c 82be 34bb
00000160: c4d1 6fba e013 6e3b 71b9 c2bb 784b 76b9
00000170: 7092 ae3b da5f d13b 2b4b 7e3a 7c78 50bb
00000180: 6429 05bb 56a6 30bb ccbb b63b e14e d53b
00000190: 293b 46bb b7fb d03b 2f2a 3bbb 0ef2 dd3a
000001a0: 8bb5 75bb 4492 d2b9 c55d dcbb 07a4 a8bb
000001b0: 43c7 db3a 18a5 4fbb e27a fcba e1a4 2f3b
000001c0: 7d8c 04bb df24 363b 2ec7 c2ba 947a 043b
000001d0: b98a c3b9 898e 273b 2c02 33bb 067d 7dbb
000001e0: 56f0 633a 076b ec39 aa48 0c3b 216c 0dbb
000001f0: 368e 2abb e7e3 1ebb 1678 a03b 178f 43bb
00000200: e7d2 b13b 43df d2bb 6ee5 34bb 98e3 423a
00000210: f994 053b 8844 98ba cc45 8d3b cb56 7e39
00000220: 9cb7 b1ba 0329 fbbb 6c8c 30bb 1cff e33b
00000230: 3b18 84bb 8ebe 213b 5376 b5bb a12d e33a
00000240: 047c a0b9 1d11 1bbb 62b2 053a 5c68 e6ba
00000250: ce61 e83b 2350 bd3a 733a c33b 1fc0 673b
00000260: 0290 383b d427 a23b 6b84 d6ba d466 0a3c
00000270: 3494 903a 4dfd 78ba 792a 963b fd60 f0bb
00000280: f525 083b 947d 2839 3795 793b 0b7d 5a3b
00000290: 4703 d3b9 1466 6c38 4c12 18bb 6b1d 43ba
000002a0: 8672 c2b9 0140 a8bb f158 1abb 1ff6 c23b
000002b0: 5400 acb9 01a0 f9ba 9271 a5ba 1a4d b73a
000002c0: cb6b a33a a23b c9bb df4e f13a 6c4c d7ba
000002d0: 0c99 37ba 261b 7fbb 04f7 c0bb 471e 5d3b
000002e0: 2f07 69bb 4862 de3a 9af3 99bb a944 8a3b
000002f0: 5199 b03a 1691 8fbb 31f1 a73b 2a42 9dba
00000300: 8217 b53b 78ca 81ba 21b8 c1ba a7a9 02bb
00000310: a727 49ba 4dc1 023a 2946 1339 869d 243b
00000320: 970a 6fbb 0511 d239 0d27 2e3a 23c6 aeb9
00000330: 3400 953b 8713 173c 2114 8fbb 2c80 99bb
00000340: ff38 90bb 2ef4 83bb 872d c4bb f90c 98bb
00000350: 9522 d3ba 8156 d33a c005 89bb 07bb 2e3a
00000360: 05fa a63a fef6 8c3b 65a3 d7ba a1dc 683b
00000370: ea3c ccba af1f 743b 5e1d d8ba ab4d 5b3b
00000380: 05af 4dba 2b57 a6b8 f302 053a 40b5 543a
00000390: 41aa 62bb e2ce d73b 7824 913b 7d65 943b
000003a0: 3c26 753a c1d5 2d3b e229 6fbb e302 00ba
000003b0: 29c9 9839 67e8 af3a a926 f1ba ade0 3f3a
000003c0: 6c57 173a 3447 993b 53ef 483b d5af 0b3b
000003d0: a024 2ebb 99b3 9f3b 3b3b 8fbb 92e4 813b
000003e0: 80de 383b 6c96 d4ba 55c4 403a b5a8 ae3a
000003f0: f7a4 9f33 955d 143b 6032 783a 0ecf 983a
-0.0009189916 0.0021818676 -0.0011731528 -0.0017579577 -0.0016544018 0.0010646934 -0.003175957 0.0002703862
0.0054039517 -0.0030234682 0.0019531397 0.0022757556 -0.0039005526 -0.0065956907 0.0048339264 0.002107056
0.0029065844 -0.0041613923 -0.0017441027 0.004669683 0.0025716433 0.0010321927 0.0023508316 5.4097993e-05
-0.004907847 0.004275444 -0.0025646307 0.00641941 0.0016600187 0.0047493754 0.0018125738 -0.005404435
-0.0026276468 -0.00016986977 0.0030480365 0.0030480234 0.0042833425 0.00047088542 0.0022772744 -5.1440453e-05
-0.0031524252 0.0027391848 -0.0043201232 0.0034306152 0.0035440146 -0.0035251945 0.00092449336 -0.0012810274
0.0014746999 0.000540293 0.004545688 -0.000644051 0.00074972754 0.003442606 3.9170038e-05 -0.0016405408
-0.00031489963 -0.00013639653 -0.0025254576 -0.0020495036 0.0007256704 0.0032835952 -0.0015781653 0.0026836165
0.0041501652 -0.0007147032 0.0040574684 -0.0037785473 0.00077456963 -0.003260361 0.0035485462 0.0055601588
0.00092744525 0.0020735392 0.000102818165 0.0024093296 -0.00014308741 -0.003146318 -0.0024718482 -0.0013462441
0.0062638535 -0.00082636223 -0.00089620764 -0.0021014903 -0.002905202 -0.0013310642 0.007938845 -0.0027579372
-0.0009148384 0.0036327764 -0.0059425165 -0.00023488502 0.0053275153 0.0063896 0.0009700532 -0.0031810096
-0.002031886 -0.0026954613 0.0055765864 0.0065096472 -0.0030247665 0.006377663 -0.002855908 0.00169331
-0.0037492241 -0.00040163298 -0.0067250454 -0.0051465067 0.0016767759 -0.0031684097 -0.0019262696 0.0026801156
-0.002022534 0.0027792973 -0.0014860386 0.0020214664 -0.00037296655 0.0025567135 -0.0027314527 -0.0038679256
0.00086951756 0.0004509317 0.0021405616 -0.0021579342 -0.0026024706 -0.0024244727 0.004897128 -0.0029839927
0.005426753 -0.0064353063 -0.002760257 0.0007434427 0.0020382984 -0.0011617104 0.004311299 0.0002425566
-0.0013558748 -0.007664801 -0.0026939167 0.0069579016 -0.004031209 0.002468023 -0.005537787 0.0017332324
-0.00030609977 -0.0023661323 0.00051001285 -0.0017578709 0.0070917374 0.0014443438 0.0059578954 0.0035362316
0.0028162007 0.0049485955 -0.0016366368 0.008447368 0.0011030496 -0.0009498194 0.0045827 -0.0073357807
0.0020774577 0.0001606851 0.0038083324 0.0033338692 -0.00040247498 5.6361852e-05 -0.0023204265 -0.0007443043
-0.0003708789 -0.005134583 -0.0023551548 0.00594975 -0.0003280664 -0.0019044877 -0.0012622348 0.001398477
0.0012468038 -0.006141142 0.0018410346 -0.0016425974 -0.0007003702 -0.0038926094 -0.0058888216 0.003373997
-0.003555726 0.0016966546 -0.004698229 0.0042196107 0.0013473426 -0.0043813093 0.005125188 -0.0011997868
0.005526484 -0.0009902259 -0.0014779606 -0.0019937546 -0.000767345 0.00049879105 0.00014045149 0.0025118305
-0.0036474818 0.00040067002 0.0006643392 -0.0003333549 0.0045471434 0.009220964 -0.004366413 -0.0046844687
-0.0044013257 -0.004026911 -0.0059868726 -0.0046402183 -0.0016108329 0.0016123803 -0.0041815937 0.00066654425
0.0012739307 0.0043019047 -0.0016451894 0.0035531896 -0.0015582119 0.003725033 -0.0016488244 0.0033463042
-0.00078462093 -7.931733e-05 0.0005073987 0.00081141666 -0.0034586343 0.0065859416 0.0044293962 0.0045287
0.00093517057 0.0026525112 -0.003649347 -0.00048832427 0.00029141575 0.0013420702 -0.0018398362 0.0007319551
0.000577322 0.0046776775 0.0030660226 0.002131452 -0.0026572123 0.0048737046 -0.0043710745 0.0039640153
0.0028208792 -0.0016219146 0.00073534745 0.0013325425 7.4340214e-08 0.0022638787 0.00094679557 0.0011658387

bn6.running_mean f4 [512]
00000000: c5b5 2abf 16bd b0bf d64d 49c0 a112 2a40
00000010: 5143 a7bf f2f6 e6bf 43b6 a8bf b4b9 1ec0
00000020: 0386 01c0 da5b 72bf 20b0 39bf 4f13 0dc0
00000030: 264e 29c0 c046 11c0 7981 26c0 4723 2dc0
00000040: 6ad3 9e3a 2353 413f c5b7 5abf 886f 2abe
00000050: 3890 2c3f 2c22 15bf b4eb dcbf c114 0fc0
00000060: ed09 2cc0 1f84 dd3e 238e 96bf fec1 bdbe
00000070: 8255 17c0 5b30 54bf 1c6f 55bf c3fd 34c0
00000080: 3976 0c3f 8cbe d2bf 14bd 583e 1216 32be
00000090: 7695 e5bf f3d5 8b3f 8617 943f 638e c6be
000000a0: 30c4 0140 e590 41bf 410b 85bf b0d7 1fbe
000000b0: 0027 d2bf 1957 443c dbb4 cfbf d68f d9bf
000000c0: a23f bb3e e383 4840 ead9 093f e9b1 bf3f
000000d0: 19ba a8be 94cb 11c0 f5fd 603f fd94 d4be
000000e0: 3c10 abbf 052a c73f 9814 6e3e 6261 01c0
000000f0: aa39 90bf 4df2 2bbe 4199 44bf b744 1cc0
00000100: f4c3 b23e a62e 64bf 7112 4a3e 243a 5abf
00000110: ac73 4bc0 1471 c13e 55a2 0f40 a69f 653f
00000120: c75c 3340 7297 2ec0 1caa 32c0 a81d 633e
00000130: a73d 663f 968a 64c0 2194 f4bf 2ad6 953e
00000140: 33ca c0bf bbf0 e5be 740d 943f b8d0 9cbf
00000150: 3368 d9bf e60c b6bf c3c0 68bf 62cf b3bf
00000160: 0a7e b3bf c727 90bf 1385 f83e da4f 14be
00000170: 74f0 0f40 eb57 89c0 7bf1 a03d ed4b 4bc0
00000180: 7e30 97bf a330 2e3f 80e8 a7bf db9e b03d
00000190: 606e 03c0 c34a 9dbf c299 943f c383 25bf
000001a0: 8ce6 08be 761c 273f 532d 05c0 6c8a 673f
000001b0: 4528 293f 4c14 cd3f 92d6 eb3f 7be1 2a3e
000001c0: ddce 7fbf e268 95c0 ddd1 d53f 81fc 26c0
000001d0: cc35 dcbe e663 a43f add8 1c3f 1851 103f
000001e0: 0125 91bf 70ca 80bf 9a83 7dbf 2abe 223f
000001f0: 77f5 1abe c9f3 e03d 8f30 25c0 334b f93f
00000200: 0293 86bc a332 ba3f 5b78 86bf 20e9 2a3e
00000210: 8a27 34bf 3e82 ea3f 0af6 57bf 135b 173f
00000220: cfc1 e13c 4c5f 12c0 2c3b 183f b35c 14bf
00000230: 8d08 16c0 3eee c2bf 4406 3dbf 7f96 4bc0
00000240: e235 9abf 6ad7 11c0 7aec 74bf 0eb4 113f
00000250: f0bc 94bf 5031 063e ce63 443f 8e08 2340
00000260: ec7e 13c0 ebdf 45bf 444b d1be 9bea 68bf
00000270: 6d6c 273e 23df 6d40 46f9 80bf 07e9 42bf
00000280: e230 1fc0 f36d c0be 038b 3ac0 b398 533f
00000290: 7898 92bf 5795 8dbf f680 9d3d 7c1c 0fc0
000002a0: bef5 d0be 1042 69bf f768 be3d 8633 8b3f
000002b0: d9e5 7b3d 9a61 17c0 10bf ebbf 3bde f0bf
000002c0: ab82 0ebf 401d c33e a051 12bf 8c8c 85c0
000002d0: 5a42 b5c0 a416 ccbf 76ba e1be 11e9 a73f
000002e0: 67f6 413e a1dc 53bf c424 1dc0 e424 653f
000002f0: 8edc b23f 5802 73c0 8398 c9bf a620 86c0
00000300: ede0 913f 52dc b5bf f503 fdbf 11f2 30bf
00000310: e7e0 afbf 4fb1 46c0 7449 48bf eeb5 fbbf
00000320: e40f ef3d 6d73 d73f f43b 36bf 273f 60bf
00000330: f597 e7be 55e5 b7be bc4a a4be acc8 52bd
00000340: e2e0 43bf 84cc 29c0 2f2c 0abf c9d9 943f
00000350: af0a 563f 2820 51bf 6483 c23f 2414 efbf
00000360: 2bf4 413f 42a4 88c0 b134 0bc0 ea89 3ebe
00000370: 2163 303f e25c 883f e41c 65be cb68 bebf
00000380: 9707 5ac0 8354 923e 1204 54c0 e54a bfbf
00000390: bb7a a7bf 54d9 44bf e0f5 47bf aa9c 54bf
000003a0: f9fc 873f ba78 05c0 3186 17bf 44ed 94bf
000003b0: 2ca5 b13e a4d9 d3bd 71bd 3b3f e933 f0be
000003c0: c059 35c0 07ca 0dbf 6151 e2bf cee6 d6bf
000003d0: c487 813f 874d d23f c4aa 52bf 3582 9a3f
000003e0: 19c6 18bf 7710 dcbf a94e 48c0 a4d1 cebf
000003f0: 77d5 99bf 419a 473e eabc 2ebe 658d d2bf
-0.6668361 -1.3807704 -3.1453757 2.657387 -1.3067418 -1.8044112 -1.3180622 -2.4800844
-2.0238044 -0.94671404 -0.7253437 -2.2043035 -2.6453948 -2.2699432 -2.6016524 -2.7052782
0.001211745 0.7551748 -0.8543666 -0.16644108 0.6740756 -0.5825527 -1.7259431 -2.2356417
-2.6881058 0.43264863 -1.1762127 -0.37062067 -2.364594 -0.82886285 -0.83372664 -2.8279884
0.54867893 -1.64644 0.21165878 -0.17391232 -1.7936237 1.0924667 1.1569679 -0.38780507
2.0275993 -0.75611717 -1.039406 -0.15609622 -1.6418152 0.011983656 -1.6227068 -1.699702
0.36571985 3.1330497 0.53848135 1.4976169 -0.3295448 -2.2780504 0.8788751 -0.4151992
-1.3364329 1.5559698 0.23250043 -2.0215688 -1.1267598 -0.16791649 -0.76796347 -2.441694
0.34915125 -0.8913368 0.19733597 -0.85244966 -3.178935 0.37781584 2.244283 0.8969673
2.8025377 -2.7279935 -2.7916327 0.22179282 0.89937824 -3.5709586 -1.9107705 0.29264957
-1.5061706 -0.44910225 1.1566606 -1.2251196 -1.6984924 -1.4222686 -0.9091913 -1.4047663
-1.4022839 -1.1262139 0.48539028 -0.14483586 2.249051 -4.291982 0.07858559 -3.1765091
-1.1811674 0.68042964 -1.3117828 0.08624049 -2.0536118 -1.228844 1.1609423 -0.6465418
-0.13369197 0.652778 -2.0808914 0.9044559 0.6607707 1.6021819 1.8424857 0.16687576
-0.99925023 -4.669053 1.670467 -2.6091616 -0.43009794 1.2842987 0.6126812 0.5637374
-1.1339418 -1.0061779 -0.99028933 0.6357142 -0.151327 0.10983998 -2.5810888 1.9476074
-0.01642752 1.4546703 -1.050548 0.16690493 -0.7037283 1.8320997 -0.843598 0.59123343
0.027558235 -2.2870665 0.5946529 -0.5795395 -2.344272 -1.5228956 -0.73837686 -3.1810606
-1.2047694 -2.2787728 -0.95673335 0.56915367 -1.1620159 0.13104749 0.7671479 2.5473971
-2.3046217 -0.77294797 -0.40877736 -0.9098298 0.16349955 3.7167442 -1.0076072 -0.7613682
-2.4873586 -0.37583885 -2.9147346 0.82654876 -1.145278 -1.10612 0.07690613 -2.2361135
-0.40812486 -0.9111643 0.09297364 1.0875099 0.061498497 -2.3653321 -1.8417683 -1.8817819
-0.55668133 0.38108253 -0.571558 -4.1734066 -5.6643496 -1.5944409 -0.4408757 1.3118001
0.18941651 -0.8275853 -2.455369 0.89509416 1.3973558 -3.797018 -1.5749668 -4.1914854
1.1396767 -1.4207861 -1.9766833 -0.69119364 -1.374051 -3.104572 -0.7823708 -1.9664896
0.11672953 1.68321 -0.7118523 -0.8759636 -0.45233122 -0.35917154 -0.32088268 -0.051460907
-0.7651502 -2.6531076 -0.5397367 1.1628963 0.8361005 -0.8168969 1.5196347 -1.8678021
0.75763196 -4.270051 -2.175091 -0.18607298 0.6890126 1.0653346 -0.22374302 -1.487573
-3.4067132 0.28580102 -3.3127484 -1.4944731 -1.3084329 -0.76894116 -0.7810955 -0.8305155
1.0624076 -2.0854936 -0.59189135 -1.1634908 0.3469633 -0.10344246 0.7333594 -0.46914604
-2.833603 -0.55386394 -1.7681085 -1.6789186 1.0119557 1.642991 -0.8229182 1.2070986
-0.59677273 -1.7192525 -3.129801 -1.6157727 -1.2018269 0.19492437 -0.17064252 -1.64494
