models/FAUST_5k/best_basis.pth (torch, 927122 bytes, 73 tensors)

bn1.weight f4 [64]
000000 a8 8e 76 3f 74 a9 7e 3f eb 88 7a 3f 75 96 66 3f
       0.96311426 0.99477315 0.9786517 0.9007333
000010 60 12 8e 3f e9 09 87 3f 10 91 8a 3f 23 8f 61 3f
       1.1099358 1.0549899 1.082552 0.88109034
000020 6d 94 80 3f 13 35 8d 3f c7 20 90 3f 2b ae 85 3f
       1.0045296 1.1031822 1.1260003 1.0443777
000030 87 59 80 3f c8 28 7b 3f ee 2f 84 3f 86 45 98 3f
       1.0027322 0.981091 1.0327127 1.1896217
000040 08 e9 9a 3f dc 88 89 3f 96 ed 47 3f e4 f1 67 3f
       1.2102365 1.0744891 0.780969 0.9060347
000050 cd 25 83 3f 09 44 6d 3f 43 e3 83 3f c1 69 56 3f
       1.0245911 0.9268194 1.030373 0.8375512
000060 a5 97 6e 3f 2b 89 6b 3f fe 79 83 3f b2 78 89 3f
       0.9320014 0.92006177 1.0271604 1.0739958
000070 d2 99 79 3f a3 68 6b 3f 60 9a 61 3f ed 46 8f 3f
       0.97500336 0.9195654 0.8812618 1.119352
000080 aa 2d 7f 3f b4 fb 95 3f f1 c0 80 3f cd 49 86 3f
       0.9967905 1.1717439 1.0058881 1.0491272
000090 5e 92 83 3f 71 e7 5c 3f cb a1 6d 3f f2 6b 83 3f
       1.0279043 0.8629065 0.92825 1.0267317
0000a0 45 30 8a 3f 32 58 61 3f 93 04 7f 3f cd fd 6a 3f
       1.0795981 0.880252 0.99616355 0.9179352
0000b0 80 b1 69 3f 6e cd 7b 3f 2f 87 78 3f a5 b1 8a 3f
       0.9128647 0.98360336 0.97081274 1.0835463
0000c0 74 0f 87 3f 2a 87 82 3f 8b ad 88 3f 99 08 77 3f
       1.0551591 1.0197499 1.0677961 0.96497494
0000d0 02 53 90 3f ac 88 7a 3f 96 27 74 3f 4b 49 81 3f
       1.1275332 0.97864795 0.95372903 1.0100492
0000e0 bd 9f 8b 3f 6e 67 7f 3f 6d 19 73 3f c8 6f 84 3f
       1.0908123 0.99767196 0.9496067 1.0346613
0000f0 29 df 8e 3f ad 08 72 3f 2e f1 74 3f cf d5 58 3f
       1.1161853 0.9454449 0.9568051 0.84701246

bn1.bias f4 [64]
000000 a6 a2 f6 bc fa 66 12 be 8f c7 0c 3e a4 f3 51 3d
       -0.030106854 -0.14297095 0.13748 0.051257744
000010 6a 02 fb bd b2 9d 1b bd a7 1f 3e 3d 7d 40 1e bd
       -0.1225632 -0.037992187 0.046416905 -0.03863572
000020 5c 96 c4 3d 56 c9 e1 3a 64 62 da 3c 0d 08 35 3d
       0.09598991 0.001722614 0.026658244 0.04419713
000030 09 66 81 3d 31 ad 37 bc 0a d1 40 be f7 9a 27 bc
       0.0631829 -0.011210726 -0.18829742 -0.010229818
000040 28 ac ac 3d e2 51 4f be ca f4 30 3d e6 95 2d 3d
       0.08431274 -0.2024608 0.0432022 0.042379282
000050 3d e2 99 bd a0 13 27 bd 90 b9 0d be cc d1 a9 3c
       -0.07513855 -0.0407902 -0.13840318 0.020729922
000060 34 2b b7 3d c0 04 1c 3a 67 b2 dc bd 3b 2c ab 3c
       0.08943787 0.00059516355 -0.10776215 0.020895114
000070 61 13 0b 3e a1 9e 54 bd c1 2d bd bd 17 0d 0e bd
       0.13581611 -0.051909093 -0.092372425 -0.034680452
000080 4b 9a 5d bd 9c 32 6b 3e a0 6e aa bd 89 6b d6 3d
       -0.054102223 0.22968525 -0.08321881 0.104697295
000090 f1 d0 97 3d 2a b0 cb 3c 0c ad 02 be bd 04 32 be
       0.07412899 0.024864275 -0.12761325 -0.1738462
0000a0 35 42 91 3d 67 8a 82 bd e4 90 a8 3d 3e 4a 16 bb
       0.07092706 -0.063740544 0.08230761 -0.0022932435
0000b0 fa 2d 1e bd d0 93 1a be 51 4d 82 3d ce 16 c0 bd
       -0.038618065 -0.15095448 0.06362403 -0.0937935
0000c0 92 75 cd bd 32 8a 82 bd 5b a3 8e bd 89 97 ef bd
       -0.100321904 -0.06374015 -0.06964751 -0.11698825
0000d0 04 a5 ec 3d b9 03 34 be 4a bc 12 be 4a c7 bc 3d
       0.11554912 -0.17579545 -0.14329639 0.09217699
0000e0 aa 69 30 be ed ca ac 3d d0 25 c3 3d 35 82 33 3d
       -0.17227808 0.084371425 0.095286965 0.043825347
0000f0 22 2d e1 bc 24 07 ad 3d c4 40 aa 3d 8d 5d ac be
       -0.027487341 0.084486276 0.08313134 -0.33665124

bn1.running_mean f4 [64]
000000 96 26 25 3a 5f 81 c1 39 c0 18 0c 3a a2 ee 8e 3a
       0.00063 0.00036908218 0.0005344264 0.0010904858
000010 60 b8 d9 39 ed 4a 22 ba 9d 9b 4d b9 58 07 9a 38
       0.00041526835 -0.00061909744 -0.00019608294 7.34466e-05
000020 ef 20 0e 39 04 c0 cb 39 d0 55 62 38 70 3f c0 b9
       0.00013554444 0.0003886224 5.3962518e-05 -0.00036668358
000030 e8 10 38 ba da 31 3c ba 11 7a 94 b9 ba 7c 11 ba
       -0.0007021562 -0.00071790593 -0.00028319706 -0.0005549897
000040 ac b6 28 ba 59 4d 32 39 1f 9a 85 39 41 00 13 3a
       -0.00064359116 0.00017004217 0.00025482566 0.0005607643
000050 71 c5 a9 b9 f5 c5 64 38 7b a7 10 3a 19 df b8 39
       -0.00032381297 5.4543798e-05 0.00055181206 0.00035261436
000060 07 03 b4 b8 98 f8 03 ba 0c 34 25 39 a9 0e 9b 39
       -8.583633e-05 -0.0005034297 0.00015755015 0.00029574826
000070 a8 45 fe b9 86 2d a7 37 c7 e6 35 ba bb d1 17 ba
       -0.00048498553 1.992915e-05 -0.00069389906 -0.0005791445
000080 ab 2a 2e 3a 54 e5 e2 b9 a3 22 91 38 fe 76 a9 38
       0.0006643931 -0.00043276942 6.9205904e-05 8.080712e-05
000090 5e 71 1f 39 e1 60 8a b8 08 03 d0 39 50 a4 2e ba
       0.00015205654 -6.598398e-05 0.0003967511 -0.0006662058
0000a0 48 f4 70 38 94 70 0a ba 99 8e 9c b9 9b 1e 42 35
       5.7447964e-05 -0.00052810577 -0.00029860882 7.231517e-07
0000b0 46 5b 00 b8 99 63 2b 3a 84 0d 33 39 02 3c 0c 3a
       -3.0602583e-05 0.00065379735 0.00017075805 0.0005349518
0000c0 45 86 1b 39 d3 d7 85 b9 84 c7 a9 39 36 4f a2 39
       0.00014831971 -0.00025528538 0.00032382843 0.00030958065
0000d0 0e 7a c2 b9 fc ad 91 b9 75 17 8b 39 ee 76 2e 39
       -0.000370935 -0.00027786184 0.00026529623 0.00016638238
0000e0 b7 2a e5 39 50 ac ce b9 92 60 8b b9 ee 0f 59 39
       0.0004371011 -0.00039419765 -0.00026584096 0.00020700667
0000f0 c6 56 54 3a 3d c4 da 39 fb 5a d0 b9 68 1d ad b8
       0.00081000885 0.0004172641 -0.00039740637 -8.25476e-05

bn1.running_var f4 [64]
000000 a9 90 2b 3b 87 a7 10 3c 0c 42 5c 3b 40 72 34 3b
       0.0026178753 0.008829004 0.0033608703 0.0027533919
000010 23 3e 33 3b fb 2a 04 3b 6f 90 62 3c 9c 63 85 3c
       0.0027350269 0.002016722 0.013828381 0.016282849
000020 12 c1 13 3b 8f 85 ef 3b 60 57 7f 3c 14 d3 de 3b
       0.0022545499 0.0073096226 0.015584797 0.006800065
000030 33 c5 30 3c 4f 8c 95 3c f6 9e a6 3b 8a eb 20 3c
       0.010789203 0.01825538 0.0050848676 0.009821782
000040 ae 65 a8 3b c0 31 bb 3c 10 36 ea 3c 2e 4f 4f 3b
       0.0051390743 0.022850871 0.028590232 0.0031632888
000050 1d 84 e1 3c 93 b2 17 3d 74 6e 26 3b c9 83 fc 3a
       0.027528817 0.037035536 0.0025395425 0.0019265349
000060 f1 b5 51 3b 25 f8 56 3c 96 a9 8e 3b a7 12 87 3c
       0.0031999315 0.013120686 0.0043537123 0.016488386
000070 27 81 93 3c 24 d2 22 3b b8 44 01 3b 60 d8 6d 3c
       0.01800592 0.0024844492 0.0019724797 0.01451692
000080 b9 56 3d 3c 61 98 50 3b 46 4b ab 3b 94 02 43 3c
       0.011556321 0.0031829106 0.005227479 0.01190247
000090 90 01 2f 3c 16 74 20 3b 35 07 bd 3c 7e a8 8a 3b
       0.010681525 0.0024483255 0.023074726 0.0042315116
0000a0 98 de 6a 3c af 03 e7 3b b1 b1 ec 3c 95 26 c2 3b
       0.014335297 0.0070499997 0.028893324 0.0059250095
0000b0 25 bf 3c 3c 59 cb 01 3d df f8 b4 3c dc c6 9d 3c
       0.011520182 0.031688068 0.022091327 0.019259863
0000c0 aa 9e 9e 3c 96 24 04 3c f7 a8 28 3c d7 1f 68 3c
       0.019362766 0.008065363 0.010294191 0.014167747
0000d0 c5 76 e7 3b bb 1d 2c 3b 6d d0 d6 3b 67 dd 80 3c
       0.007063719 0.0026262838 0.006555608 0.015730573
0000e0 b0 dd 5a 3b dc fa 6f 3b ce a9 8d 3b d3 ba 3d 3b
       0.0033396296 0.003661803 0.004323221 0.0028950467
0000f0 fd 80 60 3c b8 fa c4 3c 98 85 2a 3c 89 f7 8f 3c
       0.013702628 0.024045333 0.010407828 0.017574089

bn2.weight f4 [64]
000000 2f f9 8e 3f c5 6a 50 3f f7 45 8c 3f 38 f8 89 3f
       1.1169795 0.8141292 1.0958852 1.0778875
000010 80 4f 89 3f 40 0e 99 3f cb a7 89 3f ac 77 86 3f
       1.0727386 1.1957474 1.0754331 1.0505271
000020 84 a1 87 3f d5 d7 68 3f 3a da 9f 3f ee 89 75 3f
       1.0596166 0.90954334 1.2488472 0.9591359
000030 9b 74 87 3f e0 fe a3 3f f3 5f 8b 3f 0b ea 92 3f
       1.058246 1.2812157 1.0888656 1.1477674
000040 6c 43 84 3f 11 86 8b 3f 83 56 86 3f 6c 56 8e 3f
       1.0333076 1.0900289 1.0495151 1.1120124
000050 e5 b3 72 3f f3 78 8d 3f dd 15 92 3f ed 6f 88 3f
       0.9480575 1.1052536 1.1412922 1.0659157
000060 d9 aa a1 3f 5c 32 7a 3f 23 57 80 3f b5 d5 6d 3f
       1.2630264 0.9773309 1.0026592 0.92904216
000070 2c d9 90 3f a0 2e 8b 3f fd 7e 66 3f c2 1f 9e 3f
       1.1316276 1.0873604 0.9003752 1.2353442
000080 ec a5 85 3f 02 fc 84 3f 90 16 96 3f d0 79 7a 3f
       1.044126 1.0389407 1.1725636 0.9784212
000090 78 88 a2 3f b2 0a 89 3f d2 1d 83 3f 49 57 71 3f
       1.2697897 1.0706389 1.0243475 0.9427381
0000a0 7f a2 8b 3f 8d 47 82 3f 9a 6a 7b 3f 68 73 90 3f
       1.0908965 1.0178086 0.98209536 1.1285219
0000b0 49 27 7c 3f 14 ac 7e 3f 7d 15 90 3f 69 53 6e 3f
       0.98497444 0.9948132 1.1256558 0.93096024
0000c0 c7 83 9b 3f 60 e5 7e 3f 37 78 92 3f b0 75 8b 3f
       1.214959 0.9956875 1.1442937 1.089529
0000d0 6d 17 8b 3f 9a 7b ab 3f 8c 6d 93 3f 1f 7b 8b 3f
       1.0866524 1.3397095 1.1517806 1.0896949
0000e0 e7 82 60 3f 58 ae 88 3f 4b 02 8b 3f 3f b6 84 3f
       0.8769974 1.0678205 1.0860075 1.0368117
0000f0 10 59 8c 3f 40 00 95 3f d3 0f 86 3f 8b 1a 9e 3f
       1.096468 1.1640701 1.0473579 1.235185

bn2.bias f4 [64]
000000 19 5f 3d 3d cc 36 4e bd b5 e6 c8 3c ed 89 c9 3d
       0.04623327 -0.050345227 0.024524072 0.098407604
000010 6a 16 06 bd 1a 1d c1 bc cb db 10 be 8d af 13 3b
       -0.03273622 -0.023573447 -0.14146344 0.0022535056
000020 63 db 5f 3d fd e9 9b bd b5 49 7d 3e ad 9a 56 be
       0.054652583 -0.07612989 0.24735148 -0.20957442
000030 f2 5e 6a be 01 95 66 3c c0 59 85 be 22 0e 34 be
       -0.22887781 0.014073611 -0.26045036 -0.17583516
000040 33 be 10 3c 88 45 8c bd b9 13 81 be 77 5b 1d 3d
       0.0088344095 -0.068491995 -0.2521036 0.038417306
000050 cc b9 29 3d 16 57 9f 3d a8 ba f2 bc ef 6d 5c 3c
       0.041436955 0.07780282 -0.02963002 0.013453945
000060 92 29 26 3c 1d 73 74 3d 33 91 35 bc 13 dd 12 be
       0.010141747 0.059680093 -0.0110819815 -0.14342146
000070 f9 86 02 3b 3f 41 38 bd 4f 5d 01 be 16 6d 08 3d
       0.0019916876 -0.0449841 -0.1263325 0.033307157
000080 99 02 c6 bd 18 be 93 be 65 9e 97 bd f0 e6 5c 3e
       -0.09668464 -0.28855968 -0.07403258 0.2157247
000090 b5 19 fb 3d 89 22 c5 bd ae dc 45 3c 93 ed 32 be
       0.122607626 -0.09625728 0.01207654 -0.1747344
0000a0 0b 44 ad be 19 91 64 be 58 24 97 3d 0e 3f 8b be
       -0.33840975 -0.22320975 0.07379979 -0.27196544
0000b0 ab 85 1a 3e 8c 33 4d be d6 f5 00 3d 7f d9 a9 3d
       0.15090053 -0.20039195 0.031484447 0.08293437
0000c0 e8 45 b2 bd b7 b8 7c be 1b 29 0b be b7 eb 5f 3d
       -0.0870474 -0.24679838 -0.13589899 0.054668155
0000d0 b8 55 07 be 93 5c 51 3e 04 33 2a 3b 4a 80 e1 bd
       -0.13216293 0.2044547 0.002597035 -0.11010797
0000e0 77 8e 51 3c 60 6a 81 3d 19 35 25 bb d5 1f 4a 3e
       0.012790314 0.063191175 -0.002520865 0.19738705
0000f0 52 61 98 3d 6f 20 95 bd fa df 0a bd 4a 46 99 3e
       0.074404374 -0.07281577 -0.033905007 0.2993644

bn2.running_mean f4 [64]
000000 65 80 08 3f da 60 0f be a2 55 16 bf cd 60 86 3c
       0.53320915 -0.1400179 -0.58724415 0.01640358
000010 e0 df 32 3e e2 f9 62 be 91 7b ab 3f 92 48 62 3f
       0.17468214 -0.22165635 1.3397084 0.88391984
000020 19 7a 91 be 39 2b 1a be 49 ea 52 3e cf bf e8 3e
       -0.28413466 -0.1505555 0.20597185 0.45458838
000030 39 fc 07 bf 16 9d 2b be 17 aa 67 bf a9 32 ea be
       -0.53119236 -0.16759142 -0.9049391 -0.45741776
000040 dd be cf be 71 e8 93 be 56 54 5d bf f2 1f 9d be
       -0.40575305 -0.28888276 -0.8645681 -0.30688435
000050 64 82 04 be 18 21 38 bf 99 51 18 bf e0 ba 76 bf
       -0.12940365 -0.719255 -0.5949951 -0.963789
000060 b4 e6 4c 3f d5 57 c3 be 92 02 a8 3e fc 25 a7 be
       0.80039525 -0.38152948 0.3281446 -0.32646167
000070 9c c7 52 3f 8e 5b 34 3f 03 0a 72 be 13 b1 4f 3f
       0.8233583 0.704522 -0.23636632 0.8112957
000080 49 ae 18 3f 1f dc a9 bf 0d e8 98 be 96 44 36 bf
       0.5964094 -1.3270301 -0.2986454 -0.71198404
000090 d0 1e 4c bf 68 76 86 bf c3 b5 a0 3f 6c 70 5f bf
       -0.79734516 -1.0504885 1.2555469 -0.8728092
0000a0 35 59 2e 3f 71 6c 93 bf b6 1b 86 bf 24 d1 b5 3f
       0.6810487 -1.1517469 -1.0477207 1.420445
0000b0 02 42 f8 bc a5 e2 47 bd 1d 37 3a bf c9 07 0d 3e
       -0.030304912 -0.04880013 -0.72740346 0.13772501
0000c0 1d 6c 8d 3f b9 5e 50 bf cf 67 c0 3e ef 66 ff be
       1.1048619 -0.81394535 0.375792 -0.4988322
0000d0 47 95 98 be c9 20 b9 3e 70 7f 23 bd 23 2d db 3f
       -0.2980139 0.36157826 -0.039916456 1.712315
0000e0 38 34 0f bf 4f ef 5a be 10 3e 7b bf 00 6d 0e be
       -0.55939054 -0.21380351 -0.98141575 -0.13908768
0000f0 c8 43 7b bf ab b3 bc be 53 78 72 3e 47 a1 83 be
       -0.981503 -0.36855826 0.23678713 -0.25708982

bn2.running_var f4 [64]
000000 70 5a cb 3f 72 23 6e 3f 35 27 0a 3f b2 c6 94 40
       1.5886974 0.93022835 0.53966075 4.649255
000010 16 d6 05 3f 0a 82 88 40 81 4d 59 40 3d bb 9e 40
       0.52279794 4.265874 3.3953555 4.960356
000020 90 9a 8c 40 1a 72 1e 3f ab 1f 78 40 aa 08 a0 3f
       4.3938675 0.61892855 3.8769329 1.2502644
000030 10 7b 37 3f 27 0f 13 40 ef 55 65 3f 0b 2d cc 3f
       0.71672153 2.2977998 0.8958425 1.5951246
000040 50 af 49 3f c0 0b 8b 3f de e7 a6 3e 3a c5 ca 3f
       0.7878313 1.0862961 0.32598776 1.5841439
000050 c5 84 5e 3f 8b a6 04 40 f5 ca ba 3f 44 82 0b 3f
       0.8692134 2.072665 1.4593188 0.54495645
000060 a3 37 53 40 93 29 ee 3e 9c 12 36 3f 63 f0 c3 3e
       3.3002708 0.46516094 0.71122146 0.38269338
000070 bf 17 e4 40 fc 9d 4e 3f bd a6 9b 40 ed fd a8 40
       7.1278987 0.80709815 4.864104 5.280997
000080 d4 88 1f 40 9a 71 19 3f 09 8a 06 3f 7e 0a 93 3f
       2.4927263 0.5993897 0.52554375 1.1487577
000090 e0 fe b2 40 4b 3f 02 40 b2 70 62 3f d9 cf 03 3f
       5.5936127 2.035113 0.8845321 0.51489025
0000a0 db a9 8d 3f 93 e1 b5 3e 37 7e 9b 3f 9b 70 16 3f
       1.1067461 0.35523662 1.2147893 0.5876557
0000b0 dc 1a f1 3e 17 c9 7a 3f 95 e4 b2 3f 28 e7 e9 3f
       0.47090805 0.9796309 1.3976008 1.8273668
0000c0 f9 e7 73 40 58 4b 5b 3f 65 ea 34 40 48 ac fc 3f
       3.8110335 0.8566184 2.8268063 1.9740076
0000d0 88 cc 90 3f e3 4d 96 40 57 0f 60 40 c3 c2 92 3f
       1.1312418 4.6970077 3.5009363 1.1465687
0000e0 d6 d0 8d 3f 6f 37 22 40 42 ca a0 3f 7b 8b a0 3f
       1.1079357 2.5346334 1.2561724 1.2542566
0000f0 54 43 71 40 a3 a4 42 40 bb 71 16 40 1d 52 54 40
       3.7697344 3.0412986 2.3506916 3.3175118

bn3.weight f4 [64]
000000 4a 8f 88 3f 84 1d 64 3f 01 f8 8d 3f 37 e4 81 3f
       1.0668728 0.8910754 1.109131 1.0147771
000010 dc da 79 3f 1f 6e 8b 3f 89 cb 8a 3f f3 7f 5b 3f
       0.9759958 1.0892981 1.0843364 0.8574211
000020 70 fc 67 3f 79 2f 86 3f a7 51 60 3f be ea 6f 3f
       0.90619564 1.0483238 0.8762459 0.93717563
000030 9c 49 8e 3f 69 44 77 3f a4 21 60 3f 8e bc 68 3f
       1.1116214 0.9658876 0.8755133 0.9091271
000040 85 19 5f 3f 23 07 8e 3f 47 df 7b 3f 53 ac 70 3f
       0.87148315 1.1095928 0.9838757 0.94012946
000050 56 f8 89 3f a5 cc 82 3f 7f 4d 4d 3f 1e b6 72 3f
       1.0778911 1.0218703 0.80196375 0.9480914
000060 35 22 84 3f 7b ab 51 3f 9e 58 42 3f 34 cc 7a 3f
       1.0322939 0.81902283 0.7591647 0.9796784
000070 cb c8 6c 3f ad 54 5a 3f 1a c5 7d 3f b7 6e 9f 3f
       0.92493886 0.85285455 0.9912888 1.2455662
000080 b2 e3 88 3f b5 e5 72 3f 57 c3 86 3f c9 88 8c 3f
       1.0694487 0.94881755 1.0528363 1.0979244
000090 c8 d0 87 3f 44 75 82 3f 34 fd 83 3f 98 18 64 3f
       1.061059 1.0192037 1.0311646 0.8910003
0000a0 01 6c 66 3f 59 df 79 3f ef 67 7b 3f 97 71 74 3f
       0.9000855 0.97606426 0.98205465 0.95485824
0000b0 3b 60 8a 3f 94 64 6d 3f fe 1b 9b 3f fc 0b 7d 3f
       1.0810617 0.92731595 1.2117918 0.9884641
0000c0 de 53 91 3f 11 e4 68 3f ee da 8f 3f 92 e5 8b 3f
       1.1353719 0.90973 1.1238687 1.0929434
0000d0 68 92 56 3f 98 d4 80 3f a3 2b 7a 3f a2 a7 86 3f
       0.8381715 1.0064878 0.97722834 1.0519907
0000e0 6c 40 80 3f 91 1b 6b 3f 69 e4 6d 3f 5e 5b 89 3f
       1.001966 0.9183894 0.9292665 1.0731008
0000f0 fb 85 82 3f 3c dd 79 3f 18 1f 5f 3f 00 be 95 3f
       1.0197138 0.976032 0.8715682 1.1698608

bn3.bias f4 [64]
000000 0b 6e 1c be 29 8a a3 3d 21 aa 95 bd 09 63 ab 3d
       -0.15276353 0.07985336 -0.0730784 0.08368499
000010 6d 2b 91 3c 0f c4 12 bd 26 f7 bc be f7 07 1d be
       0.017720902 -0.035831507 -0.3690731 -0.1533507
000020 93 ac ca bd 65 ee c7 bc 93 fe d0 bd 48 8b c8 bd
       -0.09896197 -0.024405668 -0.10204806 -0.09792191
000030 46 78 98 bd 9c 31 33 be 73 2f 01 be 15 26 ab bd
       -0.07444815 -0.17499393 -0.12615757 -0.08356873
000040 ff a7 9f bc 5e 25 0c be 87 b3 9c be 06 4e eb bd
       -0.019489286 -0.1368613 -0.30605718 -0.11489491
000050 63 2f 87 be f7 a5 19 bd e6 0c 0f be f7 44 cf bd
       -0.2640334 -0.037511792 -0.13969764 -0.10120576
000060 92 14 38 be 9e e1 11 bc 37 db d2 3b 18 09 2b 3e
       -0.17976597 -0.008903889 0.006434824 0.16702688
000070 38 b1 10 be be 10 22 be c1 7d 4e be 3f 2d 33 be
       -0.14130104 -0.15826699 -0.20165159 -0.17497729
000080 1d d8 4d bd 08 af 01 3e f1 70 5b be f8 68 e2 bd
       -0.05025493 0.12664425 -0.21429802 -0.110551775
000090 3a f0 11 bc 15 0a 6e bd fe 07 a0 bd 20 7e 03 be
       -0.008907372 -0.058115084 -0.078140244 -0.12841082
0000a0 55 c4 50 be 64 64 ee bd 47 9c 0c be bf 62 39 bd
       -0.20387395 -0.11640242 -0.1373149 -0.045260187
0000b0 17 84 1e bd aa ec 3c 3e 54 48 ac be 21 99 d0 3d
       -0.03870019 0.18449655 -0.33648932 0.10185457
0000c0 11 3f 49 be 98 5f 87 3d 6b 1f 03 3e bc 29 88 bd
       -0.19652964 0.0661003 0.12804954 -0.06648585
0000d0 d1 c5 6a bd a9 67 14 be 52 16 50 bd 37 75 c2 bd
       -0.05731756 -0.14492668 -0.050802536 -0.09495013
0000e0 f4 71 c2 3d 54 c3 57 3d 99 04 90 bc 66 c0 39 be
       0.09494391 0.052676514 -0.017580317 -0.181398
0000f0 3e bf 95 3d d2 37 7b be a5 78 e8 bd c3 50 ad bd
       0.07311867 -0.24533013 -0.11351136 -0.0846267

bn3.running_mean f4 [64]
000000 28 08 b1 bf 22 c6 cd bf 7c 17 76 3f 04 72 de 3c
       -1.3830614 -1.607609 0.96129584 0.027153976
000010 7a 44 45 be 29 59 9b 3f ed a5 a7 3e 8a a8 c0 3e
       -0.19264403 1.2136585 0.3274378 0.37628585
000020 93 60 45 3f a7 e4 86 be 60 14 03 3f a0 36 0d 40
       0.77100486 -0.26346323 0.51202965 2.206459
000030 f8 fb a7 bc 6b 9f 93 bf fd ed a5 be 06 e3 ae 3f
       -0.02050589 -1.1533026 -0.32408133 1.3663032
000040 a5 c9 67 3e 8a 5d e7 bf f8 39 f4 be f7 6b ba bf
       0.22635515 -1.8075421 -0.47700477 -1.4564198
000050 2f 8f 45 3f a1 ea 47 bf d6 ca 86 3f dd 40 cc 3f
       0.77171606 -0.7809239 1.0530651 1.5957295
000060 d2 ef bc bf d9 b4 8b bd 46 d3 64 bf 25 2c a4 bf
       -1.4760687 -0.06821603 -0.8938488 -1.2825972
000070 8a 33 78 3f ef 8d d3 bf 0a 81 71 3c b7 fd b9 bf
       0.9695364 -1.652769 0.014740238 -1.4530553
000080 d8 4a a6 3f 01 e1 ed 3d 49 3b ab bf 83 41 1c c0
       1.299159 0.11615182 -1.3377467 -2.4414985
000090 5c d8 c5 be e6 2e 86 bf 0f ac ba bf b1 b0 cb be
       -0.38641632 -1.0483062 -1.4583758 -0.39783242
0000a0 c8 89 ea be 16 82 3d 3f a4 81 bb bf 2a 7d 4a bf
       -0.45808244 0.7402662 -1.4648938 -0.79097235
0000b0 1b c6 23 40 b5 3e b9 3f dd bd 03 c0 11 27 bf bf
       2.5589664 1.4472262 -2.0584633 -1.4933797
0000c0 ee 13 f7 3f d4 bb 87 3f db 6a 5f 3d 4f af 22 c0
       1.9302957 1.0604196 0.054545265 -2.54195
0000d0 9a d3 63 bf 45 6a 86 3e a8 b9 61 bf db fc 9d 3f
       -0.88994753 0.26252952 -0.88173914 1.234279
0000e0 7f 7e 10 3f f2 31 06 bf a6 a9 3e 3f 89 2e 2a bf
       0.5644302 -0.5241996 0.7447761 -0.66477257
0000f0 9e fc a8 3f ab 9c 9d bf 3a 74 bf 3f ce 70 98 3e
       1.3202093 -1.2313436 1.4957345 0.29773563

bn3.running_var f4 [64]
000000 2f 0d 71 3f 32 7c b5 3f c3 31 98 3f 94 11 88 3f
       0.9416074 1.4178526 1.1890186 1.0630364
000010 0b ae eb 3f c0 ac 94 3f 69 ab 6c 3f a2 93 a5 3f
       1.8412489 1.1615219 0.9244905 1.2935679
000020 13 b5 ae 3f 8a 58 5d 40 48 1c f3 3f 1d 7c d1 3f
       1.364901 3.458529 1.8993006 1.6366001
000030 a0 2b 69 3f 2b 01 c3 3f b2 7b f0 3f c2 69 c6 3f
       0.9108219 1.5234731 1.8787749 1.5501025
000040 03 2d 45 40 5d 67 a6 3f a8 c4 d2 3f 53 3a d2 3f
       3.0808723 1.3000294 1.6466265 1.6424049
000050 da 70 78 3f 26 29 b3 3f 4c 7d db 3f cd ad 22 3f
       0.970472 1.3996933 1.7147613 0.6354645
000060 16 a5 74 3f b3 ce 63 3f 3c 54 8e 3f aa ae c2 3f
       0.955644 0.8898727 1.1119456 1.5209553
000070 22 28 84 3f 5c c9 19 3f b0 54 a5 3f a6 f6 9b 3f
       1.0324748 0.60072875 1.291647 1.2184646
000080 20 b8 af 3f f3 e0 11 40 5d 1d 6e 3f 7d ac 08 3f
       1.3728065 2.2793548 0.93013555 0.53388196
000090 dd 35 b0 3f f4 f6 1e 40 49 d8 b8 3f d3 6c a0 3f
       1.3766438 2.4838228 1.4441005 1.253321
0000a0 79 0b 44 3f b5 2b 1e 40 08 d0 a7 3f 3b 49 46 3f
       0.76580006 2.4714177 1.3110361 0.7745549
0000b0 33 8e 81 3f 68 da 2d 3f 96 d7 3f 3f fc c6 14 3f
       1.0121521 0.67911386 0.74938333 0.58116126
0000c0 67 c9 47 3f c3 47 85 3f fb b1 cb 3f 10 c5 49 3f
       0.7804169 1.0412525 1.591369 0.7881632
0000d0 37 e9 2c 3f 9a f6 5c 3f bb b1 b1 3f 85 9a 9d 3f
       0.6754336 0.86313784 1.3882364 1.2312781
0000e0 24 bc be 3f f4 82 0c 40 22 2b f7 3f 69 b9 17 40
       1.4901166 2.1954927 1.9310038 2.3706915
0000f0 35 7d 8c 40 f1 0b dd 3f 71 f5 4f 3f 1d 7d d1 3f
       4.390284 1.7269269 0.8123389 1.6366307

bn4.weight f4 [64]
000000 14 ac 4e 3f ba f7 75 3f a8 fe 54 3f 48 52 65 3f
       0.8073132 0.96081126 0.83201075 0.89578676
000010 d2 f6 3d 3f b0 00 56 3f ba 9a 76 3f df 25 8d 3f
       0.7420474 0.835948 0.96329844 1.1027182
000020 70 6a 57 3f aa bc 74 3f b2 a2 65 3f 21 38 80 3f
       0.84146786 0.9560038 0.8970138 1.0017129
000030 1b 22 63 3f a7 cc 49 3f 1c 5a 55 3f 28 61 8b 3f
       0.88723916 0.788279 0.8334062 1.0889025
000040 ed 9e 53 3f cb bc 4b 3f d8 f8 40 3f 1e 3f 63 3f
       0.82664376 0.7958495 0.75379705 0.88768184
000050 32 2f 60 3f b5 a5 7a 3f c1 f8 6e 3f a6 12 4d 3f
       0.87572014 0.979091 0.9334832 0.8010658
000060 e3 5f 49 3f db 3f 80 3f 3b e2 7a 3f ec 84 81 3f
       0.78661937 1.0019487 0.9800145 1.011869
000070 db b5 80 3f 30 5f 72 3f 0e 6c 46 3f ff 4e 60 3f
       1.0055498 0.94676495 0.7750863 0.8762054
000080 52 7d 59 3f a9 d6 5a 3f f9 48 6c 3f 36 aa 69 3f
       0.8495685 0.85483795 0.9229885 0.91275346
000090 82 de 5c 3f a8 d9 4e 3f 88 ef 76 3f 47 f7 88 3f
       0.8627702 0.8080087 0.96459246 1.0700463
0000a0 03 ad 6e 3f 08 14 5b 3f 2d 2d 48 3f df f7 76 3f
       0.93232745 0.8557744 0.7819393 0.9647197
0000b0 23 a7 74 3f 4e bc 69 3f 40 94 67 3f a0 7a 68 3f
       0.9556753 0.91302955 0.90460587 0.9081211
0000c0 6d 33 57 3f 62 7c 7f 3f 8b 1d 5f 3f d6 d8 56 3f
       0.84062845 0.9979917 0.87154454 0.83924615
0000d0 52 e3 70 3f ee 88 5c 3f 75 b5 6a 3f 33 56 55 3f
       0.94096863 0.8614644 0.9168313 0.83334655
0000e0 1a 9c 54 3f 48 a2 36 3f b5 30 74 3f c2 20 66 3f
       0.8305069 0.7134137 0.9538682 0.89893734
0000f0 50 37 76 3f 42 46 78 3f 89 24 82 3f cf 37 5d 3f
       0.9617815 0.96982205 1.01674 0.8641328

bn4.bias f4 [64]
000000 1b 94 80 be 50 4d 28 be d5 94 5b be bd e0 cd be
       -0.25112996 -0.16435742 -0.21443494 -0.40210524
000010 2a 90 ac bc cf 5a ca bc b6 7c fd be 91 c6 f2 bd
       -0.021064837 -0.024701504 -0.4950921 -0.1185428
000020 73 e5 50 be a4 14 bf be a6 95 9d be b8 e5 e7 bd
       -0.20400028 -0.37320435 -0.30778235 -0.11323112
000030 a5 ef 95 be 30 3e 7d be 37 ab 80 be 60 5d b0 be
       -0.29284397 -0.24730754 -0.25130627 -0.3444624
000040 58 8f d8 bd 86 d6 29 be 91 9f cd bd 33 4f cc 3c
       -0.10574216 -0.1658574 -0.100402005 0.024940109
000050 7b 16 0f bf bc 23 64 be 95 cf 94 be 89 2c 15 be
       -0.5589368 -0.22279257 -0.29064623 -0.1456777
000060 65 7e ca bd 96 16 85 be 88 7d c8 3d 0a bb 71 be
       -0.09887389 -0.25993794 0.09789568 -0.23606506
000070 b0 8c 33 be 6d ad 34 be 6e 2a 93 be 57 b1 60 bd
       -0.17534137 -0.17644282 -0.2874331 -0.054856624
000080 08 8c 0e be ca 6d 72 be a4 18 13 be 80 8b bf bd
       -0.13920605 -0.23674694 -0.14364868 -0.093527794
000090 18 0e bc be 20 ee 0a be 0c fe 01 bf 72 80 b2 be
       -0.36729503 -0.135674 -0.5077827 -0.3486362
0000a0 19 3f 0a be 6a 44 c6 be 9e 5c 1c be f3 d2 7b be
       -0.13500632 -0.3872407 -0.15269706 -0.2459219
0000b0 b0 98 57 be 29 9a 91 be 71 cc fc bd 12 c5 8c be
       -0.2105434 -0.28437927 -0.123436816 -0.27494103
0000c0 82 1c 50 be d6 aa 3b be 94 ad 8f bd 8a d1 8a be
       -0.20323375 -0.18326887 -0.07015529 -0.2711299
0000d0 dc c3 9d be 48 2d 91 be c0 2f 2d be ea b6 f0 bc
       -0.3081349 -0.2835486 -0.16912746 -0.029384095
0000e0 fa 6d 8f be 06 f6 81 3b e5 f2 57 bd 10 f2 a5 bb
       -0.28013593 0.003966096 -0.052721877 -0.0050642565
0000f0 65 2f 93 be 1f 21 c6 be d7 67 ab be 64 98 27 be
       -0.28747097 -0.38697144 -0.3347766 -0.16366726

bn4.running_mean f4 [64]
000000 9e 9c c0 be 67 3b ff be 89 1b 12 bf 3b aa d0 bd
       -0.3761949 -0.49850008 -0.57073265 -0.10188719
000010 00 9d 13 bf 08 46 77 bf 03 f3 31 3f 0f ef 2a 3f
       -0.5766144 -0.96591234 0.6951143 0.66771024
000020 67 68 32 3e bb 6e 48 3e 9c 21 04 3f 9b cb cd bd
       0.17422639 0.1957349 0.51613784 -0.100486
000030 56 34 ee bd 5e 02 65 bf 0a 5c 1c bf 58 dc ed be
       -0.11631076 -0.8945674 -0.6107794 -0.4645717
000040 b7 c2 12 bd b6 78 27 bf b5 08 6e bd 8d 86 05 bf
       -0.035830226 -0.65418565 -0.058113772 -0.52158433
000050 bf 1c 0b 3e 0c 75 ff 3e b5 9b 04 bf e3 33 20 bf
       0.13585185 0.49893987 -0.5180009 -0.6257917
000060 f1 90 95 be 3c 39 2d bf ef b3 59 bf b7 7e a8 3e
       -0.29212144 -0.6766546 -0.8504018 0.32909176
000070 28 6d 32 bf 43 0d 9e be da 18 b6 3d df 11 a0 be
       -0.6969781 -0.30869493 0.08891459 -0.31263635
000080 e3 9c b3 be 82 6d 87 3d 92 9a 40 3e 62 2d a6 3e
       -0.35080633 0.06612684 0.18808964 0.324565
000090 58 0f 24 bf 7a 85 0b bf 64 68 2b bf 21 50 89 be
       -0.6408591 -0.54500544 -0.6695616 -0.26818946
0000a0 2d 4b 9b bf 98 a3 10 3e 43 3f 26 3e 39 e2 2e bf
       -1.2132317 0.14124906 0.1623507 -0.6831394
0000b0 1e 66 ee be 31 85 ee be 08 c4 03 bf f1 2b 19 bf
       -0.46562284 -0.46585992 -0.51470995 -0.59832674
0000c0 37 fd 2b 3e 06 13 81 bd 86 ee 40 bf ae 38 5c be
       0.16795813 -0.063024566 -0.7536396 -0.21505997
0000d0 2b 32 37 3e 01 0b 1e bf d6 91 ae bf 62 01 ac be
       0.17890231 -0.6173554 -1.3638256 -0.33594805
0000e0 67 c4 e3 3e b5 7f cb be a4 d0 3f be 23 cd 4b 3e
       0.4448578 -0.3974587 -0.18731934 0.19902472
0000f0 6e fb 69 be dd af ce be fb bf 63 3f ef 2e bd bd
       -0.22849819 -0.40368548 0.88964814 -0.092374675

bn4.running_var f4 [64]
000000 54 76 ae 3f 87 a4 80 3f 95 79 80 3f 43 05 0e 3f
       1.3629861 1.005021 1.0037104 0.5547678
000010 13 1e 15 3f 16 9b a4 3f c1 b4 99 3f f7 4e f3 3f
       0.58249015 1.2859828 1.2008287 1.9008473
000020 0d 93 4d 3f 1e e3 8d 3f 77 da 5e 3f 21 d4 81 3f
       0.80302507 1.1084936 0.870521 1.0142862
000030 ec 60 2e 3f 8e 2b 2d 3f fb fe ae 3f bb 45 13 3f
       0.6811664 0.67644584 1.3671564 0.57528275
000040 c2 17 3f 3f ad 48 75 3f fe ce 12 3f 15 30 67 3f
       0.74645627 0.9581402 0.57347095 0.9030774
000050 c8 c3 db 3e 1c 17 45 40 39 3e 17 3f a5 3f 23 3f
       0.42922807 3.0795355 0.5907932 0.6376899
000060 f2 89 73 3f 46 ce 37 3f 73 57 92 3f 00 6f 23 40
       0.9513236 0.71799123 1.1432937 2.55365
000070 f5 c6 17 40 89 e6 0a 40 bf 94 e7 3e a4 5e 8d 3f
       2.3715184 2.1703207 0.45230672 1.1044507
000080 25 29 47 3f ce 83 28 40 21 b4 85 3f 71 89 25 3f
       0.77797157 2.6330447 1.0445596 0.64662844
000090 23 45 03 3f 18 18 9c 3f 09 bf b9 3e 45 fe 15 3f
       0.5127737 1.2194853 0.3627856 0.5859111
0000a0 e5 39 1d 3f 45 3c 48 3f 6d 76 b7 3f 43 0c 03 3f
       0.61416465 0.78216964 1.4333016 0.51190585
0000b0 0c 9b 6b 3f ea f9 84 3f 52 21 52 3f 92 8e 4a 3f
       0.9203346 1.0388768 0.8208209 0.79123795
0000c0 b9 c0 4d 3f b3 c9 46 3f 90 02 94 3f c6 6a 91 3f
       0.80372196 0.7765152 1.1563282 1.136071
0000d0 66 ed 8c 3f 96 9e ad 3f 75 44 5e 3f e1 56 79 3f
       1.1009948 1.3564022 0.8682321 0.9739819
0000e0 22 9a b9 3f a6 43 af 3e f1 b2 23 3f 66 52 66 3f
       1.4500163 0.342313 0.6394492 0.8996948
0000f0 44 31 69 3f e0 7b 3d 3f ae d4 b0 3f c5 62 3a 3f
       0.910908 0.74017143 1.3814905 0.7280696

bn5.weight f4 [64]
000000 2b 18 75 3f 43 56 87 3f 9b 63 5e 3f 44 88 8f 3f
       0.9574 1.05732 0.86870736 1.121346
000010 db fd b8 3f c9 03 66 3f f5 79 93 3f ca 2c 94 3f
       1.445247 0.89849526 1.1521593 1.1576169
000020 77 69 ca 3f d3 24 5a 3f 75 7c 81 3f 16 88 84 3f
       1.5813435 0.8521244 1.0116106 1.035403
000030 2a 1d 7d 3f 49 cb 83 3f 2c fe ad 3f be 14 67 3f
       0.98872626 1.0296413 1.3593192 0.90266025
000040 be 8c 73 3f 60 3b 93 3f e1 b7 6e 3f a2 d9 95 3f
       0.9513663 1.1502495 0.93249327 1.1707041
000050 d2 13 87 3f 44 16 7a 3f b6 3f 74 3f c7 51 84 3f
       1.0552924 0.97690225 0.95409715 1.0337456
000060 0b 71 7a 3f 55 77 59 3f 09 b3 84 3f 89 86 aa 3f
       0.9782874 0.8494771 1.0367137 1.3322307
000070 37 01 70 3f 83 fd 70 3f 2c 31 60 3f 12 56 58 3f
       0.93751854 0.9413683 0.8757503 0.8450633
000080 76 00 8b 3f 69 02 90 3f f5 17 56 3f 80 3d 85 3f
       1.0859516 1.1250736 0.83630306 1.0409393
000090 3a 34 72 3f e4 cc 91 3f f7 11 80 3f aa 20 86 3f
       0.9461094 1.1390653 1.0005482 1.0478718
0000a0 bc 4c 83 3f 50 6e 81 3f b8 4e 77 3f d0 49 6b 3f
       1.0257792 1.011179 0.9660449 0.91909504
0000b0 5d dd 8c 3f 54 5b 76 3f cc 73 94 3f 61 2b 5e 3f
       1.1005055 0.96233106 1.1597838 0.8678494
0000c0 f4 bb 91 3f 68 75 ab 3f b1 fd a3 3f 9e 64 4b 3f
       1.1385484 1.3395205 1.2811795 0.79450405
0000d0 00 fc 6d 3f 9d 0a 93 3f c3 3f 81 3f 7b 6b 6a 3f
       0.92962646 1.1487614 1.0097584 0.9157025
0000e0 5a 89 8d 3f d5 38 8e 3f 35 bb 79 3f ea dd 92 3f
       1.1057541 1.1111094 0.9755128 1.1473973
0000f0 20 34 49 3f db a3 97 3f 4a d6 65 3f bd 48 6b 3f
       0.7859516 1.184688 0.89780104 0.91907865

bn5.bias f4 [64]
000000 37 c2 8b bd ee 0e 89 be d4 b4 a8 be 03 d0 b8 be
       -0.06824153 -0.26769203 -0.3295046 -0.360962
000010 14 e1 3f bf ab 7c c9 be 3b e3 cc be 82 6f 0e bf
       -0.74952817 -0.39352927 -0.40017113 -0.556389
000020 61 b7 07 bf 46 92 5f be db ff 62 be bb ef 1a 3d
       -0.5301419 -0.21833143 -0.22167914 0.03782628
000030 59 15 c7 be 57 f6 6c be 67 4e 44 3d ca 5a bc be
       -0.38883474 -0.23140846 0.047926333 -0.36788017
000040 7b 83 3a be 20 c9 46 3e 75 f3 49 be 70 22 e8 be
       -0.18214218 0.1941266 -0.19721778 -0.45338774
000050 42 17 a5 be 5a e7 9d be 97 c7 4c be fb 3a 8e be
       -0.32244307 -0.3084057 -0.19998012 -0.27779374
000060 36 7a 30 3c 51 f5 61 be f5 a3 97 be 47 a6 13 bf
       0.010771325 -0.22066237 -0.29617277 -0.57675594
000070 9c b7 b8 be 61 e2 1f be 9d 73 c9 bd 09 2f 90 be
       -0.36077583 -0.156137 -0.098365046 -0.28160885
000080 11 5a 43 be 41 54 86 be f3 a2 27 bc 88 c3 d5 be
       -0.19077326 -0.26236156 -0.010231721 -0.4175074
000090 84 6d 30 be 29 c2 e9 be 33 79 b3 bd 7a 45 82 be
       -0.17229277 -0.45655945 -0.08763351 -0.2544363
0000a0 1e 4f 8d be 97 63 92 be a0 fd c1 be b4 84 92 bd
       -0.27599424 -0.28591606 -0.37888813 -0.07154217
0000b0 4f f2 61 bd a2 aa 7f be 6e 7d 14 bf 11 c2 28 be
       -0.055162724 -0.24967435 -0.5800389 -0.1648028
0000c0 d0 73 a4 bd 85 2e c3 be 1e 88 42 be 47 8c 00 be
       -0.08029902 -0.3812143 -0.18997237 -0.12553512
0000d0 3f d8 b3 be 6e 5f a3 be 3d 3a a0 3d f9 02 69 be
       -0.3512592 -0.31908745 0.07823608 -0.2275504
0000e0 4c ec 9d be 25 2c ce be ff 22 a9 be 8e 3f d0 be
       -0.30844343 -0.40268055 -0.33034512 -0.40673488
0000f0 0b e6 0a be 30 e4 42 3e 83 5f 35 bd aa ac bb be
       -0.13564317 0.19032359 -0.04428054 -0.3665517

bn5.running_mean f4 [64]
000000 5b 81 3c 3f aa cf a2 bd 6e 29 0f bf 0e c8 86 bd
       0.7363488 -0.07949765 -0.5592259 -0.06581126
000010 d9 78 49 bf 44 37 83 3e f1 3d a0 be be a3 5f 3d
       -0.78700024 0.25628102 -0.31297258 0.054599516
000020 eb 76 b5 be da ea 39 bf 83 e4 f8 3d 47 b9 9a bf
       -0.3544229 -0.7262398 0.1215296 -1.2087792
000030 6c 23 07 3e 97 a1 14 3f 7c e5 8f be 2d 05 05 bf
       0.13197106 0.58059067 -0.2810477 -0.5196102
000040 2b a0 f3 3d ac 8a 01 bf f5 99 e7 be 5c 0d 54 bf
       0.11895784 -0.5060222 -0.45234647 -0.82832885
000050 d3 47 15 3f 69 27 54 bf 1d d4 23 be c5 d1 cb be
       0.5831272 -0.82872635 -0.15998884 -0.3980848
000060 2e 7f d1 be fb 5b 0a bf 80 c0 86 be 32 19 30 3e
       -0.40917343 -0.540466 -0.2631874 0.17197111
000070 70 b7 0e bf 5c 04 5c 3c 14 8f 15 3d 7f f9 0e be
       -0.55748653 0.013428774 0.036513403 -0.13962363
000080 6d b8 a8 bf d3 a8 a7 be 7e fb 21 bd df c5 3c bf
       -1.3181282 -0.3274599 -0.039546482 -0.7373943
000090 ac 8a 9c be 6c 2d 02 bf 27 8b 0a 3f b3 a2 54 bf
       -0.30574548 -0.5085056 0.5411858 -0.8306076
0000a0 6c 5d 2d be a9 ac c3 be 7b 5c 0b 3e dd a3 45 be
       -0.16930169 -0.38217667 0.13609497 -0.1930079
0000b0 44 d2 1f 3e 95 66 0b be 68 29 7b be ee 97 8e be
       0.15607554 -0.1361335 -0.24527514 -0.27850288
0000c0 6a 6a ed be 7f 43 e6 be c4 45 32 bf cb b4 29 be
       -0.4637025 -0.4497337 -0.69637704 -0.16572873
0000d0 73 9b ae bd 82 ef ee bd e5 24 6d 3c ca 85 b1 be
       -0.08525743 -0.11666776 0.014474128 -0.34672385
0000e0 d9 fb 56 3f 7d c2 d1 be 79 c4 75 3f 54 7d 68 be
       0.8397804 -0.40968695 0.9600292 -0.22704059
0000f0 c1 a0 9a bd 66 0a 4d bd ce 0d 8e 3e c8 0f 83 bd
       -0.075501926 -0.050058745 0.27744907 -0.063994944

bn5.running_var f4 [64]
000000 a0 df d8 3e 48 8e 5c 3f 6e 16 03 3f 29 33 44 3f
       0.42358112 0.86154604 0.512061 0.76640564
000010 16 30 06 3f 73 c5 f7 3e 96 dd 0d 3f 2d 44 20 3f
       0.52417123 0.4839283 0.5541624 0.6260403
000020 ca 96 1e 3f 12 78 cb 3e 6b 9e 96 3f f8 97 20 3f
       0.61948836 0.39740044 1.1767095 0.62731886
000030 c2 4d 00 3f 8e 2f 0c 3f 63 3b 5f 3f 95 4e d2 3e
       0.5011865 0.5476006 0.8719999 0.41075578
000040 2b 4c 1d 3f 91 40 08 3f 0e ea 3e 3f 04 66 dd 3e
       0.6144435 0.5322352 0.7457589 0.43241894
000050 18 8b 23 3f ef 4d 24 3f a7 a3 74 3f 0b cb b8 3f
       0.63884115 0.6418142 0.95562214 1.4436964
000060 0b ee 46 3f f1 ea 21 3f a6 e5 e8 3e 90 dc f8 3e
       0.77706975 0.6324912 0.45487708 0.48605776
000070 be 4b d5 3e 70 5a 34 3f 7a 65 d5 3e 14 7f 8d 3f
       0.4165935 0.70450497 0.41678983 1.1054406
000080 02 98 eb 3e 04 c2 7d 3f 19 c1 0d 3f 73 82 be 3e
       0.4601441 0.9912417 0.5537277 0.372089
000090 7e 3e 10 3f 57 f2 ee 3e 5f 1c 3d 3f e3 89 1f 3f
       0.56345356 0.46669266 0.73871416 0.62319773
0000a0 4b f3 1e 3f e6 e0 49 3f 1d 79 08 3f e0 80 95 3f
       0.62089986 0.7885879 0.53309804 1.1679955
0000b0 a0 38 22 3f a3 c4 2b 3f 0e 24 c7 3e 24 4a 53 3f
       0.6336765 0.6709692 0.38894695 0.82535005
0000c0 2c 29 5a 3f 2c 3f 26 3f 06 1f 66 3f 44 c1 12 3f
       0.85219073 0.6494014 0.8989109 0.5732615
0000d0 52 8f 5c 3f 66 3e c7 3f ab 42 1f 3f 1e 74 0b 3f
       0.8615619 1.5565917 0.622111 0.54474056
0000e0 75 0f 35 3f 56 6b e7 3e a0 21 01 3f 98 e1 12 3f
       0.7072671 0.45199078 0.5044193 0.5737548
0000f0 13 e3 e9 3e 44 4c 87 3f 8c 66 27 3f a2 4c 11 3f
       0.45681056 1.057015 0.6539085 0.5675756

bn6.weight f4 [512]
000000 02 5b 29 3f 58 50 06 3f fc 62 40 3f 41 03 13 3f
       0.6615449 0.52466345 0.7515104 0.5742684
000010 e1 e8 50 3e 57 6f e9 3e b4 f5 7e 3f 41 e8 64 3f
       0.20401336 0.45592758 0.99593663 0.8941689
000020 27 04 45 3f 28 1e 1a 3f 49 ce 5d 3f f7 98 62 3f
       0.7695946 0.60202265 0.8664289 0.88514656
000030 15 2c ad 3e d4 a2 7b 3f c4 8f 0a 3f 1b 85 65 3e
       0.33822694 0.9829533 0.5412562 0.22414057
000040 a5 2f 7b 3f 98 c0 54 3f f7 a3 36 3f 2d 7c 79 3f
       0.98119575 0.83106375 0.7134394 0.974551
000050 a5 66 61 3f 08 46 55 3f f8 bd 86 3f f3 89 bd 3e
       0.8804725 0.83309984 1.0526724 0.3701931
000060 82 ed 2c 3f 91 e6 0c 3f 8c 9a 11 3f 45 b4 6e 3f
       0.6754991 0.55039316 0.56876445 0.9324382
000070 22 53 10 3f 13 66 17 3f 83 cf 72 3f d9 41 58 3f
       0.5637685 0.5914013 0.9484789 0.84475476
000080 f6 c7 1b 3f 2c 9f 26 3f c3 33 02 3f ee 4a 20 3f
       0.6085199 0.65086627 0.5086023 0.62614334
000090 69 02 4d 3f c7 83 4e 3f 47 72 14 3f 88 e5 60 3f
       0.800818 0.80669826 0.57986873 0.87850237
0000a0 70 76 50 3f 09 a8 35 3f 82 da 23 3f ef 69 c8 3e
       0.8143072 0.70959526 0.6400529 0.3914332
0000b0 b0 18 5e 3f 89 53 ee 3e fa 1a eb 3e 9d e7 42 3f
       0.8675642 0.46548107 0.4591902 0.76134664
0000c0 c9 8b 50 3f b7 be a7 3e 74 93 e7 3e 7a b9 04 3f
       0.81463295 0.3276269 0.45229685 0.51845515
0000d0 1d 17 51 3f 74 aa 74 3f 9f 74 32 3f 86 af bf 3e
       0.81675893 0.9557259 0.697092 0.374386
0000e0 18 a7 97 3f e8 04 ea 3e 7c c3 77 3f b4 6d 7c 3f
       1.1847868 0.45706868 0.9678266 0.98604894
0000f0 47 f3 58 3f b7 fa 09 3f 53 96 48 3f 8f 50 39 3f
       0.8474621 0.53898185 0.78354377 0.7238855
000100 f9 a9 26 3f 90 7a 11 3f 06 ef 1d 3f d1 3a 0f 3f
       0.6510311 0.5682764 0.61692846 0.5594912
000110 81 c6 ed 3e 40 ef 41 3f d5 ce da 3e a6 e8 56 3f
       0.4644051 0.7575569 0.42735925 0.83948743
000120 76 75 6a 3f 00 63 d6 3e 06 70 3b 3f 26 f0 36 3f
       0.9158548 0.41872406 0.7321781 0.7146019
000130 cd 01 1c 3f d5 3f 78 3f 63 9c 08 3f 88 e3 58 3f
       0.6094025 0.969724 0.5336363 0.84722185
000140 bb db 1d 3f 00 2a 36 3f 23 1b 6c 3f 35 a2 7b 3f
       0.6166341 0.71157837 0.9222891 0.98294383
000150 c0 c8 84 3f 32 9d fd 3e bd 30 55 3f 0d 51 d7 3e
       1.0373764 0.49533993 0.83277494 0.42054024
000160 31 ee bb 3e fd 3f 27 3f ce 01 87 3f 35 a3 35 3f
       0.36705163 0.65332013 1.0547426 0.7095216
000170 66 ef 44 3f 13 30 7b 3f 83 de f2 3e 8f 4a 56 3f
       0.76927793 0.9812023 0.47435388 0.8370752
000180 49 8e 04 3f 23 05 7b 3f 70 b6 78 3f 22 19 64 3f
       0.5177961 0.98054713 0.9715338 0.8910085
000190 fd c1 3b 3f e2 77 1d 3f 58 33 58 3f a2 8a 2d 3f
       0.7334288 0.6151105 0.84453344 0.6778966
0001a0 57 00 6b 3f 52 fc 65 3f 95 6a 7a 3f 5c 8d be 3e
       0.91797394 0.89838135 0.9781888 0.37217224
0001b0 40 51 4d 3f 15 8e 75 3f 4a 01 96 3e d2 d4 30 3f
       0.802021 0.95919925 0.29297858 0.6907474
0001c0 55 fa 11 3f 60 32 e5 3e 34 eb 90 3f 85 91 4c 3f
       0.570226 0.44764996 1.1321778 0.79909545
0001d0 5e 71 58 3f ac 24 e7 3e 80 89 6a 3e 30 e9 32 3f
       0.84547985 0.45145166 0.22904015 0.69887066
0001e0 00 78 43 3f fc dc 52 3f 80 69 3b 3f 6d d9 37 3f
       0.7635498 0.82368445 0.73207855 0.7181614
0001f0 db 24 07 3f be df 4e 3f 27 9d 0d 3f 6e 6a 36 3f
       0.5279061 0.80810153 0.5531792 0.7125615
000200 33 90 39 3f e9 02 1a 3f 9e 61 3f 3f 67 bd 6b 3f
       0.72485656 0.6016069 0.74758327 0.9208588
000210 20 15 11 3f 10 e9 0d 3f 74 4b d8 3e b8 33 d0 3e
       0.5667286 0.5543375 0.42245066 0.40664458
000220 8e bc 2c 3f 92 fe 4f 3f 9c 9f bd 3e 58 c8 e5 3e
       0.6747521 0.8124782 0.37035835 0.44879413
000230 84 c7 31 3f 88 fa 94 3f c2 5d 70 3f d0 90 85 3f
       0.6944506 1.1638956 0.93893063 1.0434818
000240 07 93 14 3f 3f 58 66 3f 6d 50 04 3f c1 da 1f 3f
       0.58036846 0.899784 0.5168522 0.62443167
000250 b7 1d d7 3e 19 04 44 3f 93 63 cc 3e 7c 7b 1f 3f
       0.42014858 0.7656875 0.3991972 0.622978
000260 d0 d6 56 3e 1e 16 6f 3f 43 87 bb 3e 6a 42 6d 3f
       0.20980382 0.93393123 0.36626634 0.92679465
000270 3a 57 70 3f e3 af 25 3f 9e 0c 45 3f cb c0 78 3e
       0.938831 0.64721507 0.7697238 0.24292295
000280 04 df dc 3e 8a 4c af 3f 2e ea 10 3f 9f 9c aa 3e
       0.43138897 1.3695233 0.5660733 0.33322617
000290 30 54 27 3f 37 eb 1e 3f 30 db bf 3e 3c 89 52 3f
       0.65362835 0.6207766 0.37471914 0.82240653
0002a0 4f b5 13 3f 11 02 ce 3e 41 ba ce 3e eb 09 3b 3f
       0.5769853 0.40235952 0.40376475 0.7306201
0002b0 f6 de f4 3e 08 b3 b2 3e 6e a1 47 3f 44 5a 53 3f
       0.47826356 0.34902215 0.779807 0.8255961
0002c0 b1 b1 58 3f 11 b2 45 3f e9 f7 42 3f f7 1d 77 3f
       0.84646136 0.7722483 0.7615953 0.965301
0002d0 be 9a 17 3f 24 a7 8f 3e b6 9e 3b 3f 8a 79 a0 3e
       0.5922049 0.28057206 0.7328905 0.31342727
0002e0 e2 f2 29 3f 80 7c 6f 3f e6 72 0c 3f 39 52 68 3f
       0.66386235 0.93549347 0.5486282 0.9075046
0002f0 73 aa 80 3f c0 d3 21 3f 36 2c 57 3f 25 29 61 3f
       1.0052017 0.6321373 0.84051836 0.87953407
000300 d9 d4 48 3f bc 1f 42 3f e4 26 40 3f 4e 94 e6 3e
       0.7844978 0.7582967 0.7505934 0.45035022
000310 e1 a8 61 3f 88 ee b0 3f 20 9a 8b 3f 1f 37 c0 3e
       0.88148314 1.3822794 1.090641 0.37542054
000320 58 31 d9 3e 59 cf 28 3f 5f 5a 29 3f 3e e5 15 3f
       0.4242046 0.6594139 0.6615352 0.5855292
000330 84 f7 00 3f 62 1b 1d 3f 33 f3 81 3e f5 c0 0a 3f
       0.5037768 0.6136991 0.2538086 0.5420068
000340 69 82 32 3f 34 45 3f 3f d6 66 11 3f 6c 24 ba 3f
       0.6973024 0.7471497 0.5679754 1.4542365
000350 94 70 52 3f 1d fd 9b 3e 6d 7e 02 3f 94 8e 96 3f
       0.8220303 0.30466548 0.5097416 1.1762261
000360 7c 36 37 3f 1c 73 22 3f 3d b1 65 3f 2f 4f 65 3f
       0.7156751 0.6345689 0.8972357 0.8957395
000370 82 c3 0f 3f 9f ee 45 3f 00 53 20 3f 95 e0 52 3f
       0.56157696 0.7731723 0.6262665 0.82373935
000380 3b 0d 06 3f 91 45 1c 3f 3b 52 71 3f ee 10 d1 3e
       0.5236394 0.6104365 0.942661 0.4083323
000390 5b a0 47 3f 82 6a 25 3f ba 80 ff 3e 74 6a 2d 3f
       0.7797906 0.64615643 0.49902898 0.6774056
0003a0 a2 6e f6 3e cd 8a 23 3f 21 0d 5f 3f 45 dd d8 3e
       0.4813128 0.6388367 0.8712941 0.42356315
0003b0 ac eb 4b 3f e1 45 e8 3e 68 74 03 3f 7c c2 43 3f
       0.7965648 0.45365813 0.51349497 0.76468635
0003c0 7a e9 78 3f 98 a3 66 3e 8e 07 66 3f 6f 47 a4 3e
       0.97231257 0.22523344 0.8985528 0.3208575
0003d0 b5 00 25 3f f0 34 46 3f be ac f4 3e 80 3e d2 3e
       0.64454204 0.77424526 0.47788042 0.4106331
0003e0 dd e0 da 3e 16 97 2f 3f a9 34 18 3f c7 00 2a 3f
       0.42749682 0.68589914 0.59455353 0.66407436
0003f0 d1 9d 14 3f e4 f9 2a 3f 4c 44 64 3f 46 56 29 3f
       0.5805331 0.6678755 0.8916671 0.6614727

bn6.bias f4 [512]
000000 44 b6 94 3c e7 69 e3 ba b1 ed 50 3b 63 fc 66 bc
       0.018153317 -0.0017350287 0.0031879956 -0.01409826
000010 62 d7 84 ba 54 5c a7 bb 48 31 12 3c 37 59 ba 3a
       -0.001013499 -0.005107442 0.008922882 0.0014217262
000020 4e 94 f9 bc e1 b8 8c bc 2e 24 2b 3b 77 6b 6d ba
       -0.030466225 -0.017178 0.0026114094 -0.0009056846
000030 e9 ea 5b bb 49 a0 82 bc 25 86 5b ba 61 bf a1 bb
       -0.0033556765 -0.01594557 -0.0008374176 -0.004936144
000040 36 97 14 bd f7 6a 1d ba 41 0c b5 bc 72 df d5 3a
       -0.03627702 -0.0006005014 -0.02210057 0.0016317202
000050 1a ec 56 3c 37 8f 8f 3b d7 de 22 bc cf 65 ae bc
       0.013117814 0.004381086 -0.0099408245 -0.02128878
000060 78 9b 31 bc de 86 d1 bb 6f 0b 56 ba 5e 75 55 3b
       -0.010840289 -0.0063942512 -0.0008165156 0.0032571177
000070 f8 31 55 3c 15 8e 74 bc 99 ac 2c 3b 65 41 a4 ba
       0.013012402 -0.014926453 0.0026347993 -0.0012531696
000080 5f 50 de bc e9 a6 f3 3b 99 7b b7 bb 23 41 a7 bc
       -0.027137933 0.0074356687 -0.005599451 -0.020416802
000090 6e 73 01 bb 06 15 6f 39 03 61 05 bc e3 08 fc ba
       -0.001975264 0.00022800648 -0.008140805 -0.0019228723
0000a0 17 d8 1c 3c 1d 48 1f 3b 8d 4e 2f bb a6 d7 79 bc
       0.009573004 0.0024304457 -0.00267497 -0.0152491685
0000b0 b8 43 e0 bb 36 45 9a 3b 4d fa 33 bc 7c 88 13 ba
       -0.00684401 0.0047079576 -0.010984969 -0.0005627943
0000c0 8d 12 6e bc 52 5b db 3b 82 d0 92 3b fb 91 9b 3b
       -0.01453079 0.006694236 0.0044804225 0.004747627
0000d0 b0 0b 9e ba 3f ac 2a 3c ae 78 b5 3b 60 40 2f bb
       -0.0012057927 0.010417043 0.005538068 -0.0026741251
0000e0 95 d0 37 bc 71 ef 3c bc b3 0d 8f bb 1b b5 b8 bc
       -0.011219163 -0.011531697 -0.0043656467 -0.022547295
0000f0 38 22 36 bc 50 ed d2 bb 36 c5 74 bc 00 cf 2c 3c
       -0.011116557 -0.0064369813 -0.014939597 0.0105473995
000100 c4 62 21 3c e7 a2 16 bc 4d 07 57 3a 36 1f 63 3c
       0.009850208 -0.009194112 0.0008202687 0.013862422
000110 ab 7d 53 bc 18 7f 2e bc 2f 50 9a bc 68 7a 04 bc
       -0.01290838 -0.010650419 -0.018837063 -0.008085825
000120 ff 23 46 3b 16 e6 18 bc 4b 1a 8c 3a 30 1f d3 bb
       0.0030233858 -0.0093322005 0.0010688988 -0.006442927
000130 c5 2f 2e bb f0 a7 13 bc a7 af 91 3b e8 ad f8 3b
       -0.0026578766 -0.009012207 0.004445988 0.0075890906
000140 7f 4d 04 3c e4 d3 1b 3c e7 76 56 3a df 54 81 bb
       0.008075117 0.009510968 0.000818117 -0.003946885
000150 a4 b2 55 3c 8b dd ea bc aa e2 14 bc 60 a9 c1 3a
       0.0130430795 -0.028670093 -0.009087244 0.0014775209
000160 71 f3 dc ba 0d 5d ad bb 33 2e 36 3c 09 87 a8 bb
       -0.0016857219 -0.0052906335 0.011119413 -0.0051430506
000170 2f 20 87 bb b6 94 73 b8 9c 50 20 3c 74 5b 8d bc
       -0.0041237096 -5.8074213e-05 0.009784844 -0.017255522
000180 74 ad 3d bb 8b 7c 8f bb 07 57 0b bc c8 f4 22 3c
       -0.0028942497 -0.0043788604 -0.008504636 0.009946056
000190 c3 33 9c 39 8d d0 58 bb 62 72 14 bc 24 7d 1b bc
       0.00029793204 -0.003308329 -0.009060474 -0.009490285
0001a0 62 31 d9 ba 93 ec 16 bc 5d c0 8b 3a c9 25 3e 3c
       -0.0016570503 -0.009211677 0.0010662187 0.011605688
0001b0 01 62 d3 3b 6d 58 fa bc bf fc a8 bb 24 98 da 3b
       0.006450892 -0.030559743 -0.005157083 0.0066709686
0001c0 40 c2 8a 3c cc 12 98 bc b6 b8 03 3c a9 b5 8d 3c
       0.016938329 -0.01856365 0.008039644 0.017298536
0001d0 ec a6 6e 39 f1 52 bf 3b f9 db 4f bb 52 8c 77 3c
       0.00022759632 0.005838745 -0.0031716807 0.015109139
0001e0 ed f8 55 bb ac 8d 0b 3c c4 5c 1c bc 95 d4 8d 3c
       -0.0032649592 0.008517664 -0.009543601 0.017313281
0001f0 38 03 31 bb 95 43 42 bb 5b 83 f4 3b e2 a0 9a bc
       -0.0027009975 -0.0029642333 0.007461948 -0.018875543
000200 1b 36 af 3c f2 81 00 b9 1a ef 50 bc 41 d4 bd 39
       0.021388104 -0.0001225544 -0.012752319 0.0003620703
000210 c7 12 7f 3b 91 b6 3c bb da 55 0a bc 14 28 87 b9
       0.0038921104 -0.0028795341 -0.00844332 -0.00025779067
000220 b2 ad 89 b8 14 a0 cf 3b c9 8f a8 b9 47 21 e8 bb
       -6.565022e-05 0.0063362215 -0.00032150585 -0.007084045
000230 c8 43 1e bc eb 75 08 3c 4f 35 ba ba 50 56 3a 3c
       -0.009659715 0.008328895 -0.0014206561 0.011373118
000240 73 ae 97 bb 2e bf 23 bb 97 32 0a 3c 9b 14 7b 3b
       -0.0046289503 -0.0024985778 0.008434913 0.0038311842
000250 10 23 16 bc f2 63 f3 3c 15 3d 73 3c b6 d4 3c bb
       -0.009163633 0.029710744 0.014846106 -0.002881331
000260 2a a0 ac 3a 97 b9 c2 bc 50 b3 8f bc df 8d 7f bc
       0.0013170291 -0.023770137 -0.017541558 -0.01559779
000270 b9 49 63 bc cb ff 8a bb d0 df 2d bc 0b c7 85 bc
       -0.013872557 -0.0042419187 -0.010612443 -0.016330263
000280 0a e5 21 bc ec 7d e1 3b 5b 9f 03 bc a5 23 21 bc
       -0.009881267 0.006881466 -0.008033599 -0.0098351585
000290 ef de 0f bc 72 ec da b9 ae c2 5e 3c 98 4a 92 bb
       -0.008781179 -0.00041756366 0.01359622 -0.0044644587
0002a0 73 cb 5f bb 0c 33 7d bb f4 9e 93 bb db 00 b0 bb
       -0.0034148365 -0.0038635163 -0.0045050327 -0.0053711957
0002b0 0b b4 0a 3c 6f b8 40 3c 9d d7 0a bc 31 fc 30 3a
       0.008465777 0.011762722 -0.008474258 0.00067514466
0002c0 32 ab 1f 3c 77 ab 21 bc ea c1 66 3b 2a dc 7e bb
       0.009745406 -0.009867541 0.0035210797 -0.0038888552
0002d0 c3 e1 71 37 a1 80 af bb 17 5f cc bb 71 e9 1b bc
       1.4417284e-05 -0.00535591 -0.0062369215 -0.009516106
0002e0 f9 4b 38 bb ff 58 60 3b 27 d8 f7 bb 2a 99 51 3c
       -0.0028121455 0.0034232733 -0.007563609 0.012792865
0002f0 51 20 dd bb 17 8b 8c 3c 6a c5 b9 bb d0 79 63 bc
       -0.006748237 0.017156167 -0.0056692855 -0.013884023
000300 a6 d4 8a bc 8a f5 80 3c b4 6f 9d bc 9a 35 75 3b
       -0.016947102 0.015742082 -0.019218303 0.0037415982
000310 2e e4 69 bc b5 98 12 bd 84 b3 0f bc 23 c9 6b 3b
       -0.014275594 -0.035790164 -0.008770827 0.003597804
000320 b2 59 4c ba ec 6f 85 bc b3 c3 65 bb b0 9f 12 bc
       -0.0007795348 -0.01628872 -0.0035059273 -0.008949205
000330 28 b1 9d bb 20 c8 a1 bb 85 d7 92 b9 18 8c 81 3c
       -0.0048123784 -0.004937187 -0.00028007865 0.015813872
000340 19 6a 1e bc 47 42 23 3b 1f 9a 75 bc e0 66 99 bc
       -0.00966885 0.002491133 -0.014990359 -0.018725812
000350 ea 64 2c ba db 55 ad bb 1f 35 91 3b 69 f1 ee 3b
       -0.00065763167 -0.005289776 0.0044313814 0.007291962
000360 4a c3 ea 3b 8a 9e bc 3b 98 ee 75 bc ab 89 90 3b
       0.0071643936 0.005756204 -0.015010498 0.0044109426
000370 91 2b cd 3b 5d 6a 9b bc d4 0e 6b bb 56 87 82 bb
       0.006261297 -0.018971616 -0.0035866993 -0.0039834185
000380 68 22 80 bb c1 4b cd bb 3f 0d 82 bc 0c da 57 3b
       -0.0039103515 -0.006265134 -0.015875457 0.0032936363
000390 44 69 a7 bb c5 20 5f bb fb 1a 60 bc 54 56 38 bc
       -0.005108984 -0.0034046632 -0.013678308 -0.011251051
0003a0 cd 65 90 b9 60 87 66 3c 38 3b 85 bc 95 1c d2 bb
       -0.00027541668 0.014070362 -0.01626359 -0.0064120986
0003b0 fa ac 8f bb f4 f5 0c bc 4f c8 6a bc 7d 72 b4 3c
       -0.004384634 -0.008603562 -0.014329984 0.022027249
0003c0 ac 5a 00 3c f1 d3 e8 3b 3f 7a 1f bb 88 20 b7 3b
       0.007834118 0.0071053435 -0.002433434 0.005588595
0003d0 c8 a5 33 3c e3 43 58 bc 51 8e 2d bb 3d ff 98 bb
       0.010964818 -0.013199779 -0.0026482532 -0.0046690986
0003e0 db a3 45 3a 6d 1f 8e 3b 1e 69 a0 bc a5 45 1d bc
       0.000753937 0.0043372423 -0.019581374 -0.009599124
0003f0 28 d7 95 ba aa b2 e0 bb c4 32 4e bc 88 2f 28 3c
       -0.0011431919 -0.006857236 -0.012585346 0.010265239
